models/spec_cnn/all_lang_aware/best_model.pth (torch, 490594 bytes, 36 tensors)

cnn_backbone.0.weight f4 [16, 3, 3, 3]
00000000: e239 8c3d c17f 61be 8ef5 113e 0782 d5bd
00000010: d2b3 46bd 4723 193e 214e ebbd 3dbe b43d
00000020: d738 213e 9c34 89be 892e 193d 665d e83c
00000030: 15a0 68bd a5f5 973c cc9a cd3d 9fd0 49be
00000040: 0974 11bd d71f 533e fc91 a73d d378 f3bc
00000050: 9370 39be 5709 10bd 4c25 22be f709 1a3e
00000060: 8ecc 1fbe 9893 3bbd 24ab 47bd 94d7 4ebb
00000070: 5443 353e 9010 bb3c a64a b43d 0e18 303e
00000080: b958 473e e3b9 9dbd f2ee 94bc 06de 113e
00000090: 8285 b0bd 1612 dd3d 904f 13bd 4f07 19be
000000a0: 71ab 083e 816c c63d 2f55 a13d 01da 623e
000000b0: c5b0 4d3e aa2b 0a3e b82f 29bd b06b 27be
000000c0: 2bb1 29be 1753 26be 4df6 2bbe 28e1 e3bd
000000d0: 188c 4bbe 6622 26be d32f c9bd bb62 4fbe
000000e0: 94c5 a9bd 2169 0b3e 9a1b 4c3e 4978 a83b
000000f0: 55af 8abc 1a35 f83d 9b76 44bd 0f31 a7bd
00000100: 0891 c13d 691d 08be 549d ef3d ed05 693e
00000110: 8788 d13d a608 f83d 0435 80bd 46d0 863d
00000120: a79f 783d d470 e23c 774c ac3d 3855 443e
00000130: 2862 3abe 1919 a33b c1d4 98bd 95fe 49be
00000140: 1916 ffbc 2a17 fcbd d662 193e f179 8e3d
00000150: 3ef8 7bbd cb89 ed3d 560f 04be 25ec f2bd
00000160: 9db3 8ebd d015 49be 2d06 b1bc 125a 213c
00000170: 1bd7 5f3e 7396 963e d6b7 2e3e f643 45bc
00000180: 1f30 d8bd a5a8 333e 7ba9 c13d c89f d53c
00000190: 6179 673d 1510 08be 46b1 43bd 6397 583e
000001a0: 40ac 0bbd ef3c 13bd 879c 28be 5709 0cbe
000001b0: 6aae 323d a685 9dbd 3125 9f3c f6ca 013e
000001c0: 44d7 13be e7e9 b93d d390 97bd d261 57bd
000001d0: b301 d23d 08a4 2e3e 9ac0 08bd ba56 7abd
000001e0: 686e 19be ecbb 9ebd 071f 26be 5043 43bc
000001f0: 3bf4 573d bdd2 34be 27ad 833e c5b2 453e
00000200: 9cf1 f3bd 5235 9abb 5e01 043e 5c1d 9d3c
00000210: 2a52 6f3d 4fce cebc d70f 4f3e 6fba 82bd
00000220: fdcb 4e3e da6c e83b 2e15 333d 017b 503e
00000230: 589a d5ba 521c cdbd 8d3f 80bd 93ef 4f3e
00000240: cb63 a8bc 39be 363e 721c 27be e248 223e
00000250: e900 413e 8553 c93d 9891 073e 44ee af3c
00000260: 3ef2 583e ab9a 6cbe b1e1 17be adad 353d
00000270: 7b00 c53d 5e0a cabc fd91 3cbe af9a b63d
00000280: 4119 f9bd 5a79 93bd 93db 29be faa5 8ebd
00000290: ab40 ec3d de72 373d 9c6f 0fbe 46fa 383d
000002a0: 8b99 58bd c99e 163e 7464 47be c9e8 52bd
000002b0: f5b4 64be ad91 c4bd 86af ba3d 5934 293e
000002c0: e327 b03c e932 6c3e b5c9 1e3d 381c b63d
000002d0: bb3e 563e f5ee 163e a9f2 0dbe b9ae 613e
000002e0: dec0 cb3d 8acc fcbd 5a34 78bd 1097 42be
000002f0: 0888 b23a 15c6 0cbe be52 8dbc 55fa 193d
00000300: 6cc7 1cbe ab85 2dbd 9d85 9bbc fd42 bf3d
00000310: 7601 943c 5475 44be e72f 613e 823d cb3d
00000320: 5118 683d ba1b fbbd ec2e f0bd 8737 09bd
00000330: afdc 7bbc 9410 5f3d e33f da3d 591e 7b3e
00000340: 2890 e6bd f8ea be3c b5b6 223e 2835 4ebe
00000350: 6071 5abe 3a6d 0fbc 5185 be3d 4ad7 59be
00000360: c242 86be 1c5b e23d c91f b53d e43e 873d
00000370: 7a1a 18be fc2a 08be 15f7 213a 940c 283e
00000380: 1007 c73d cbb7 0ebd bc84 dd3d 6a3c 5d3e
00000390: adc6 42be 044b 77bd 4417 3b3e bd9c 56be
000003a0: 3ae1 aebd 2a0d 233e 2485 d13c 6f5c 8a3d
000003b0: e604 f9bd b6f8 f4bc 6300 473e b6ce 0abe
000003c0: f32f 97bc ff57 f73d 7e77 1abe fbd5 7e3e
000003d0: 9df8 9bbd 0067 a6bc 8125 20bc 59e1 edbd
000003e0: 9204 2cbe ffc2 1b3e 707b 573d 7eb9 21be
000003f0: dbe2 79bd d3f5 563e e212 c53d ddc3 e73d
0.06846978 -0.2202139 0.14253828 -0.104251914 -0.048511334 0.14954863 -0.11489511 0.088253476
0.15744339 -0.2679795 0.037397895 0.028364848 -0.05679329 0.01854975 0.10039291 -0.19708489
-0.03551105 0.20617615 0.08182141 -0.0297207 -0.1810935 -0.035165157 -0.1583454 0.15042864
-0.15605375 -0.045795053 -0.048747197 -0.00315616 0.17701465 0.022835046 0.088033006 0.17196676
0.19467439 -0.07701471 -0.018180344 0.14244851 -0.086192146 0.10794465 -0.03596455 -0.14944194
0.1334665 0.09688664 0.078775756 0.22153474 0.20086963 0.13493219 -0.041305274 -0.16349673
-0.1657149 -0.16242634 -0.16793175 -0.111269295 -0.1987766 -0.1622406 -0.09823575 -0.20252506
-0.08289638 0.13614322 0.19932404 0.0051412922 -0.016929308 0.12119503 -0.047964673 -0.08163654
0.09451491 -0.13292469 0.1169993 0.22756167 0.10231119 0.121110246 -0.06260112 0.06582694
0.06069913 0.027641691 0.08413022 0.19173133 -0.18201506 0.004977357 -0.074624546 -0.19726022
-0.031138467 -0.12309106 0.14979109 0.06956852 -0.06151604 0.115985475 -0.12896475 -0.11861447
-0.06967852 -0.19637227 -0.02160939 0.009848135 0.218594 0.2941166 0.17062315 -0.012040129
-0.10556053 0.17544802 0.09456154 0.026077166 0.05651224 -0.13287385 -0.047776483 0.211515
-0.034099817 -0.035946783 -0.1646596 -0.13675438 0.043623365 -0.07691507 0.019426914 0.1267508
-0.14437586 0.090778165 -0.0740067 -0.052583523 0.1025423 0.1705476 -0.033386804 -0.061117865
-0.14983523 -0.07750687 -0.16222773 -0.011917904 0.05272315 -0.17658515 0.25718042 0.19306476
-0.11911318 -0.0047060633 0.12891147 0.019179039 0.058427967 -0.02524486 0.20220886 -0.06383216
0.20195003 0.0070930542 0.04372137 0.20359422 -0.0016296608 -0.10015167 -0.06262121 0.20306234
-0.020555397 0.17846002 -0.16319445 0.15848115 0.18848003 0.09830383 0.13239133 0.021475919
0.21186158 -0.23105876 -0.14832188 0.044355083 0.09619232 -0.024663147 -0.18415065 0.08916222
-0.1216302 -0.0720088 -0.16587667 -0.06965251 0.11535772 0.04478728 -0.1400742 0.045160554
-0.052880805 0.14709009 -0.19471914 -0.051491532 -0.22334655 -0.09598098 0.0911551 0.16523875
0.021503394 0.23066296 0.03876658 0.08892101 0.20922367 0.14739592 -0.13862099 0.22039308
0.09948896 -0.123437 -0.0605968 -0.19002938 0.0013620863 -0.13747437 -0.017251369 0.03759225
-0.15310448 -0.042363804 -0.01898461 0.09338949 0.018067103 -0.19185382 0.2199093 0.09923841
0.056663815 -0.12261148 -0.117277 -0.03350022 -0.015372439 0.05445917 0.10656717 0.24523295
-0.112579644 0.023305401 0.1589001 -0.20137465 -0.21332312 -0.008754069 0.09302772 -0.21273533
-0.26222807 0.11052534 0.08843953 0.06603792 -0.1485385 -0.13297647 0.00061784807 0.16411048
0.09718144 -0.034843247 0.10816333 0.21605077 -0.19021101 -0.060374275 0.18270594 -0.20958228
-0.08539052 0.1592299 0.025576182 0.067559116 -0.121591374 -0.02990375 0.19433741 -0.13555416
-0.018455481 0.12077331 -0.15084645 0.24886315 -0.076157786 -0.020312786 -0.009774567 -0.11615247
-0.16798618 0.15211104 0.052607954 -0.15793416 -0.06100736 0.20992212 0.09622742 0.11316655

cnn_backbone.0.bias f4 [16]
00000000: 1365 11b8 f29e 0f3a ac36 f7ba a0fa 5239
00000010: cc63 74b9 f6cc 0538 c50e ffb9 5a99 2b38
00000020: bfe8 03b8 fede 6739 7302 93b9 3373 aa38
00000030: 3174 a838 1ed6 e3b9 6f1a 88b9 7492 e5b7
-3.4664827e-05 0.0005478702 -0.0018860898 0.00020120526 -0.0002330683 3.1900556e-05 -0.00048648394 4.0912397e-05
-3.1449596e-05 0.00022112948 -0.0002803985 8.127689e-05 8.0325066e-05 -0.00043456344 -0.00025959636 -2.7367125e-05

cnn_backbone.1.weight f4 [16]
00000000: c909 833f 48b5 853f 2fd0 983f e613 7e3f
00000010: 3715 663f ed68 5b3f 2fb0 893f 7545 7d3f
00000020: 1456 7e3f a78e 873f 854c 6e3f d4f6 863f
00000030: 65e4 6d3f e883 793f a399 723f a152 673f
1.0237361 1.0445948 1.1938533 0.9924911 0.8987612 0.8570698 1.0756892 0.9893411
0.99350095 1.0590409 0.9308551 1.0544076 0.9292663 0.974669 0.9476568 0.90360457

cnn_backbone.1.bias f4 [16]
00000000: 02ac c33d f7b9 77bc 64c0 de3d b21b 92bd
00000010: 2e47 8abd 8e15 6fbe 3309 91bc e7be aebd
00000020: 095b 94bd 83d7 713d bd45 a8bd 02b4 01be
00000030: 34fc 59bd 3cc4 35be 7d93 f6bd 8e5f c0bd
0.09554292 -0.015120021 0.10876539 -0.07134189 -0.06751858 -0.23348066 -0.017704582 -0.085325055
-0.07243926 0.05904342 -0.082164265 -0.12666324 -0.053219035 -0.17750639 -0.1203985 -0.093932256

cnn_backbone.1.running_mean f4 [16]
00000000: e2d5 b3bd 6e79 b6bd 0e06 bbbb 09b4 a1bd
00000010: 0db1 173e af3f 1bbc c064 fc3b 2f9d e6bd
00000020: 36fa 09bc ed83 ec3c 6b57 dd3c 529f a23a
00000030: 7b2f 3ebc fcb6 88bd 2c6d 043d 1521 8cbe
-0.08781029 -0.089098796 -0.005707509 -0.07895667 0.14813633 -0.009475633 0.00770244 -0.11260449
-0.008421471 0.0288715 0.027019223 0.00124071 -0.011608 -0.066755265 0.032330677 -0.2736899

cnn_backbone.1.running_var f4 [16]
00000000: 8357 e23b 7691 ea3b 3195 623a 8552 ab3b
00000010: 0889 2d3c 5b26 883b f520 9a3a 6f9f 2f3c
00000020: 93d3 b33a 31ae b23b dce0 433b 35e2 f33b
00000030: a178 913b 232c 663b 84b6 2f3b 3157 803d
0.006907405 0.0071584536 0.0008643447 0.005228343 0.010591753 0.004154963 0.001175909 0.010719164
0.001371967 0.005452894 0.0029888665 0.0074427375 0.004439429 0.0035121522 0.0026811669 0.062666304

cnn_backbone.4.weight f4 [32, 16, 3, 3]
00000000: 2ff0 8d3d 546e 2e3e b8e4 433d b297 2a3d
00000010: 9f1c b83d f14b 11b9 23db ae3d f782 cd3d
00000020: 555e 063d cb66 cdb9 a1f2 a73d 8b66 5bbd
00000030: 9287 8ebc 2d90 8c3d 5bcb 513d 49d7 c33d
00000040: e443 9e3c c8df 78bd 7010 1a3e fb23 613e
00000050: da70 cabb efdd ed3d 64b6 793d a7eb ed3d
00000060: 6e42 9b3d 8c9f 4e3c 8105 a0bc b748 06bc
00000070: 9560 7bbd 4063 f3bd acd3 003d 207f 99bd
00000080: d0c8 4ebd fada 83bd 0b46 93bd a77a 19be
00000090: 9eb9 c93b c39c 9abd 07c4 43bd 631d d8bb
000000a0: 0ebd 98bd a8f1 2bbd ab0d 56bd fcc9 81bd
000000b0: 1cfe 3abd 9482 603d d306 b63d a19c 9ebc
000000c0: d865 3d3c f1b4 9a3d 2cb1 ab3d e62b 163e
000000d0: a473 783c 7793 fc3d 2225 ae3d 9d6a a73d
000000e0: 7427 18bd e028 b43c 9a55 3bbd 5ce0 85bb
000000f0: 79b6 b23d 78ea ac3c 9a61 633d e4a8 56bd
00000100: 42a0 1dbc 2786 9cbd ee7f 083d 84dd 77bd
00000110: c0a1 4dbd a772 e9bd 2703 4cbd 874e 843c
00000120: 480f 013e d808 b93c 6b31 473d 93f7 5e3d
00000130: 65e9 96bc facb d83d 06c6 193d e5e8 233d
00000140: 69e6 d2bb ef94 b9bc bdba 423d 29a4 373d
00000150: bab0 993c 1885 fcbc 7506 9e3d 6c1f 7e3b
00000160: 3502 0cbd 5130 49bd ed52 fe3d ce04 2a3d
00000170: ce76 d93c 043f 53ba e002 443c aee0 bebc
00000180: 4bcb 2e3c 189b e43d bbbd fc3d fa52 ef3d
00000190: 7151 25bd 397f 8d3d ca8b 27bd b5b0 083d
000001a0: dcf9 c13d 3481 003e c051 983d f139 b53d
000001b0: 2d70 83bb 1138 183d d800 f43a da1d f63c
000001c0: 38ab ebbc 3385 003d 6db9 8fbd 50a9 b3bc
000001d0: 2cfb b0bc 4dad 643d 1a2a ee3c 39d8 87bc
000001e0: 8452 6d3d 63aa ee3d 0429 2b3e e933 e53d
000001f0: f8b6 c2bc 06e7 f8bc 3d7d 593d 2910 943d
00000200: 02db 2dbd ec01 813d 0d9e f83d e5dc 8e3d
00000210: c154 5cbd f560 703d 0567 cd3c 824c 063d
00000220: 0b16 bbbd d670 2dbc e01d acbd 87c3 1e3d
00000230: afce c3bd 5522 003c e645 0abd 5a17 57bd
00000240: 3019 85bd 27c4 353d 8a54 81bd d307 1abe
00000250: 48c6 7bbd e5ab 993c 38ad b3bd c0e8 003c
00000260: 0754 a7bd acf8 b13c 6931 d13d 3bd2 6f3d
00000270: 8c32 09be 806e bcbd 46f0 17bd 1443 f2bd
00000280: 75cf 8c3d bef5 e6bd 71e6 8f3d 4bf3 e73d
00000290: b266 e03d 1cf8 653c 3ea0 36be 1138 af3c
000002a0: 3873 dabc a54e 67bd 896b d53d db31 1ebd
000002b0: 75c5 f13c 62c4 b83d d0f7 87bd 3f0d eabc
000002c0: 9986 c33c 8e83 b83c 001a c13d 9589 9fbc
000002d0: 4084 ba3c 177f 4bbd 2e99 80bd 07de 69bd
000002e0: e152 1b3d e244 b3bb 4cd2 5bbd 13ce 813d
000002f0: b08b 893b cf07 b6bc 06fa 09bd 7af9 bc3c
00000300: d865 b33b fbef c33b 88d9 f3bd 0f56 1f3c
00000310: cb7b cabc b16f 91bc a97a d43d 7aa0 b73d
00000320: 4d8b f5bd 495b cc3d 28ad bbbd ae7c 9cbd
00000330: 6f08 55bc b772 633c 43f7 afbc 1e34 423c
00000340: 06a6 c53b 2ef8 193c 38b3 f63d a637 b13d
00000350: 15a1 8b3d 3ef8 b23d d956 ec3d 32d7 033d
00000360: dac0 11bd c362 853d f908 1dbe 3f78 0abe
00000370: 796c 1f3d 62db f1bd 0614 bfbd 239c 18bd
00000380: 5d7c d5bd cf38 263e 6685 68bd f065 4d3d
00000390: e03c 3a3e 8332 9cbd b521 9cbd a9f6 803d
000003a0: efa5 2ebd a4db 9bbc 939b 123d bd32 23bd
000003b0: 3cdb 5bbd e489 10bd aac0 c8bd 2670 643c
000003c0: 2566 42bd 983f f8bd c2bf f1bc 5712 5dbc
000003d0: 9958 ae3d ea0d b63d be7b b23c 696b bbbd
000003e0: 61ff 103c c202 d7bb 63c5 56bd 68e0 253d
000003f0: 6e0f 953d 5ac8 08bd f9c2 ea3c 7cfa debc
0.06930577 0.17034274 0.047825545 0.041648574 0.08989834 -0.00013856568 0.08537891 0.10034745
0.032804806 -0.00039177234 0.08200575 -0.05356459 -0.01739863 0.06863437 0.051219326 0.09562547
0.019319482 -0.06076029 0.15045333 0.21986382 -0.0061780037 0.11614596 0.060964957 0.11617213
0.0758103 0.012611281 -0.019533874 -0.0081960475 -0.061371405 -0.11884165 0.031451866 -0.0749495
-0.05048448 -0.06438251 -0.07191094 -0.14988194 0.0061561605 -0.07549431 -0.047794368 -0.0065953
-0.07457934 -0.04197851 -0.05225913 -0.063373536 -0.045652494 0.05481203 0.0888802 -0.019361796
0.011559926 0.07554043 0.08383402 0.14665183 0.01516429 0.12332814 0.08503176 0.08174632
-0.037147 0.021992147 -0.045735933 -0.0040855836 0.0872621 0.021107897 0.055513002 -0.05240716
-0.009620728 -0.07642775 0.03332513 -0.060513988 -0.050203085 -0.11398821 -0.049807694 0.016150726
0.12603486 0.022587225 0.048631113 0.054435324 -0.018421838 0.105857804 0.037542365 0.040017027
-0.0064361584 -0.022654025 0.04754137 0.04483429 0.018761028 -0.030825183 0.07716075 0.0038776053
-0.034181792 -0.049118344 0.124181606 0.04150849 0.026545908 -0.0008058401 0.011963576 -0.023300495
0.010668586 0.11162394 0.12340876 0.116857484 -0.04036087 0.069090314 -0.040904798 0.033371646
0.09471485 0.12549287 0.074374676 0.08848942 -0.004011175 0.037162844 0.0018615974 0.030043531
-0.028768167 0.03137703 -0.07017789 -0.02193132 -0.021604143 0.055829335 0.02907281 -0.016582595
0.05794002 0.116535924 0.16714865 0.11191542 -0.023768887 -0.030383598 0.053097952 0.07229645
-0.04244519 0.06299195 0.12139521 0.06975726 -0.053791765 0.058686215 0.025073538 0.032787807
-0.09135064 -0.010585984 -0.08404136 0.03876069 -0.09560906 0.007820685 -0.033758067 -0.052512504
-0.06498945 0.04437652 -0.06314953 -0.15042047 -0.061468393 0.018758724 -0.08773273 0.007867992
-0.08170324 0.021725021 0.10214502 0.0585501 -0.13398188 -0.09200764 -0.037094377 -0.118292004
0.06875507 -0.1127734 0.07026375 0.11325701 0.109570876 0.014036205 -0.17834565 0.02138904
-0.026666269 -0.056471486 0.10420901 -0.038621765 0.0295131 0.09021832 -0.06639063 -0.02857077
0.023867892 0.022523668 0.09428787 -0.019474784 0.02276814 -0.04968175 -0.06279217 -0.057096507
0.037920836 -0.005470858 -0.05366735 0.06338134 0.0041975603 -0.02222052 -0.033685707 0.023068178
0.005474787 0.0059795356 -0.11906725 0.009725108 -0.024717232 -0.017753454 0.10374958 0.08966155
-0.1198946 0.09978349 -0.09163886 -0.07640968 -0.013002499 0.013882331 -0.021480208 0.011853246
0.0060317544 0.00939755 0.12045902 0.08653192 0.06817833 0.08738755 0.115400024 0.032187648
-0.03558431 0.06512978 -0.15335454 -0.13522433 0.038921807 -0.11809422 -0.09329991 -0.03725828
-0.10424111 0.16232608 -0.056767844 0.050146043 0.18187284 -0.07626822 -0.076236166 0.06297047
-0.042638715 -0.019025631 0.0357929 -0.03984331 -0.053675875 -0.035287753 -0.09802373 0.013942754
-0.047460694 -0.121215045 -0.029510383 -0.013493142 0.085129924 0.08889373 0.02178752 -0.09151346
0.00884995 -0.006561608 -0.052434336 0.040497214 0.072783336 -0.033394195 0.028657423 -0.02721905

cnn_backbone.4.bias f4 [32]
00000000: e1d7 7cb6 21d3 41b3 0b04 8f38 66df a6b4
00000010: 4bb0 1ab7 3fb1 a5b6 2502 06b8 b8fc 6737
00000020: 5d85 8c37 3892 bf37 0a12 a836 8b0a a537
00000030: 08f9 3eb6 a73d 4137 f517 e437 a45f 95b7
00000040: b397 a6b6 97de b538 c97b 0f38 5e6e 01b7
00000050: 1a01 4d37 2868 01b9 c529 6fb8 85ad 4cb6
00000060: 60cb 6737 4b63 a037 289c 4d38 566c ed37
00000070: e1f7 9b35 2771 b0b7 c3cd 1635 f336 18b6
-3.7676584e-06 -4.5128335e-08 6.8195244e-05 -3.1082453e-07 -9.220162e-06 -4.9380174e-06 -3.1950087e-05 1.3827514e-05
1.6751403e-05 2.2837063e-05 5.00889e-06 1.9674442e-05 -2.8457162e-06 1.1518051e-05 2.7190874e-05 -1.780672e-05
-4.9648456e-06 8.672213e-05 3.420914e-05 -7.714696e-06 1.2219209e-05 -0.000123412 -5.702094e-05 -3.049937e-06
1.3816025e-05 1.9119723e-05 4.902124e-05 2.830305e-05 1.1620542e-06 -2.1033526e-05 5.617878e-07 -2.268175e-06

cnn_backbone.5.weight f4 [32]
00000000: 76ea 603f c877 7c3f 1f87 7e3f 319a 5f3f
00000010: dc9d 7f3f 184a 603f bfc9 703f 196b 7d3f
00000020: e963 743f 4ff3 703f d230 5a3f 304b 6b3f
00000030: fb26 673f 41ac 893f d52f 393f ad85 4a3f
00000040: 50b3 6f3f 4a40 803f 0bba 8a3f c9d8 8d3f
00000050: 1e8a 5e3f a221 983f 2390 803f df27 803f
00000060: f429 713f 1235 883f d27c 7d3f b92d 8b3f
00000070: 13f7 6f3f d4df 813f 0515 5f3f 08b4 643f
0.8785776 0.9862027 0.9942493 0.8734465 0.9985025 0.8761306 0.9405784 0.98991543
0.9546495 0.9412126 0.85230744 0.919116 0.90293854 1.0755693 0.7233861 0.79110223
0.93632984 1.001962 1.0838026 1.1081783 0.869295 1.1885264 1.0043987 1.0012168
0.9420464 1.0641196 0.99018586 1.0873328 0.9373638 1.0146432 0.8714145 0.89337206

cnn_backbone.5.bias f4 [32]
00000000: b937 b9bd 5594 dabc 3fc5 69bd c494 30be
00000010: 810f 44bd 9fa6 cdbd a82b 1cbe 4c4b 1ebc
00000020: 93a5 21be 668a 12be aecd 26be 1e2f 28be
00000030: 9329 81bd 9d2e 91bc 4cbb 4fbe 84c5 46be
00000040: 8a3d 44be 7113 44be 44a1 873d b72f 41bd
00000050: 766e 0cbe 8696 29bc b0ac 80bc 6c56 c6bc
00000060: 6802 ecbc 46f8 143c 9520 24be dccd e6bd
00000070: 961e e0bd 2fc4 623d f975 b3bd 5101 33be
-0.090438314 -0.026682058 -0.057072874 -0.1724425 -0.04786635 -0.10041546 -0.15251029 -0.009661507
-0.15785818 -0.14310607 -0.16289398 -0.16424224 -0.06306758 -0.017722422 -0.20286292 -0.19411284
-0.191641 -0.19148041 0.06622556 -0.047164645 -0.13714013 -0.010350829 -0.015707344 -0.024211131
-0.028809741 0.009092396 -0.16028054 -0.11269733 -0.10943334 0.055362877 -0.08762736 -0.17480971

cnn_backbone.5.running_mean f4 [32]
00000000: 6b80 d73f 6322 14bf 0f98 4ebe cbf4 fa3d
00000010: b820 84bf f08c 9dbf 4cc0 373f caf5 06c0
00000020: 4600 883f 8a5c e53e 2bbe aebe 647d cebd
00000030: d44e 43bf 9e52 cdbe f9fb 073f 0a96 e23f
00000040: f48a 443f 9a9f 92be ed76 27bf 3f6e e3be
00000050: 6ce7 a63f 35ce f63f c33f c63e 84c8 3ac0
00000060: 3e9c e7bf 3e3d 723f 33e5 b3be a045 29bf
00000070: 227a 3f3f 4387 15bf f97e 0f3f cb9d 813f
1.6836065 -0.5786497 -0.20175193 0.12253722 -1.0322485 -1.2308636 0.71777797 -2.1087518
1.0625083 0.44797164 -0.34129462 -0.1008251 -0.7629216 -0.40102094 0.53118855 1.7702038
0.76774526 -0.2863739 -0.6541584 -0.4442005 1.3039374 1.9281679 0.3872052 -2.9184885
-1.8094556 0.946247 -0.35135803 -0.66121864 0.74795735 -0.5840952 0.5605312 1.012628

cnn_backbone.5.running_var f4 [32]
00000000: b7c5 c240 af9b ac3f 90ed 443f 6066 3b3f
00000010: f19d 7c40 078a 3440 9dc8 4640 4b3a f23f
00000020: e2ec 1740 8aba 2e40 dcfc 563f f979 653f
00000030: b2f2 ab40 9c17 853f 0c64 0a3f 1f00 fe3f
00000040: 134a 0140 850f ac3f 65fc 0440 7ff8 0040
00000050: b1f3 1940 cf04 bc3f 5bac 233f 499b de40
00000060: 59bf 3140 923d c03f 830b 413f 7f0c 5c3f
00000070: df5c 1440 7635 6640 4e89 b63f 8a36 3b40
6.086635 1.3485011 0.7692499 0.73203087 3.94714 2.8209245 3.1059945 1.892404
2.3738332 2.7301354 0.8397958 0.8963924 5.373376 1.039783 0.5405891 1.9843787
2.0201461 1.3442236 2.077905 2.015167 2.4054987 1.4688967 0.6393487 6.9564557
2.777304 1.501879 0.7540819 0.8595657 2.3181684 3.597013 1.4260652 2.9252038

cnn_backbone.8.weight f4 [64, 32, 3, 3]
00000000: e2be 693d e445 b33d 2e7d a43d 21d3 cabc
00000010: c4d3 a93c 8453 883d 633c 5bbd 2a7d ebba
00000020: 3a18 df3c e66f 183d a9ce d9bb ef2d 1d3a
00000030: abfd d13b 7f27 943d e8ae 623d 783e 873d
00000040: 4fe4 043d 5123 c93c b23b 3a3d f61d e13b
00000050: f4d6 1f3d d81c 7bbd a12f 633d 914b 6e3d
00000060: cb23 7a3d ccd1 a23d fad4 a03d a280 c13d
00000070: 17a9 9c3d e847 373c 9416 96bc 3e85 a33d
00000080: 4d5f 50bb e740 aa3d 1b5c 3a3d be61 533d
00000090: 2b4b 0cbd 97b2 65bb f69e d63b 07de 3abd
000000a0: 2634 0f3c 87c9 243d 7d20 6d3d 3d71 873d
000000b0: 9796 813a cee8 3dba fe39 23bd 64d4 303d
000000c0: e7f0 aa3c 0ece 8b3d edfb 723c b344 c23d
000000d0: ade8 a63d 275c cc3d df29 413c 8822 263c
000000e0: 9567 44bc 2683 cdbc fe1d 993d 30bb c9ba
000000f0: 2b13 1b3d f5cd ef3d 4883 fc3d c83d 1a3d
00000100: f686 933d 03e6 9c3c 5cdd 303d da4b 033d
00000110: 1949 173c f5cc 8e3d ee63 1a3d 7c83 153c
00000120: e0ba b03d d534 403d b313 6a3c 7216 033d
00000130: a983 d53c 6026 85bc 5c4f a7bd b929 f1bc
00000140: 5673 9cbd be1f be3d b26e 263d d04c 943d
00000150: 6870 703d 5fac b33c c2ea 633c 494f 21bd
00000160: 320b 5cbc 812e 91bd d856 793d 0635 e73d
00000170: c1f9 113d a048 cc3d b995 9a3d ce35 c93c
00000180: 928d bbbc ba4e 613d afea 773c 491e b03d
00000190: 4238 66bc 89f8 833c 7e50 8bbc 0939 373d
000001a0: f686 64bc 9c6e f8bc a962 0d3d 394c a63d
000001b0: 58f7 c13c cefe 863c 44f7 b93d 2e3b ea3c
000001c0: 385c afba 681c 983d dc3e b33d 8b0c d53d
000001d0: 241d d83d 174c b93d ac50 d73c b241 9c3b
000001e0: e3df 673d 4fb6 6d3d 9d9e 8b3d f4f6 913d
000001f0: 3795 0b3e e50b 6d3d 2c8b 183d d253 943c
00000200: ca53 6e3b d0a3 c63c 4790 b6bc 9c34 a43d
00000210: 1f37 8cbc 62a1 be3c f1bf d03a 7380 943b
00000220: 9235 be3d dc10 873c 9830 723b 50cc 023d
00000230: ab38 9e3c d580 ab3c a2bd f23a ea6c 86bc
00000240: bc64 813d 2144 bf3d 3164 783d 7193 7b3c
00000250: 7b72 b93c 783e 9fbc e468 9fbb 3581 5f3c
00000260: 8f14 97bc 71a4 b63c c317 8b3d 3892 5c3d
00000270: 69ac cf3d 7d60 c73c 4d81 e43d b64b 913d
00000280: ce99 343d 0b9b 073e 77b1 38bd 0cfc 4cbd
00000290: 07aa 173d 012a 283c 5de4 ed3c 354e 85ba
000002a0: 2514 ad3d 4891 8a3d 08f8 023e 7e83 cd3d
000002b0: 85c8 963d 2d28 2e3d 63c9 0b3e 3b7b b33c
000002c0: df16 c8bc a112 1a3d d046 853d 2d14 983b
000002d0: 6406 863c d70d dd3c b446 133d 1960 00bd
000002e0: 5447 903d 2701 38bd 406c 7cbd 4c1e 5a3c
000002f0: 738a b4bd 8748 d53a 3285 61bd ed67 08bd
00000300: 3786 473d 57a0 d7bc 43d0 e93c 171e c43b
00000310: 7959 253d c862 af3d 2482 d13d ee9d bdba
00000320: 0dbc c2bd a6a6 6b3a b265 593d 4853 f3bb
00000330: 7fee d93d ad88 c93d 5ee8 bd3d 95dd 3fbd
00000340: 349e 1cbd 3351 babc 9d14 003d 51e4 5ebd
00000350: adaa de3c 9137 f13c 48d3 803d 4540 a23d
00000360: 943d 0d3d b606 e43c 57d6 19bc 5517 29bd
00000370: 78f6 63bb 0bb9 133d eb79 643b 22ef a2bc
00000380: 9024 b0bb e7ca 69bc 0396 5d3d bf27 dbbc
00000390: 3774 9a3d 5b50 4e3d f4f6 b83c badd 4e3d
000003a0: 0b2b 613d b5fa 4a3d 529d 413d 4ca8 793d
000003b0: 188b b53c 7b4a 443d 3893 9f3d 0798 c13d
000003c0: 4412 6abc a115 553d c3a3 123d c534 b0bc
000003d0: 3868 1a3e b48a 553c e3b8 bc3d e6d4 0f3e
000003e0: 450d 643d 3802 0d3e 46d0 d93d 0677 d23d
000003f0: bd23 08bd 0256 49bd a9ad 09bc a990 853d
0.057066806 0.08753565 0.08031689 -0.024758877 0.02073086 0.06656554 -0.053524386 -0.0017966379
0.027233232 0.03721609 -0.0066469503 0.00059959193 0.0064084134 0.07234096 0.055342585 0.06603712
0.032444295 0.024552973 0.045467086 0.0068700267 0.039023355 -0.061306804 0.055465344 0.058177534
0.06106929 0.07950172 0.07853122 0.09448363 0.07649439 0.011186577 -0.018321313 0.07984398
-0.0031795085 0.083131604 0.045497995 0.051606886 -0.034251373 -0.0035049075 0.0065497113 -0.045621898
0.0087404605 0.040231254 0.05789231 0.06613395 0.0009886798 -0.00072444684 -0.039850228 0.0431713
0.020866824 0.06826411 0.014830572 0.094857596 0.08149848 0.09978514 0.011789768 0.010140069
-0.0119875865 -0.02508695 0.07476424 -0.0015390869 0.037860077 0.11709205 0.123297274 0.037656575
0.07203476 0.019152647 0.043179855 0.03205476 0.009233736 0.06972686 0.037692957 0.009125587
0.086293936 0.046925385 0.014286923 0.032003827 0.026063757 -0.01625365 -0.081694335 -0.02943884
-0.07639186 0.09283398 0.04063291 0.07241213 0.05870095 0.021932779 0.013910951 -0.039382253
-0.013430404 -0.07088948 0.060873836 0.1128941 0.035638575 0.099747896 0.075480886 0.024561789
-0.022894654 0.05500672 0.0151316365 0.085995264 -0.014051499 0.016109722 -0.017006155 0.044732127
-0.013948193 -0.03032618 0.034517918 0.08120007 0.023677513 0.016478922 0.09080365 0.028592672
-0.0013378924 0.07427293 0.08752224 0.10402783 0.10552433 0.09047716 0.026283585 0.0047685737
0.05661 0.05803519 0.068173625 0.07127181 0.1363114 0.05787267 0.0372421 0.018106375
0.003636586 0.024248034 -0.022285594 0.08017847 -0.017116128 0.023270313 0.0015926344 0.004531914
0.092875615 0.016487531 0.0036955234 0.03193313 0.01931413 0.020935455 0.001851965 -0.016409356
0.06318042 0.093391664 0.060642425 0.015354977 0.022637596 -0.019438967 -0.004864799 0.013641645
-0.01844242 0.022295209 0.067916416 0.053850383 0.101403065 0.024338001 0.11157475 0.07094519
0.044091992 0.13242738 -0.04509112 -0.050045058 0.037027385 0.010263921 0.029039556 -0.0010170402
0.08451108 0.067659914 0.12789929 0.10034846 0.07362465 0.042518783 0.13651042 0.021909347
-0.024424968 0.037615422 0.06507647 0.004641077 0.01636047 0.026984138 0.0359561 -0.031341646
0.07044855 -0.044922974 -0.061626673 0.013312887 -0.088154696 0.0016272225 -0.055058666 -0.033302236
0.04871198 -0.026321573 0.02854169 0.0059850323 0.04036853 0.08563763 0.102299005 -0.0014466622
-0.09508524 0.0008989371 0.0530755 -0.0074256994 0.10641193 0.09840522 0.09272836 -0.046842176
-0.03823681 -0.022743797 0.03126966 -0.05441696 0.027180994 0.029445441 0.06290299 0.07922415
0.034482554 0.027835231 -0.0093894815 -0.041282017 -0.0034784358 0.036065143 0.0034862708 -0.019889418
-0.0053754523 -0.014269567 0.05409814 -0.02675235 0.075416975 0.0503696 0.022578694 0.050504424
0.05497269 0.0495555 0.047269173 0.060951516 0.022161052 0.047922593 0.077917516 0.09452825
-0.014286581 0.05202258 0.035800707 -0.021509537 0.15078819 0.013033558 0.09214952 0.14046058
0.055676717 0.13770378 0.10635428 0.10276608 -0.033237208 -0.04915429 -0.00840322 0.06521732

cnn_backbone.8.bias f4 [64]
00000000: afb3 bdb4 355b ed35 5318 bd36 cbb9 8436
00000010: bf67 b5b6 0f29 a5b6 5699 cdb6 78e3 f237
00000020: 91e7 3b35 e4ae a235 1694 be37 c56a b3b7
00000030: fbb3 01b6 9c48 ba37 1926 95b5 a809 93b6
00000040: 8c2d 9f37 0583 08b6 50fb 6cb6 ee63 8136
00000050: 9067 77b6 3541 bb36 013f b935 a2cb 9fb6
00000060: 3c5d 9bb6 4d7e f7b4 7a79 ec36 11d6 7d36
00000070: af5a 89b4 bd43 d235 d900 9ab6 9a22 8ab7
00000080: 0213 8fb7 1df2 8937 94bd 0f36 8112 7335
00000090: aba6 abb5 3183 7fb6 af9e 6bb6 f8d3 9636
000000a0: 6dae f8b5 f5eb 4438 1d26 1d37 2cb6 3b35
000000b0: b306 6b35 2b49 8236 3a3d 1a38 a0af 44b5
000000c0: 6d6e 49b6 eda9 af35 66cb e7b5 5f60 d135
000000d0: 7d70 6fb5 aeac 9d34 a3f5 01b7 2cef 1636
000000e0: 55e2 9eb6 2fab 3b37 8653 f8b5 c7af 3fb6
000000f0: 920a d035 bcee 4cb6 d3e3 f4b5 de2c 33b2
-3.533473e-07 1.7684421e-06 5.6354706e-06 3.9555357e-06 -5.406298e-06 -4.922163e-06 -6.1273267e-06 2.8954571e-05
6.99999e-07 1.212084e-06 2.2718723e-05 -2.1388181e-05 -1.932726e-06 2.220674e-05 -1.1112453e-06 -4.3820655e-06
1.8975486e-05 -2.0341843e-06 -3.5313024e-06 3.856133e-06 -3.686615e-06 5.5806254e-06 1.3801911e-06 -4.7622752e-06
-4.630214e-06 -4.609923e-07 7.04749e-06 3.782454e-06 -2.558422e-07 1.5665934e-06 -4.5896563e-06 -1.6466995e-05
-1.705578e-05 1.6444415e-05 2.141901e-06 9.055148e-07 -1.2789e-06 -3.8074324e-06 -3.5110095e-06 4.4950248e-06
-1.8528204e-06 4.6949794e-05 9.366803e-06 6.9928024e-07 8.755407e-07 3.88282e-06 3.6773483e-05 -7.327126e-07
-3.001561e-06 1.3087971e-06 -1.7270038e-06 1.5599761e-06 -8.919813e-07 2.936917e-07 -7.746191e-06 2.2490958e-06
-4.7351155e-06 1.1185925e-05 -1.8501748e-06 -2.8563534e-06 1.5500284e-06 -3.053733e-06 -1.8245722e-06 -1.0429373e-08

cnn_backbone.9.weight f4 [64]
00000000: 88d8 503f 8f7b 6d3f 6812 883f adb0 6b3f
00000010: 9422 6b3f 3ad9 7f3f 7df5 823f 5ac4 923f
00000020: af04 853f 8552 513f e9b6 803f ab56 973f
00000030: 9994 4f3f f09b 823f 004b 5c3f 773a 833f
00000040: 459e 8b3f 9f1e 583f 9303 623f dd36 883f
00000050: f024 513f dd70 693f 9742 583f e779 463f
00000060: 026c 763f 3c15 693f 7896 803f fe15 7d3f
00000070: 9046 6c3f c921 5c3f ea56 803f cdff 7d3f
00000080: 9908 563f 0957 873f 6ee2 833f 54ba 7d3f
00000090: af0c 593f 3e29 503f ace7 523f 030b 753f
000000a0: 5147 543f b1fa 7f3f 8b61 893f 91f4 553f
000000b0: 9ad6 6e3f 1c11 803f 3c6e 843f 5de3 513f
000000c0: 5352 593f 1621 873f caeb 503f 9dc2 593f
000000d0: 0b16 613f 610e 553f c7b8 883f 2911 593f
000000e0: cc12 503f 303a 623f 7b53 5d3f 6631 503f
000000f0: 0987 5e3f 9e55 8c3f 9fae 643f 2e12 713f
0.815804 0.9276666 1.0630617 0.9206646 0.9184964 0.99940836 1.0231167 1.1466172
1.0392054 0.8176654 1.005582 1.1823324 0.8108612 1.0203838 0.8605194 1.0252217
1.0907675 0.84421724 0.88286704 1.0641743 0.8169699 0.9118784 0.8447661 0.7752976
0.96258557 0.91048026 1.004592 0.9886168 0.9229517 0.8598905 1.0026524 0.99218446
0.8360687 1.0573436 1.0303476 0.9911244 0.8478498 0.8131293 0.82384753 0.9571993
0.8292132 0.999919 1.0732893 0.83576304 0.93296206 1.0005221 1.0346141 0.81987554
0.8489124 1.0556972 0.81609786 0.8506258 0.8792426 0.83225065 1.068139 0.8479181
0.8127868 0.8837004 0.86455506 0.81325376 0.869248 1.0963628 0.8932895 0.94168365

cnn_backbone.9.bias f4 [64]
00000000: 0ff8 30be 88b8 60bd 0bf1 a1bc 7d3b cebd
00000010: 87f3 e3bd 1fa7 39be 5a99 ddbc 9dcf 663d
00000020: 3c4d f6bd 1693 14be 39ef 893d 75fd aa3d
00000030: 7472 f9bd 5c87 b6bd e4e5 22be 29f2 45bd
00000040: dced 173d cc5f fcbd 4eb3 0abe d764 aebd
00000050: 65b6 15be c1b8 07be 7e7f 37be dc87 17be
00000060: 49ba 443c 8d75 07be 65bc fdbd b47c d9bd
00000070: ea73 33be 3e75 16be 88c0 ddbd 6781 e6bd
00000080: 646a 13be dd1e d03d 892a fb3d c44a 8ebd
00000090: 742c 46be 2c05 10be 666a 3fbe 0efb 04bd
000000a0: da9c 23be 6148 b5bd 2315 95bb 358d 24be
000000b0: 5df1 9bbc df92 99bd 1cb0 87bd 3ec8 16be
000000c0: 85e9 2abe 5f29 e93d d532 37be 1d1e d6bd
000000d0: 25a2 0abe a623 2fbe 3ab5 b33d 3456 2bbe
000000e0: 77d0 07be d16c 00be 37f7 f9bd 4501 17be
000000f0: ba8c 2cbe ee09 bc3c 1826 0ebe 9187 d5bd
-0.17282127 -0.054863483 -0.019768259 -0.1006994 -0.111304335 -0.18130158 -0.027050663 0.05635034
-0.1202645 -0.14509234 0.06735081 0.08349124 -0.12180033 -0.089125365 -0.15908009 -0.048326645
0.037092075 -0.12322959 -0.13544962 -0.085153274 -0.14620359 -0.13254072 -0.17919728 -0.1479792
0.0120073045 -0.13228436 -0.12389449 -0.10619488 -0.17524686 -0.14693162 -0.10827738 -0.1125515
-0.14396054 0.10162137 0.12263972 -0.06947854 -0.19352895 -0.14064473 -0.18692932 -0.032465987
-0.15977803 -0.08851696 -0.004549639 -0.16069491 -0.01903599 -0.074987166 -0.06625387 -0.14724824
-0.16690643 0.11384844 -0.17890485 -0.104549624 -0.13538416 -0.17103443 0.087748006 -0.16732103
-0.13263117 -0.1254151 -0.122053556 -0.14746578 -0.16850558 0.022953954 -0.13881719 -0.10426248

cnn_backbone.9.running_mean f4 [64]
00000000: 542f 8340 bf34 96c0 b977 673d 56a4 7840
00000010: b97a 3640 efe9 6d40 9080 a4bf 2104 5e40
00000020: 14cf ddbd 35bf 5c40 0af5 d3be 1d6a de3f
00000030: fb8f f93f b603 94c0 c8d7 1d40 7d42 66c0
00000040: a224 943f 3091 1a40 ded0 4040 d599 17bf
00000050: dba8 3940 1026 6ac0 c930 5040 5a2a 0940
00000060: 0ef8 0b3f 53b3 3940 6cec b8be 67e6 44bf
00000070: f767 4240 787d 4740 9c5e c8bf 0ac7 af3f
00000080: c5e2 2240 30d0 763f fc4c 8a3d fc18 a840
00000090: ad3f 2b40 2f30 4c40 6a44 2c40 88c1 2abf
000000a0: 45d1 3840 fecb 59c0 57bf fdbf bfbc 6940
000000b0: e8ea cdbf aa0c 73be 78f1 77c0 7609 4c40
000000c0: 6b87 7d40 efc1 4d3f c579 1940 05ca ed3f
000000d0: 00c6 3740 9fc1 6a40 0d45 c63e 3aa2 4f40
000000e0: 5ca3 2940 4676 0e3f 035b 3940 cc40 2640
000000f0: 4391 3940 34c7 11c0 d549 2c40 dbd3 d83f
4.0995274 -4.6939387 0.05651066 3.8850303 2.8512404 3.7174032 -1.2851734 3.469002
-0.10830513 3.4491704 -0.41397887 1.7376133 1.9497064 -4.625453 2.4662952 -3.5978081
1.157368 2.4151115 3.0127482 -0.59219104 2.9009311 -3.6585732 3.2529776 2.14321
0.54675376 2.90157 -0.36117876 -0.76914066 3.0375955 3.117033 -1.5653872 1.3732617
2.545091 0.9641142 0.06752965 5.25305 2.6757615 3.190441 2.6916757 -0.66701555
2.8877728 -3.4030757 -1.9824017 3.6521451 -1.6087313 -0.237353 -3.874113 3.1880774
3.9613903 0.80374044 2.3980572 1.8577276 2.87146 3.6680677 0.38724557 3.2442765
2.6505957 0.5564922 2.89618 2.597705 2.899491 -2.2777834 2.6920063 1.6939653

cnn_backbone.9.running_var f4 [64]
00000000: 7dd8 7741 d82b 0a41 1c5f 9141 5064 0341
00000010: 27fd 5641 95e6 6141 2a1d 8341 736a 1941
00000020: eac0 6041 1a50 3641 e61a eb40 af1e d340
00000030: 290c 6040 7ca1 6b41 6189 3841 81eb 6741
00000040: 46fe 0a41 c9a0 1241 a5ca 3541 93db 9841
00000050: 25e0 2041 8309 fa40 929d 6e41 60d0 1b41
00000060: f69a 4441 7ee9 4741 3150 9341 4fa4 db40
00000070: 3eb2 e740 79e7 1641 4aa8 8d41 d90e d240
00000080: 92a6 0141 efb1 bc40 2084 0341 0bfb 9b41
00000090: 4195 3541 381c 5941 fef8 2d41 09f2 4741
000000a0: 9486 3d41 5962 fc40 ae72 fc40 9f2f 5141
000000b0: 2285 b041 8734 2a41 1736 1f41 cc65 7741
000000c0: bd65 8741 e770 9d40 8674 dd40 5847 0141
000000d0: bc52 4e41 5e66 8141 668c 2b41 6560 0e41
000000e0: c87c 0141 1b64 4f40 6d51 2341 b6ee 0e41
000000f0: 0746 5341 f866 9040 23a1 2d41 9c33 2741
15.490354 8.635704 18.17144 8.21199 13.436805 14.118794 16.38924 9.588489
14.047098 11.394556 7.3470335 6.5974956 3.5007422 14.726925 11.53354 14.494996
8.687078 9.164254 11.361974 19.107214 10.054723 7.813661 14.913469 9.738373
12.287832 12.494505 18.414156 6.863807 7.240508 9.431512 17.707172 6.5643125
8.103167 5.8967204 8.219757 19.49758 11.348939 13.569389 10.873289 12.496591
11.845356 7.8870053 7.888999 13.074126 22.065006 10.637824 9.950706 15.462353
16.924677 4.920032 6.920474 8.079918 12.895199 16.174984 10.721777 8.898534
8.092964 3.240485 10.207379 8.933279 13.2045965 4.5125694 10.85184 10.4501

cnn_backbone.12.weight f4 [128, 64, 3, 3]
00000000: 1070 63bc b1c3 92bb 7f12 1a3d 9c7c 813d
00000010: 5591 343d ebde 153d 43b8 553d d961 bd3b
00000020: a018 a73d bd3b 363d 04dd 3b3d bb75 df3c
00000030: 6f3a fd3c 3500 d83c cb6f 503d 137f 4d3d
00000040: 9ff9 053d e413 4c3c 1b6b 2b3d 0e4d a03c
00000050: 60eb 853d 9e3d 2d3d 7766 9c3c be2a 3b3d
00000060: 2fce 933c 2473 8f3c 5c4d 643d bccf 2ebc
00000070: e844 f4bc 6ea9 f6bc ce89 1b3d 83ea 213d
00000080: f575 823d 913f 6d3d 6640 8f3c dc07 873d
00000090: a9c5 9d3b 3a67 a93c 360b 9b3d 4fa7 9c3d
000000a0: bfca 943d a371 843d f145 633c f650 953d
000000b0: f1e7 b43c aabf 283d 825a 7abc 8f36 aabc
000000c0: 55e1 493d deaf 643d 554b 9b3c 2648 273c
000000d0: 9f9f b83c 259b 8a3c 3104 df3b dffc 403d
000000e0: 6305 a5bb 2024 763d b62f 1f3d af00 c13c
000000f0: f12d 353d 8ef2 6ebc 2637 003b b075 28bd
00000100: e002 b0bd b778 6bbd 45dd 3ebd 09d3 eabb
00000110: 07b3 5fbd f9e8 d1bc 9cf7 28bb 906b d7bc
00000120: c258 7a3d 14f1 9c3d 8909 ba3d 6bc7 c5bb
00000130: 0295 febb 19dd 11bc b329 dfbc 7e71 1fbc
00000140: 53e6 ef3a a455 1d3d 9fda 903d 1447 c93d
00000150: 4279 b43b 4f8e bf3c afec 643d 2ac2 053d
00000160: 7934 8c3d 71de 9b3d 556b b2bc 183f 78bd
00000170: 9f48 97bd beff 9bbd 7128 4cbd 08b0 93bd
00000180: bdad fabc c926 113c 7011 f13a 1786 35bd
00000190: bccc b2bd 6262 8dbd b478 97bd c8f2 50bd
000001a0: a667 d2bc 1f30 13bd a14c ccbd d6fc 9bbd
000001b0: 52fb a1b9 3cea 6d3d 4bdd a63d bd3f 8dbc
000001c0: 7f1f a23c f279 3c3d 2d2f 3abc eb06 d63a
000001d0: 5879 a13c e4c5 1e3d 14cb 193c 9a94 4fbc
000001e0: 8e48 ec3c c760 823d 606c 04bc 2043 003d
000001f0: 2560 453c 4dd8 b6bc 60ca 933d 72c1 233d
00000200: 754a c33d edc5 923c df0b 193d 3fef 1d3d
00000210: 666f bcbc 75d9 013d 1804 aa3c 7b36 e83c
00000220: acc9 053d 7535 1a39 ed66 7c3c b35e 7a3a
00000230: 1960 1abc 4f1c 073d 0d2e a3bc a708 083d
00000240: a280 b5bd 0b88 9fbd 4e39 babd 83b4 cfbc
00000250: 8191 4bbb ecb6 c6bc eba8 22bd 2036 253c
00000260: 1909 e33b 738c 393c 9357 903c 3a6e ac3c
00000270: 0b4d 0f3d 5c21 973d 333d 7c3d 792d 033d
00000280: 7f68 12bc fd48 4a3d 3f94 5e3d dba0 363d
00000290: 6415 473d 4622 de3c 8621 6d3c 4854 c33d
000002a0: 07cd 263b a73b 933d 1771 863c 8674 1d3d
000002b0: b4be e7bb fa78 8dbc d854 a33c 8972 1f3d
000002c0: 5029 0fbc 63f4 0b3c 207e d2bc 602d e93c
000002d0: 77a6 833d a99b 383d 4189 d23d 3580 3c3d
000002e0: 7b56 403d b946 363d 77f5 493d 62ef 213d
000002f0: 38cb 1d3d 48e9 25bb 87f9 14bc 3bc0 663d
00000300: fc8c 003c a1dc e1bb 4f56 2e3d dc77 273c
00000310: ec44 68bc 4e99 b93c f2e9 0a3d 8230 833d
00000320: a56b c73d 69db 893c a966 723d be24 2a3d
00000330: ef0e 333c 2b4b 463d bbc7 233d 6805 ce3c
00000340: c295 053d ecbe 453c 1843 bd3c f26a 9e3d
00000350: 2c04 733d 69f2 773d 3c3e 823d ce47 123d
00000360: e918 5ebd 0d31 eabc f897 4ebd da68 07bd
00000370: a692 04bd f359 68bd a0f9 0f3d 272b 81bb
00000380: 1ab2 bcbc d4c4 153c 0a09 ac3c b185 823d
00000390: 9715 83ba d643 773d 87c0 083d 46e5 2b3d
000003a0: 9c43 343d a525 583d 3120 163d daf1 3bbb
000003b0: 0efe 453c 483e 7f3d f824 593d 5bc1 393d
000003c0: 322f 0b3d 513d 883c 1813 aa3b 1799 1e3d
000003d0: 3b59 69bc 1dcb 7a3c ffc4 5cbc 6291 22bd
000003e0: 2590 75bd c9cd 0a3b faf5 09bd 339c dfbb
000003f0: 957a 803d 34ee 543d d1f6 1b3d c318 ef3c
-0.013881698 -0.0044788946 0.037615295 0.063225955 0.044083912 0.036589544 0.05217768 0.0057794866
0.08158994 0.044490565 0.045865074 0.027277818 0.030911652 0.026367286 0.050887864 0.050170016
0.03270876 0.012455914 0.04185019 0.019567993 0.06539035 0.04229509 0.019091828 0.04569506
0.018042652 0.017510958 0.05573784 -0.010669645 -0.029818013 -0.030110087 0.037973218 0.03953029
0.06370155 0.05792195 0.017486762 0.06593296 0.0048148227 0.020679105 0.07570498 0.07649099
0.07265233 0.06466987 0.013871656 0.07290833 0.022083255 0.04119841 -0.015280368 -0.020777969
0.04928716 0.055831783 0.01895682 0.010210073 0.02253705 0.016919682 0.0068059196 0.047116157
-0.0050360425 0.060093045 0.03886386 0.023559896 0.044233266 -0.014584197 0.001956412 -0.04112786
-0.08594298 -0.05748817 -0.046597738 -0.0071662706 -0.054614093 -0.025623785 -0.0025782352 -0.026296407
0.061119802 0.076631695 0.0908385 -0.0060357354 -0.007769228 -0.008902811 -0.027241563 -0.0097316485
0.0018302895 0.03841175 0.07072949 0.0982801 0.005507619 0.023383288 0.05588978 0.032655872
0.06845946 0.07610787 -0.021779696 -0.060607046 -0.07386898 -0.07617138 -0.049843255 -0.0721131
-0.030600423 0.008859345 0.0018392038 -0.04431733 -0.08730456 -0.06903531 -0.07396069 -0.051012784
-0.025684189 -0.035934564 -0.09975553 -0.07616584 -0.0003089556 0.05808471 0.08147677 -0.017242307
0.01979041 0.046014734 -0.011363787 0.0016328966 0.019711182 0.038762942 0.0093867965 -0.012669707
0.02884319 0.06366115 -0.008082479 0.031314015 0.012046848 -0.022319937 0.07216334 0.039979406
0.09535686 0.017916644 0.037364837 0.03855824 -0.023002338 0.031701524 0.020753905 0.02834629
0.032663032 0.00014706499 0.015405399 0.00095508544 -0.0094223255 0.03298598 -0.01991942 0.033211377
-0.088624254 -0.0778962 -0.09092961 -0.02535463 -0.003106207 -0.024257146 -0.039711874 0.010083705
0.0069285748 0.01132499 0.017619884 0.021048654 0.034985583 0.0737941 0.0615818 0.032025788
-0.008936047 0.049386013 0.054340597 0.044586997 0.048604384 0.027115952 0.014473325 0.0953756
0.0025451796 0.07189112 0.016411347 0.038441204 -0.007072294 -0.0172696 0.019937918 0.03892759
-0.008737877 0.008542153 -0.025694907 0.02846402 0.06428235 0.045070324 0.10280085 0.046020705
0.046957474 0.04450104 0.04930636 0.039534934 0.038523883 -0.0025316048 -0.009092695 0.05633567
0.007846113 -0.006892756 0.04256278 0.010221448 -0.0141765885 0.02265611 0.033914514 0.064057365
0.097373284 0.016828256 0.059179936 0.041538946 0.010928853 0.04841153 0.0399854 0.025149062
0.032613523 0.012069445 0.023103282 0.07735242 0.05933015 0.060533915 0.063595265 0.03571301
-0.054222975 -0.028587842 -0.050437897 -0.03305898 -0.032366417 -0.056726407 0.03515017 -0.0039419117
-0.023034144 0.009141166 0.021000404 0.06373156 -0.0010000941 0.060367428 0.033386733 0.0419667
0.04400979 0.052770276 0.036651794 -0.002867809 0.012084497 0.062315255 0.05301377 0.045350414
0.033980556 0.0166308 0.0051902644 0.038720217 -0.014242466 0.015307215 -0.013474702 -0.03968943
-0.05995192 0.0021179786 -0.033681847 -0.0068240403 0.06273381 0.05198498 0.03807718 0.029186612

cnn_backbone.12.bias f4 [128]
00000000: 90af 4b35 ba29 9633 529f 4537 f878 7c34
00000010: 1967 2eb5 6a84 1fb6 d27c edb6 b69c 72b6
00000020: ec79 c535 641d 8534 7491 01b7 f60a 3c35
00000030: 850d e7b3 ffa4 ba32 d16e 0936 8386 3537
00000040: eef6 0db6 8ec8 1836 95ba 48b5 12d8 2036
00000050: f4a1 1fb3 d5df 8cb6 818d 7234 a415 9435
00000060: 46b0 ef34 34af a8b6 3560 7c36 52ef 69b6
00000070: 668c 1336 7392 4ab5 2cca 80b5 6845 adb4
00000080: d96a 5337 3f0d 0836 338a c7b7 dd2f aeb4
00000090: 6561 50b5 c557 9634 0103 8e37 448f cab5
000000a0: c8b2 fcb5 e89a 0cb3 2182 96b4 1241 bab4
000000b0: cb44 a836 d27b adb6 f7c6 56b5 cc92 eeb5
000000c0: a182 8635 6e0f 4d36 bbc8 91b7 eecf f2b5
000000d0: a147 2236 b8e8 38b5 ba3d 00b6 fa21 3d35
000000e0: 0238 2236 e684 f535 37ff 3736 63d4 19b5
000000f0: 76a9 ebb5 c9f9 7733 08c6 8f35 49a8 8036
00000100: c87d b335 1c6a 6cb6 d43a 6c36 1854 3fb5
00000110: 7f5a 9e36 d942 9f34 bb29 4eb6 9495 deb6
00000120: 6bd6 1b35 99c6 4cb5 3034 7834 42ad f334
00000130: 154a 2434 3763 ce34 b4ee d2b6 c9a9 cab6
00000140: 68f9 7035 95ce d233 3612 e5b5 89f5 07b6
00000150: e786 39b6 dd05 5736 eada 4fb6 1c57 42b6
00000160: 760d 1137 91eb ec34 0ea4 8fb5 7ccd 1db5
00000170: f6df 18b7 0f28 76b5 7e74 feb5 898c bf36
00000180: f1bd a834 1725 feb6 cd37 ca37 ea34 eb33
00000190: 797f 8835 ea9e ea37 21e0 9535 a148 d136
000001a0: dc29 adb5 7af4 cf36 19c3 d8b5 4e13 ec35
000001b0: c377 3c36 6492 0e35 4fc1 6f36 421d 30b6
000001c0: 9e10 a435 bd18 6eb5 0e3d 10b4 1729 9f35
000001d0: bb5e e6b6 5acd 11b6 09b6 04b4 a8b7 bcb5
000001e0: 37c1 4836 95f6 e235 7b7b a9b6 0e4c 25b5
000001f0: 9bdc 4c35 0951 3036 f6ce d7b5 4b3f c9b6
7.587887e-07 6.992509e-08 1.177921e-05 2.3513337e-07 -6.497008e-07 -2.3769921e-06 -7.0776814e-06 -3.6152028e-06
1.4713128e-06 2.4794565e-07 -7.722865e-06 7.005141e-07 -1.0759235e-07 2.1728281e-08 2.0479094e-06 1.0819759e-05
-2.115437e-06 2.2766503e-06 -7.477732e-07 2.3967627e-06 -3.7167368e-08 -4.1983826e-06 2.2589485e-07 1.1033158e-06
4.4645475e-07 -5.0271865e-06 3.7606926e-06 -3.4859008e-06 2.198643e-06 -7.5463976e-07 -9.595583e-07 -3.227426e-07
1.26014575e-05 2.027329e-06 -2.3787003e-05 -3.244485e-07 -7.7627766e-07 2.8003538e-07 1.6929118e-05 -1.5091869e-06
-1.8827495e-06 -3.2737177e-08 -2.8034358e-07 -3.4692545e-07 5.0147987e-06 -5.1702164e-06 -8.0010744e-07 -1.7775105e-06
1.0021796e-06 3.0556362e-06 -1.737882e-05 -1.809092e-06 2.4181575e-06 -6.888399e-07 -1.9109416e-06 7.045743e-07
2.4172482e-06 1.8292601e-06 2.741768e-06 -5.7306005e-07 -1.7558184e-06 5.7736347e-08 1.0711965e-06 3.8342882e-06
1.3373146e-06 -3.5228504e-06 3.5200983e-06 -7.127542e-07 4.719302e-06 2.9664696e-07 -3.0720682e-06 -6.6335288e-06
5.805402e-07 -7.628492e-07 2.3115786e-07 4.538834e-07 1.5300641e-07 3.8442678e-07 -6.2862764e-06 -6.0398347e-06
8.97699e-07 9.816464e-08 -1.706713e-06 -2.0259488e-06 -2.7645672e-06 3.204091e-06 -3.0972828e-06 -2.8958957e-06
8.645808e-06 4.4129823e-07 -1.0702076e-06 -5.8786077e-07 -9.112051e-06 -9.1700434e-07 -1.8958378e-06 5.708604e-06
3.143064e-07 -7.5741077e-06 2.410626e-05 1.0952665e-07 1.0169889e-06 2.7968974e-05 1.1166595e-06 6.2371405e-06
-1.2901687e-06 6.1975416e-06 -1.6150035e-06 1.7588989e-06 2.8083894e-06 5.311215e-07 3.5726296e-06 -2.6243074e-06
1.2223788e-06 -8.869791e-07 -1.3433257e-07 1.1858382e-06 -6.865562e-06 -2.1726214e-06 -1.2359682e-07 -1.4060543e-06
2.9914788e-06 1.6910077e-06 -5.0509675e-06 -6.1577964e-07 7.6316945e-07 2.6273212e-06 -1.6078982e-06 -5.997635e-06

cnn_backbone.13.weight f4 [128]
00000000: 1373 7f3f 0b8c 833f 7b10 843f 4f67 743f
00000010: 1f48 6d3f a6f1 7e3f 9299 6f3f 4cd3 823f
00000020: d828 813f e7d3 813f f14d 853f 32a8 803f
00000030: db79 713f 3f11 813f b3a0 833f 5ee4 7a3f
00000040: 7eb1 803f ac7a 8c3f 96ea 843f ec58 803f
00000050: 39bd 7e3f 9fdb 843f 56f4 813f 18d5 803f
00000060: de2d 833f 86d1 7e3f 90bd 803f 4ee1 803f
00000070: c53f 7f3f 112a 7d3f 1acc 803f 9098 4f3f
00000080: bb62 803f 39ab 803f 8a76 843f f103 863f
00000090: a79a 813f 2c2f 7e3f 8275 873f 37db 823f
000000a0: c649 833f c779 7c3f a2ed 7d3f 0e58 823f
000000b0: 2059 803f c612 833f c82a 7f3f b33d 793f
000000c0: bbf1 7c3f a1d6 7c3f 647f 8f3f 8884 813f
000000d0: afaf 7c3f 0928 793f c361 793f 869e 7a3f
000000e0: 55c0 873f 248b 843f afda 813f 5d70 853f
000000f0: 549d 753f ca0c 823f 3457 893f 21dd 793f
00000100: cfd2 8b3f d839 7d3f 7e37 843f 4a96 853f
00000110: 51c2 7a3f 94f9 7f3f 9848 823f 39b8 7f3f
00000120: 143c 823f acba 833f 58d8 7d3f fc3d 7b3f
00000130: adf0 8c3f 21b1 7b3f 36fc 803f 6df8 813f
00000140: 336e 7a3f 3585 803f 9d95 7b3f 8ae2 803f
00000150: 2e7e 773f f081 863f b623 663f fa94 833f
00000160: 9db2 803f 9f64 823f 4c07 7c3f 681a 773f
00000170: 39af 803f e0f6 7b3f 4e8c 833f 3935 843f
00000180: a253 833f 290f 753f 2a4d 8c3f c2eb 803f
00000190: fa84 7e3f 6e31 7c3f cbc0 7d3f cef5 7e3f
000001a0: 32bd 743f 744f 6c3f 875a 743f 5933 803f
000001b0: 19b9 813f 8d6f 8b3f 140f 813f 58f1 7f3f
000001c0: d0e5 793f 8c45 833f e518 813f d534 813f
000001d0: f6db 803f ac74 843f dcb2 713f 18a4 823f
000001e0: 63a0 803f dd6f 7e3f 2488 843f 6f1e 733f
000001f0: bb45 7e3f c56c 803f 08f7 743f dbbe 823f
0.99784964 1.0277113 1.031753 0.95470136 0.92688173 0.99587476 0.93593705 1.0220733
1.009059 1.0142792 1.0414411 1.0051329 0.9432656 1.0083388 1.0283417 0.9800471
1.0054166 1.0974936 1.038409 1.0027137 0.9950748 1.0379523 1.015269 1.0065031
1.0248373 0.9953846 1.005785 1.0068758 0.9970668 0.98892313 1.0062287 0.81092167
1.003013 1.0052253 1.0348675 1.0469953 1.0125321 0.9929073 1.0582736 1.0223149
1.0256889 0.9862332 0.99190724 1.0183122 1.0027199 1.0240104 0.99674654 0.9735977
0.9880635 0.98765 1.1210752 1.011857 0.9870557 0.97326714 0.974148 0.9789814
1.060557 1.0354962 1.0144862 1.0424916 0.9594319 1.0160153 1.0729737 0.9760304
1.0923709 0.9891639 1.0329435 1.043649 0.97952753 0.999902 1.0178404 0.99890476
1.0174584 1.0291343 0.9915824 0.98141456 1.1010948 0.9831715 1.0076969 1.0153939
0.978244 1.0040652 0.98275167 1.0069134 0.9667691 1.0508404 0.8989824 1.0279839
1.0054508 1.0186957 0.98448634 0.9652467 1.0053474 0.98423576 1.0277193 1.0328742
1.0259898 0.9572626 1.0961049 1.0071948 0.99421656 0.98512924 0.99122304 0.9959382
0.9560119 0.92308736 0.95450634 1.001567 1.0134612 1.0893418 1.0082726 0.99977636
0.9761629 1.0255599 1.0085722 1.0094248 1.0067127 1.0348105 0.9441354 1.0206327
1.0048946 0.9938944 1.0354047 0.9496831 0.9932515 1.0033194 0.9568944 1.0214494

cnn_backbone.13.bias f4 [128]
00000000: 5d69 40bd ea94 75bc 085d 4ebd 67cf 11bd
00000010: 4672 b0bd 7696 5cbd 84a2 58bd 1111 233d
00000020: 7c10 81bd e9ae c8bc c26d 863d 7d36 0abd
00000030: 744c 61bd c933 05bd 0a3d 85bc 92c9 4fbd
00000040: df10 1b3d a53c 8a3d e3f6 9fba d2aa 5cbd
00000050: d8e8 49bd edd0 ad3d 84ee 39bd e346 00bd
00000060: bde8 96bc 7f75 8dbd 110e 45bd 9431 91bd
00000070: 7409 21bd e22a 79bd b5d7 0bbd 0df1 1cbe
00000080: d033 96b9 3afb 0dbd cb5a 5d3d f440 833d
00000090: 929b 3ebd d098 59bd 7299 443c 9b5e 4a3d
000000a0: 8b2a cebc 2a54 62bd c9c5 5ebd 24c8 12bd
000000b0: 3fba 30bd 467e eabc 5afc 2fbd 2921 acbd
000000c0: 9a2d 75bd 96af 6cbd 162b 8f3d 3697 603d
000000d0: 8996 bcbc 4c17 8dbb f25d 37bc e2fc 2f3c
000000e0: ab28 c93d 3946 753d ae01 d03c 845a 9e3d
000000f0: a89f 65bc 0fc9 babc 8a00 a23d 699f 8abc
00000100: 8f49 7e3d b286 f53c 9f2a 493d d853 00bd
00000110: c22a 38bd 037d 27bd 666a 853d 175c 27bd
00000120: de59 02bc 0747 d0bc 8688 15bd 8140 58bd
00000130: 3689 463d 9836 36bd a309 67bd 8b68 5c3d
00000140: e3ab 2a3b e195 e6bc eaf7 bebc afbc 3bbd
00000150: 45a7 c3bd 2201 853d c303 d6bd 713f 353d
00000160: 30b4 3b3d 277d 3fbb 24cf 4cbd 5eef 6cbd
00000170: 2d85 443d 4b19 20bd af15 1cbd 67a4 c4bc
00000180: 94c1 28bd 7dd6 b0bd df6e 863d afe6 febc
00000190: 2103 85bc 43fd 4cbb b9f0 81bd 5793 a6bd
000001a0: 8e07 91bd 2d90 1abe 0927 98bd c2f3 19bd
000001b0: 5620 97bc f379 9e3d 19db 3ebd 5fb7 3abd
000001c0: a88b 93bd 348f 18bd 5ebe cdbc 796b 96bd
000001d0: 83cf 91bd 0c0f 843d aef1 a9bd 1456 1ebd
000001e0: 4c98 4ebd 9d10 8abd 2dc8 763d 4d5e 02bc
000001f0: 554e 44bd e835 08bd 2523 cabd 95a8 66bc
-0.046975482 -0.014989117 -0.05038169 -0.035598185 -0.08615546 -0.05385443 -0.052889362 0.039811198
-0.06301972 -0.024497466 0.065639034 -0.03374337 -0.055004552 -0.03252009 -0.016264457 -0.05072934
0.037857886 0.06749848 -0.0012204315 -0.053873844 -0.049294323 0.08487115 -0.04539348 -0.031317603
-0.018421525 -0.06907176 -0.048109118 -0.070895344 -0.039315656 -0.06083191 -0.03414126 -0.15326329
-0.00028648833 -0.034663416 0.054041665 0.06408873 -0.046535082 -0.05312425 0.011999475 0.04940663
-0.02516677 -0.055256046 -0.05438784 -0.0358354 -0.043146368 -0.028624665 -0.04296527 -0.08404762
-0.059857942 -0.05778464 0.0699064 0.054831706 -0.023021 -0.0043057557 -0.011191832 0.010741444
0.0982221 0.059881423 0.025391426 0.07732108 -0.014015116 -0.02280095 0.07910259 -0.016921716
0.06208187 0.029971454 0.049112912 -0.03132996 -0.044962652 -0.040890705 0.065144345 -0.040859308
-0.007955996 -0.025424493 -0.036507152 -0.05279589 0.0484707 -0.04448566 -0.056405675 0.053810637
0.0026042394 -0.02814764 -0.023311574 -0.04583424 -0.095533885 0.06494357 -0.10449936 0.044249956
0.045826137 -0.0029218884 -0.050002232 -0.057845466 0.04797857 -0.03908662 -0.038106617 -0.024004174
-0.041200235 -0.086346604 0.06564116 -0.031115858 -0.016236844 -0.0031278885 -0.06344742 -0.081335716
-0.07081519 -0.15094061 -0.0742932 -0.03758598 -0.018448036 0.07738104 -0.046595667 -0.045585033
-0.07204372 -0.037245944 -0.025115188 -0.073447175 -0.07119658 0.064481825 -0.0829805 -0.03865631
-0.05043821 -0.0674145 0.060249496 -0.007957053 -0.047926266 -0.033254534 -0.098699845 -0.014078279
