models/wavenet/all/best_model.pth (torch, 469026 bytes, 142 tensors)

base_feature_extractor.0.0.weight f4 [64, 1, 3]
00000000: 857e adbe 9359 bc3e b750 b1be 1308 793d
00000010: 8a10 d6be 3b46 73bd eeaf 843e 24e8 3dbd
00000020: 1135 71be 3c25 4a3e e831 a3bd 1d5f c8bc
00000030: 14a9 fc3e 44ce d9bd 05aa 06bf bc97 cf3d
00000040: 218c 79be 4e33 d83e 6243 0abc fdaf f1bd
00000050: 9869 2d3e db78 aebd 7443 233e 3525 90bd
00000060: 0805 7e3e 0dec 15bf a5ca 813e 4a77 b63e
00000070: 1624 62bd 1b86 e0be 0664 8b3e f990 0fba
00000080: 64b4 c3be e57d a93d 90b7 0cbf 9707 a43c
00000090: f0a5 b9be f257 d93e 1807 c7be ddbe 093e
000000a0: 27d1 2dbe 32a5 3fbd a974 ca3c f2b4 44be
000000b0: 082d 193e 3724 a03d 200a 6abe a793 0d3e
000000c0: 6459 09bf 6842 5f3e 54ae 3a3d f675 9c3e
000000d0: ba5c 81be 0f6d 55be 2b35 bb3d fabd 11bf
000000e0: ae48 b63d 799b 343e d891 ddbe d13f 7d3e
000000f0: 6399 f2be b949 94be 3855 c63e 6522 8abe
00000100: c352 9e3e d8ec 83be 1e9e bd3e 6d79 81bc
00000110: 1487 02bf ef93 2bbf 9f67 473e 3e22 873d
00000120: 352a 1ebd 5197 2bbf 7658 e6bd c4ad ddbe
00000130: f45d ff3e 0301 9dbe e174 8fbd 8be5 923d
00000140: f71a d73d 62ee bb3e d685 293d bc08 0ebf
00000150: 6ce2 0bbd 695b 3fbd 391d 9a3d cff0 203f
00000160: 471c a8be cc43 ecbe fcfd d5be c876 c33c
00000170: d7a1 a63e dbc4 cebe 4c5b d5be a67b a53e
00000180: 411c 403e 133f 673e 82f9 d7be 1c64 68be
00000190: 8543 95bc 8863 203e de5a a3bd 24fd 9f3e
000001a0: 0046 95bd 32cb 09bf 2304 c13e 0247 5dbe
000001b0: 0bc3 c2be 3dfe ebbe a290 9d3e 7a2b 98be
000001c0: b28e 0f3e 81b8 82be 5b6c 5d3e 2630 b7be
000001d0: af2b f23d 29d1 d5bc 146a 1c3e ce9c 2ebe
000001e0: ab2e 723d d9ad e1be ddd0 03bd 387c 003e
000001f0: 4f19 f9be 173f 983e 5fa9 3cbf ac94 0b3e
00000200: dc2d a43e bf9d a03e 3b7a 693e 6bd7 2cbf
00000210: 767d 6dbe f926 653e 8daf bbbe cf5b 203d
00000220: 4ab5 76be cb49 dd3d 03e5 35be 58c6 6c3e
00000230: 77aa d3be 0cca 5d3e 0966 b1be 8669 653d
00000240: 789b 133d 78a5 483d a8fa 50be e50c f9be
00000250: 3935 a7be fd8d dd3e f790 b03e abee 0c3e
00000260: 9ee8 1abf 74d4 ca3d 48e6 163b cf09 ecbd
00000270: 7e13 a53d 9e4d 82be 2f8d 223e 8e5d 92be
00000280: 2c01 4a3e db99 b0be e979 403e e659 86bd
00000290: 7d9b 5f3c a6aa d3be 88ee a1bd 95ca ff3e
000002a0: 41eb 13bf e7b6 d93d ce01 323e 29ad 96be
000002b0: 2de2 983e 5c6b a2be 9a1a 483e b38d c2be
000002c0: 78e2 173e 609e 593e fb58 b5be f625 923d
000002d0: 1686 5abe 66b5 8a3e f5f1 863d 5caf d93d
000002e0: 2cbc b73e 8232 1fbf d564 84be bcb8 a43e
000002f0: bc4b 8bbe 4023 253e 3111 dcbe f9f9 4f3e
-0.3388559 0.3678709 -0.34631893 0.060798716 -0.41809493 -0.05939315 0.25915474 -0.046363965
-0.235554 0.19740766 -0.07968503 -0.024459416 0.49347746 -0.10635045 -0.5260318 0.10136363
-0.24369861 0.42226642 -0.008438917 -0.11801145 0.16934812 -0.08519145 0.159437 -0.07038347
0.24806607 -0.5856331 0.25349918 0.35637885 -0.055210195 -0.43852314 0.2722475 -0.00054766197
-0.38223565 0.082759656 -0.54967594 0.02002315 -0.36259413 0.4244991 -0.388726 0.13451715
-0.16974317 -0.046788402 0.024713831 -0.1920965 0.14958584 0.078194074 -0.22855425 0.13825856
-0.53652024 0.21802676 0.04557641 0.30558747 -0.25266057 -0.20842384 0.09141 -0.56930506
0.08900581 0.17637433 -0.43275332 0.24731375 -0.4738265 -0.28962496 0.38736892 -0.26979366
0.30922517 -0.25766635 0.37034696 -0.01580497 -0.5098736 -0.67022604 0.19473122 0.06598328
-0.03861447 -0.67027766 -0.11247341 -0.43296635 0.49876368 -0.30664834 -0.07004715 0.07172688
0.1050319 0.3670531 0.0413874 -0.5548208 -0.03415148 -0.046718035 0.07525105 0.62867445
-0.32834074 -0.46145475 -0.41795337 0.02386035 0.3254535 -0.40384564 -0.41671216 0.323209
0.18760778 0.22582655 -0.42182547 -0.22694439 -0.018220672 0.15662968 -0.07976316 0.31247818
-0.07288742 -0.53825676 0.3769847 -0.21609119 -0.3803943 -0.46092406 0.3077441 -0.2972067
0.14019278 -0.2553139 0.21623366 -0.35778922 0.11824738 -0.026100712 0.1527484 -0.17052004
0.059126537 -0.44077948 -0.03218161 0.12547386 -0.4865212 0.29735634 -0.7369594 0.13630933
0.32066238 0.3137035 0.22800533 -0.675162 -0.23192391 0.22378148 -0.36657372 0.039150055
-0.24092594 0.108050905 -0.17763142 0.23122537 -0.41340992 0.21659106 -0.3464816 0.056008838
0.03603694 0.04898593 -0.20408118 -0.4864265 -0.32657793 0.4327239 0.344856 0.1376292
-0.60511196 0.099038035 0.0023025442 -0.11525308 0.080603585 -0.25449842 0.1587417 -0.28587002
0.1972701 -0.34492382 0.18796505 -0.065601155 0.013647911 -0.41341132 -0.07906824 0.49959245
-0.57780844 0.10630589 0.17383501 -0.29428986 0.29860058 -0.31722534 0.19541398 -0.37998733
0.14832485 0.21251822 -0.3541945 0.07136147 -0.21340212 0.2709152 0.065891184 0.1062915
0.3588575 -0.62186444 -0.2585818 0.3217219 -0.27206218 0.16126728 -0.42981866 0.20310201

base_feature_extractor.0.0.bias f4 [64]
00000000: 9dd3 c83b b18e 9b39 ee97 b431 8fab b0b7
00000010: 6e62 c339 2c9c fdba c7ba 3735 bede 7ab7
00000020: 60c1 d539 45bf 99ba 8fd0 a438 7119 ff3a
00000030: ca7c ccbb d905 c4b6 b76f e4b6 c817 0eb8
00000040: ef53 2cbb 32fc 173a 86ce 933b 7ee4 e939
00000050: 1832 d5ba 7759 c0ba a6b8 8d3b a049 3aba
00000060: 3d1e 4ebb d55f ccbc e376 91b6 e211 383b
00000070: cce1 4336 9961 92bb 2059 613b fc6e 853b
00000080: 4520 87b9 2961 b036 0ff2 a939 c6e5 48bb
00000090: 5c2a 613b fe7c 213b 433f d237 ed85 a434
000000a0: 4504 243a 0a9e 143b 86b6 f538 b16d 1bbb
000000b0: 7132 e9b9 e9d9 c7b6 4f6f 50ba 6e8d 5c38
000000c0: 2186 ddb7 833e 9f3a 5122 99b9 1641 7eb5
000000d0: 5336 88b7 1347 673b d5fe 22b4 1243 4abb
000000e0: ef97 4f3b 25c1 09bb 5cce 1a38 2dc7 ffb7
000000f0: b406 44b6 f726 8e3b 5bce a1ba f77e c238
0.006128742 0.00029670217 5.255962e-09 -2.1060723e-05 0.00037266634 -0.0019348911 6.844461e-07 -1.4953022e-05
0.00040770601 -0.0011729976 7.8589765e-05 0.0019462538 -0.006240462 -5.841936e-06 -6.807935e-06 -3.3877586e-05
-0.0026295146 0.0005797773 0.0045107035 0.00044611463 -0.001626554 -0.00146751 0.0043249903 -0.0007106308
-0.003145113 -0.02494804 -4.335177e-06 0.002808683 2.9188695e-06 -0.004467201 0.0034385398 0.0040720683
-0.0002577325 5.2565197e-06 0.0003241454 -0.0030654534 0.0034357524 0.0024641152 2.506341e-05 3.0644824e-07
0.000625674 0.0022677206 0.00011716508 -0.0023716504 -0.00044478805 -5.9560302e-06 -0.00079511566 5.2583804e-05
-2.6407712e-05 0.0012149367 -0.00029208002 -9.4717086e-07 -1.623776e-05 0.0035290166 -1.5180133e-07 -0.003086273
0.0031676253 -0.0021019664 3.690865e-05 -3.0491117e-05 -2.9210178e-06 0.004338141 -0.0012344824 9.27429e-05

base_feature_extractor.0.1.weight f4 [64]
00000000: 39ca ba3f 182c 683f 16e4 c23b e5f1 8b3e
00000010: 2532 893f 05a2 f63e 1f15 583e abf6 b63e
00000020: 2053 033f 1a4a 973f 9be3 343e b138 4a3f
00000030: f8cd b43f b99d 543e 324e bd3e 8294 d53e
00000040: b5bc 883f 6505 023f 160b a43f 9209 e83e
00000050: 4362 a83f aeb9 333f 150f 9f3f ca51 a53f
00000060: a812 a83f 91fe a83f 4215 273e d11f a73f
00000070: afe1 953e e31e 8b3f 5283 123f 42b8 a53f
00000080: 0ea3 c83d da35 2b3e 11e5 993e 9a41 b63f
00000090: 636b a63f a592 963f 2e2a d73e 1afa 943d
000000a0: 36dc 7d3f eddb 243f 6297 a33f f421 b33f
000000b0: beb9 9a3f 3815 e23e 57ca 9e3f 568f bb3e
000000c0: 3c39 7f3e affe a63f 50df 813f 4399 643e
000000d0: 85cb c83e bf7a 843f 6bfa 3d3e 5382 153f
000000e0: 4909 a43f 4a09 a53f cca7 e03e 141e c13e
000000f0: 9e81 b13e 3a65 973f 781c 1d3f 60c8 0e3f
1.4592963 0.9069228 0.0059476 0.27332988 1.0718428 0.48170486 0.21101807 0.35735068
0.51298714 1.1819489 0.1766495 0.78992754 1.4125357 0.20763291 0.3697372 0.41714865
1.0682589 0.5078948 1.2815883 0.45319802 1.3154987 0.702052 1.2426478 1.2915585
1.3130693 1.3202688 0.16316703 1.3056585 0.29273745 1.0868801 0.5723163 1.2946856
0.09796725 0.16719761 0.30057576 1.423877 1.3001522 1.1763502 0.42024368 0.072742656
0.9916414 0.6439808 1.2780573 1.3994737 1.2087934 0.44156814 1.2405499 0.36632794
0.24924177 1.3046473 1.0146275 0.2232409 0.39217773 1.0349959 0.18552558 0.58401984
1.2815334 1.289346 0.4387802 0.3771826 0.34669203 1.1827767 0.61371565 0.557745

base_feature_extractor.0.1.bias f4 [64]
00000000: f559 18bd d60c 27be fcf4 bdbd 9e7e 49bf
00000010: c082 9dbc 8c28 5a3e b0f0 48bf d935 f8be
00000020: 0238 2abf 8c17 a6bc 7ac4 d03c 73af 543d
00000030: d615 2e3c 325b 2abf f348 3fbf 67e1 48bf
00000040: cad1 e13d 136d 1e3d d6c0 583e 5968 2fbf
00000050: 68dd 10bc 9699 5a3d dcef a0bc 2e5f 34bc
00000060: 9a26 953e 86d3 5f3e afc0 48bf d2af adbc
00000070: b2c8 4ebf 8110 adbc 449a 9e3e 064f df3d
00000080: 838f b93d d5c1 edbe 1440 bebe c7c0 a23e
00000090: c6c1 d13d 5826 21be 360e 45bf 70fb 99be
000000a0: f37f 45be 5521 833e e4a8 50bc 8a6e a9bc
000000b0: 9884 2abe 5858 51bf d306 2fbe ccd7 47bf
000000c0: 5079 49bf 55b4 2bbc c74e a1bc 52a2 48bf
000000d0: ee1c 41bf 7a3c 703e d49b 4dbf 6d96 073f
000000e0: 5fb8 e8bb 58d6 d5bd 2f55 2bbf b92e 2cbf
000000f0: 062f 92be 6fdc 9fbc e42a 1e3d 2889 20bf
-0.037195165 -0.1631349 -0.09275243 -0.7870883 -0.019227386 0.2130453 -0.7849226 -0.48478583
-0.6649171 -0.0202749 0.025484312 0.051925134 0.010625323 -0.66545403 -0.74720687 -0.78468937
0.11026342 0.03867824 0.21167311 -0.68518597 -0.00884185 0.053369127 -0.019645624 -0.011009021
0.29131013 0.21858034 -0.7841901 -0.021202002 -0.80774987 -0.021126034 0.3097707 0.109037444
0.09060576 -0.46436945 -0.37158263 0.31787702 0.102420375 -0.15737283 -0.7697481 -0.30074644
-0.1928709 0.25611368 -0.012735579 -0.020682592 -0.16652143 -0.81775427 -0.17092447 -0.78063655
-0.78700733 -0.010480006 -0.019690884 -0.7837268 -0.7543477 0.2346057 -0.803159 0.52963907
-0.007102057 -0.104412735 -0.66926855 -0.67258793 -0.285515 -0.01951429 0.038615122 -0.62709284

base_feature_extractor.0.1.running_mean f4 [64]
00000000: cc77 0f3b 6cbf cbb9 4d7a bc36 2b5a 98b7
00000010: 9796 5439 f459 4cbb bfcc f4b6 f731 58b3
00000020: c898 a238 192e 7aba 9eff b738 d422 fb39
00000030: cbcd d7bb f69d 9b37 ca02 9137 c08a ccb5
00000040: a4da 16bb d5fa 8e3a 535a fc3b 8370 4536
00000050: b6c7 2f3b ef55 17bb 150a 143b 821b 3239
00000060: 9702 50bb c8c6 cfbc 553d c8b7 1231 493b
00000070: 5163 9f36 e4e3 84bb 688d 5d3b 08a8 ec3b
00000080: b20f cf39 a773 9f37 e6a0 27b9 7f94 94bb
00000090: f9e5 093b da73 423b c0ed 8e37 b20a 3237
000000a0: 1641 4b3a e949 cb3a 7579 1ebb 7694 abbb
000000b0: 7d64 b038 3ab8 0638 407d 79b9 f5ec 1e38
000000c0: fc1f 0038 59c8 7d3a e85a 8e39 1319 e236
000000d0: e08a 0837 812b 9f3b beec 13b8 7d71 60ba
000000e0: 524f a23a da39 15bb 05d2 e9b6 f635 2f38
000000f0: 8ade 7db7 745f 643b e039 0cbb 980c b238
0.0021891473 -0.00038861798 5.6170743e-06 -1.81618e-05 0.00020273995 -0.0031181546 -7.2956022e-06 -5.0336862e-08
7.75322e-05 -0.0009543612 8.7737324e-05 0.000479004 -0.0065858117 1.8550996e-05 1.7286646e-05 -1.5239566e-06
-0.0023018504 0.0010908494 0.007701197 2.9420778e-06 0.0026821918 -0.0023091992 0.0022589017 0.0001698565
-0.0031739825 -0.025363341 -2.3870418e-05 0.0030699414 4.750131e-06 -0.004055487 0.0033806209 0.0072221793
0.0003949381 1.9008132e-05 -0.000159863 -0.0045343037 0.0021041615 0.0029671104 1.703843e-05 1.0612117e-05
0.0007753534 0.0015509698 -0.002418128 -0.005236204 8.4110514e-05 3.2119664e-05 -0.0002379315 3.789082e-05
3.0547366e-05 0.0009681038 0.0002715208 6.738244e-06 8.138566e-06 0.004857481 -3.5268014e-05 -0.0008561833
0.0012383258 -0.0022770078 -6.9683906e-06 4.1773506e-05 -1.5131789e-05 0.0034846934 -0.00213968 8.490047e-05

base_feature_extractor.0.1.running_var f4 [64]
00000000: b707 9639 6550 0f3a 32fe 8038 f55e 2638
00000010: 1888 a339 9349 5239 2415 6e37 982f 6036
00000020: f9d7 5338 1aca 6039 ba4a 1339 a737 283a
00000030: 67ed 9f39 6360 fc37 936f f036 554a bf36
00000040: 2200 8e39 2cec 1d39 bd36 003a 972d 8437
00000050: 5fe1 183a 0f96 0a39 2ab4 8739 8326 193a
00000060: cc81 043b 1aa7 3539 51fe 3538 1dd6 8b39
00000070: 3fac 6736 aa7a c739 85e3 1939 3fbf 5e3a
00000080: dd3e c638 6b33 7438 10ae a938 e0ff da39
00000090: 1f7b 7a3a c5b8 fe39 936d 7637 45f8 3537
000000a0: 4b08 0d3a b763 2f38 955b f539 91ae 9639
000000b0: c3a0 db39 d0c5 0b38 b754 d439 4d27 0938
000000c0: 1024 5338 4379 213a 8a0f 8939 790b 4837
000000d0: 862d 0537 28a0 0e3a af4a 7b38 2565 5539
000000e0: 9c61 bf39 6cfd 9139 4154 8137 d016 0438
000000f0: 4638 0838 0713 5839 f054 0739 c9db db37
0.00028615977 0.0005466997 6.150863e-05 3.966592e-05 0.0003119118 0.00020054569 1.4190828e-05 3.3406304e-06
5.050746e-05 0.00021437593 0.0001404685 0.0006416984 0.00030503722 3.0085625e-05 7.1655463e-06 5.700897e-06
0.0002708445 0.00015060668 0.0004890969 1.5756856e-05 0.0005831923 0.00013216607 0.0002588344 0.00058422255
0.0020218967 0.00017323755 4.3390613e-05 0.00026671673 3.4521943e-06 0.0003804763 0.00014675975 0.0008497126
9.453085e-05 5.822202e-05 8.09097e-05 0.00041770842 0.00095550896 0.0004858432 1.4688255e-05 1.08462455e-05
0.0005379959 4.1816118e-05 0.00046798275 0.00028740292 0.00041890712 3.332441e-05 0.00040498908 3.2699947e-05
5.0339906e-05 0.0006159732 0.00026142254 1.19236e-05 7.938017e-06 0.0005440735 5.9912618e-05 0.00020350942
0.00036503084 0.0002784537 1.5417232e-05 3.14925e-05 3.2477335e-05 0.00020606453 0.00012906245 2.620918e-05

base_feature_extractor.1.0.weight f4 [64, 64, 3]
00000000: 2783 debd cd62 94be 9e1c 5bbe 0601 a1bd
00000010: bde0 00be 926b d5bd 99d0 35bc 7025 c63a
00000020: 355e 22bc d6a4 05bc c7f1 ddbb 8de2 14bc
00000030: 8505 513c d5ae abbd fc18 3bbd 075c e33c
00000040: f101 913d d45a 873c 3fca 44bd 289f 60bd
00000050: ca53 34bc df08 61bc 2ddf b9bc c107 19bc
00000060: 45bf 353d b5cd 663d a77f 513d d4ce 80bc
00000070: 7c20 54bd 9a0d f4bd 46ae cc3c 61f0 15bd
00000080: 4ac2 0ebd fcd9 aabd 51ba e3bd 5670 d5bd
00000090: 2462 fabd 5b70 96be 005a 53be d107 04bc
000000a0: 8a10 39bc d5f1 39bc ab3f f0bc d4a4 dcbc
000000b0: 7cbd 43bc 1637 8fbc 0cbd 9bbc 89c4 4d3b
000000c0: efb3 d43c f953 233c 6253 f0bd 7ef1 76bc
000000d0: 1513 66bd c955 3fbd ceff 21be 8c6b 25be
000000e0: 4523 47be 897f 53bb 961b ee3c 68d4 313d
000000f0: 3dbf 403d 795d 363e b00b 12be 72cd 31bd
00000100: 981c 1dbe 0208 8abd 41a4 9abb ac3e 8dbd
00000110: 23e8 e1bd 559d 363d 1e49 3b3c 915b 23be
00000120: f538 49be ee24 44be c2c9 46be 7866 bbbd
00000130: 33df 44be 4d42 fbbd e55e b7bc dec9 e4bc
00000140: abb6 15bc 08cb 153d b403 3fbd 2c2d 3bbd
00000150: 33ad 11bd 252a f8bc f215 1d3c bd72 3f3c
00000160: 7d9a 2ebd 1031 94bd 4f67 5e3d afe6 073e
00000170: e6e5 45bc 5ec7 e6bb cbeb e83d 0018 32be
00000180: c098 1f3d 5eda bdbc 1277 0bbc b6f5 06bd
00000190: 329a b8bc aea5 d0bc 4d74 a63c 16d6 c43c
000001a0: 29b1 f93c e62d 18be bd4e 5abe 87fb 7bbe
000001b0: e273 3f3c 7454 b33d 11f8 5cbe 3c1d 1bbe
000001c0: a3e7 36be 45a1 29be c99d 823b 85d9 523b
000001d0: ce3d c83c f37c 073c 822d 063a cd24 6ebb
000001e0: 8644 fabd e323 f5bd b690 a6bd 7ee9 cf3c
000001f0: 99af ca3d 348c 523d 4803 df3d 8f3c 303e
00000200: 5d1d f9bc b721 8c3d c9f0 ffbc 4710 9ebd
00000210: e58e 0ebe 87df 4abe 13de 33be 8f8d 08bd
00000220: 6a25 3dbd ffd8 cbbc dcb5 0bbe 9f07 47be
00000230: 048d 19be 5e4f 383c 07a8 843b 3016 413c
00000240: 29a0 bebb da04 15bc 4315 7dbc 3b37 8c3d
00000250: 7d0e 123e d100 01be 8623 563d a977 b2bd
00000260: 4b37 86bd 5f1f a43a a2c1 a1bb 031e 68bc
00000270: a822 9bbc 210d 3fbc d035 dbbb 946d 30be
00000280: 489d 4abe 7775 31be 3720 51bc 0b64 52bc
00000290: bdd4 9abc 05e5 c93c 78c7 233e 4ac0 583c
000002a0: 5ed1 a53d 3d6c 983d ffa3 a9bd f430 aabd
000002b0: f6db 81be cd7b 24be 740b a53b f9ea 6f3a
000002c0: 2e13 183c 3da6 6b3c 8c9e 103d 9064 093d
000002d0: 9be3 17bc 5610 07bd 7938 ebbc af76 173d
000002e0: 35de 04be 7e3b cbbd 0e45 eabc b763 78bd
000002f0: 201d 98bd aa38 d4bc a135 9fbc fa2e 373c
00000300: 4d15 29bd 9bbf 673d 9e2e a63d cfed 863d
00000310: af16 613d 8c61 ab3d 6d22 ac39 f731 96b9
00000320: 3738 3eba d799 2dbd b3b2 35bd 6dd1 0fbd
00000330: ed37 3abe b0fe 27be dec8 89be 436d d6bc
00000340: 0ccb e0bc f9aa b53d a04c debc 2a65 0bbd
00000350: a122 1ebc eb9a 5d3c ccc6 323c 2e60 183c
00000360: 9cd5 28bc 7674 78bb 450a 08bd 2eaa 76be
00000370: 57a5 35be 697d 91be d026 c73b 53cd 93bb
00000380: f63e 19bd 0533 a9bd 3511 03be 10e2 ccbd
00000390: 7096 55bd 8a46 0a3d 695b 033d 1768 803b
000003a0: 7802 9a3a 8f33 9f3a 604f 4a3b 7b6b ab3b
000003b0: aeab d63b 4c4c bdbb ee12 02bc 1bdc cf3a
000003c0: 1fa5 33be 2759 59bd 0264 8cbd 3438 06bc
000003d0: 88e1 633a 6210 2ebd cb5c 46be 73fe 4ebe
000003e0: e128 1bbe a311 2fbb 90b7 193d e0d3 b2ba
000003f0: cc00 aebe 6fe4 91be 932b 98be 80f9 bcbd
-0.10864859 -0.2898163 -0.21397635 -0.07861523 -0.12585731 -0.10420908 -0.011097097 0.0015117358
-0.009910156 -0.008156976 -0.006773207 -0.009087217 0.012757664 -0.08382956 -0.045678124 0.027753843
0.070804484 0.016522802 -0.04804444 -0.054839283 -0.011006305 -0.013735025 -0.022689426 -0.009340228
0.044371862 0.05634852 0.05114713 -0.015723623 -0.051788792 -0.11916657 0.024985444 -0.036606196
-0.034853257 -0.083423585 -0.111195214 -0.10421817 -0.1222575 -0.29382595 -0.20639801 -0.008058504
-0.011295447 -0.011349161 -0.029327234 -0.026934065 -0.011947032 -0.017482322 -0.019011043 0.0031397662
0.025964705 0.009968751 -0.11734654 -0.015072225 -0.05617054 -0.04671267 -0.15820238 -0.16154307
-0.19447048 -0.0032272062 0.029065888 0.043415457 0.04705738 0.17809094 -0.14262271 -0.04340882
-0.15342939 -0.067398086 -0.0047192876 -0.06896719 -0.11030605 0.044583637 0.011431007 -0.15952899
-0.19650634 -0.19154713 -0.19412902 -0.09150404 -0.19225769 -0.12268505 -0.022384116 -0.027928289
-0.00913779 0.03657058 -0.04663439 -0.045697376 -0.035565566 -0.030293534 0.009587752 0.011685071
-0.0426278 -0.072359204 0.05429774 0.13271593 -0.012078738 -0.0070428094 0.11373099 -0.17391968
0.038964033 -0.023175415 -0.008512275 -0.032949172 -0.022534464 -0.025469627 0.020319128 0.024027865
0.030479984 -0.14861259 -0.21319099 -0.24607669 0.011685343 0.087563425 -0.21579005 -0.15147871
-0.178618 -0.16565426 0.0039860946 0.0032173109 0.024443533 0.008269536 0.00051184755 -0.0036337853
-0.12220101 -0.119697355 -0.0813307 0.025379892 0.09896774 0.05140324 0.10889298 0.17210601
-0.03040951 0.06842368 -0.031242745 -0.077179484 -0.13921697 -0.19811831 -0.17565183 -0.033338126
-0.04617826 -0.024883745 -0.13643593 -0.19436501 -0.149952 0.011249391 0.0040483507 0.011785075
-0.0058174324 -0.009095395 -0.015446964 0.06846472 0.1426334 -0.12597968 0.05227997 -0.087142296
-0.06553515 0.0012521556 -0.004936413 -0.014167312 -0.018937424 -0.011660845 -0.0066897646 -0.172293
-0.1978656 -0.17329966 -0.012764028 -0.012841235 -0.01890027 0.024645338 0.1599406 0.013229439
0.08096574 0.0744252 -0.08283233 -0.08310118 -0.2536313 -0.16062851 0.0050367657 0.000915214
0.009281917 0.014382896 0.035307452 0.03354317 -0.009270574 -0.032974564 -0.028713452 0.03697842
-0.1297539 -0.099234566 -0.028597381 -0.06064197 -0.0742743 -0.025905926 -0.019434752 0.011180634
-0.04128008 0.056579214 0.0811436 0.06588327 0.054953273 0.08368215 0.00032832046 -0.00028647456
-0.00072563015 -0.04238304 -0.044359874 -0.035111833 -0.18185396 -0.1640575 -0.26911062 -0.026175147
-0.02744057 0.08870501 -0.027136147 -0.034032024 -0.009651811 0.013525705 0.010911655 0.009300275
-0.010304835 -0.0037911213 -0.03321292 -0.24088356 -0.17738853 -0.28415993 0.006077625 -0.0045105605
-0.03741356 -0.08261684 -0.12799533 -0.100040555 -0.05214542 0.033758678 0.032069597 0.0039186585
0.0011750003 0.0012146103 0.0030870065 0.0052313185 0.0065512275 -0.0057769176 -0.0079390835 0.0015858443
-0.17543457 -0.053063538 -0.068550125 -0.008192111 0.00086929696 -0.042496093 -0.19371335 -0.20214252
-0.15152313 -0.0026713393 0.037528574 -0.0013643466 -0.33984983 -0.28494594 -0.29720744 -0.09227276

base_feature_extractor.1.0.bias f4 [64]
00000000: 8687 6f37 db6e 8fb7 129d 7b37 5db2 0e93
00000010: 638b 2fb6 9f0a a336 370e 3d38 5c00 bc37
00000020: e774 c837 a02e 01b7 92e5 b7b7 ca0c 1037
00000030: e642 6836 0d7a 0db8 f4a0 deb5 0a0a bbb7
00000040: ff96 6837 d946 c837 e87e 1836 f102 79b6
00000050: 7ad9 b2b8 d700 36b8 b9d3 0337 748d 68b6
00000060: a310 e7b7 a486 3d37 8227 0ab7 3172 f7b7
00000070: a1b5 1d38 273f 8138 1871 3bb8 929c 9a36
00000080: 2590 b72e 6649 d336 7c72 0600 9ad7 6a35
00000090: 109f 75b7 b593 15b6 f7ab 8f37 9309 76b7
000000a0: 4021 0a37 9e2f 52b3 af34 7fb8 9642 8fb7
000000b0: 9c93 a4b6 e140 33b7 ee8d dd37 ec3a a737
000000c0: b2b6 c037 2dc5 7537 541d 2937 bda3 d0b4
000000d0: 426c dab4 5f68 47b8 9094 5737 20be c238
000000e0: 5f7d 38b7 8de8 c4b6 5ebf b6b5 6585 8fb6
000000f0: e5a3 8238 a49a 1537 2769 7737 7cbb 9cb6
1.4277064e-05 -1.709855e-05 1.4997337e-05 -1.801086e-27 -2.6158166e-06 4.859015e-06 4.507435e-05 2.2411514e-05
2.3896295e-05 -7.699855e-06 -2.1922202e-05 8.5860465e-06 3.4609634e-06 -3.373069e-05 -1.6587132e-06 -2.2296812e-05
1.3863434e-05 2.3874849e-05 2.2723634e-06 -3.7105603e-06 -8.5282096e-05 -4.3392964e-05 7.857504e-06 -3.465303e-06
-2.7545093e-05 1.1296626e-05 -8.23464e-06 -2.9497869e-05 3.7600872e-05 6.1629624e-05 -4.46896e-05 4.607785e-06
8.347482e-11 6.2968347e-06 5.92082e-40 8.7485535e-07 -1.4640173e-05 -2.2288707e-06 1.7127006e-05 -1.4664972e-05
8.233183e-06 -4.8937743e-08 -6.0845803e-05 -1.7077935e-05 -4.904765e-06 -1.0684337e-05 2.6411344e-05 1.9935389e-05
2.2973258e-05 1.46490465e-05 1.0080013e-05 -3.8862154e-07 -4.0684432e-07 -4.75425e-05 1.28495885e-05 9.2860544e-05
-1.0996445e-05 -5.8683277e-06 -1.3615752e-06 -4.2772613e-06 6.229411e-05 8.917097e-06 1.474683e-05 -4.6709883e-06

base_feature_extractor.1.1.weight f4 [64]
00000000: 1005 043f 4ab4 3d3f e806 3f3f 2712 973d
00000010: 73ff 553f 2269 173f 42e6 893f 38c5 5e3f
00000020: 85d5 453f 693d 823f 870c 223f feee 603f
00000030: aa95 093f 5cf4 8d3f 0b99 5c3f 695e 473f
00000040: daf3 823f 08c1 183f dd7d 343f 7614 3e3f
00000050: c04f a53f e314 0c3f bf7c 153f d31c 5a3d
00000060: b6a9 8f3f 0c33 9a3f 2edc 153f eff8 133f
00000070: 7314 843f 782c 853f 2302 863f ae95 2c3f
00000080: 8425 263e 1b9e 1a3f 2c53 af3d acc2 d13e
00000090: 9282 773f 8185 923e 41b0 353f c71e e43e
000000a0: 4593 453f c4c4 c53e 1980 543f d8fe a83e
000000b0: 18d4 333f 3419 0a3f cc28 5d3f 6793 303f
000000c0: 613d 8e3f bac7 913f 582f 0a3f 1931 bb3e
000000d0: d4be 863f 4ca7 713f 767a f43e 377a 8f3f
000000e0: 4e58 f03e a64b 8e3f 207a ca3e 9a24 d13e
000000f0: 9ce0 523f 00bb c93e 1e80 4b3f d9aa 273f
0.51570225 0.74103224 0.74619913 0.07376509 0.8359291 0.59144795 1.0773394 0.8701968
0.7727893 1.0174991 0.63300365 0.87864673 0.53743994 1.1090198 0.86171025 0.77878433
1.0230668 0.5966954 0.7050455 0.7424997 1.2914963 0.5471937 0.5839347 0.053250145
1.1223667 1.2046828 0.5853909 0.5780172 1.0318741 1.0404196 1.0469402 0.67415893
0.16225249 0.603975 0.08560786 0.40968835 0.9668361 0.2861748 0.7097207 0.4455473
0.7717784 0.38626683 0.8300796 0.3300693 0.70245504 0.53944707 0.86390376 0.6897492
1.1112481 1.1389077 0.5397849 0.36560896 1.0526986 0.943959 0.4774968 1.1209172
0.4694237 1.1116836 0.395463 0.40848237 0.82373977 0.39400482 0.79492366 0.6549507

base_feature_extractor.1.1.bias f4 [64]
00000000: 96ff 103e adc5 d1bc e2d3 f3bd d50c 0fbe
00000010: 7c1e 643e 608e 353d 955e d2bd 0369 663e
00000020: 2a08 543e 2a94 c73d 567e 2c3e fb8a 673e
00000030: f7e5 15be 9fef c0bd bae0 6a3e 498a 643d
00000040: 44a8 c7bd 3b73 893e bc09 853e 5373 5abd
00000050: 626a f4bd 471c 223e c97c 593d e732 dd3d
00000060: b122 bbbd c0d8 e8bd 65ab e63d 9c92 823e
00000070: bc31 5cbd 0726 20bd b7e7 95bd 030e 80be
00000080: f82e 00be a75a 5b3e d4ca dabd e780 0d3e
00000090: 561b 5f3c bbb0 2bbe f93c ab3e 89df 1d3d
000000a0: 8680 383e 13b4 6cbe 2f11 323e 2a11 4c3d
000000b0: e43a c53d 28d2 b83e a1e5 c0bd 7d7a 793e
000000c0: f94b f3bd 6a85 04be 93bf f23d 0893 10be
000000d0: 6075 59bd 885e 973e 16f7 f73d 6de1 92bd
000000e0: de3f c63d c644 84bd ec4e 463e 8394 7a3d
000000f0: 3ebc 0a3e 74f4 c33e 3638 ce3e d50e e63e
0.14159998 -0.025606954 -0.11905648 -0.13969739 0.22277254 0.044325233 -0.10271946 0.22500996
0.2070624 0.09745057 0.16845068 0.2261161 -0.14638506 -0.09420704 0.22937289 0.05579594
-0.09748891 0.26845726 0.2598399 -0.053332638 -0.119343534 0.158311 0.05309752 0.108007245
-0.09137476 -0.11369467 0.1126316 0.2550248 -0.053758368 -0.039098766 -0.07319587 -0.2501069
-0.12517917 0.214213 -0.10683218 0.13818704 0.013617357 -0.16766636 0.33444956 0.038543258
0.18017778 -0.23115568 0.17389368 0.049821056 0.09630373 0.36097836 -0.09418798 0.24363132
-0.11879725 -0.12941518 0.11852946 -0.14118588 -0.053090453 0.2956431 0.12107675 -0.07171903
0.096801504 -0.0645843 0.19366044 0.061176788 0.13548371 0.3827244 0.4027726 0.4493319

base_feature_extractor.1.1.running_mean f4 [64]
00000000: 1edc 08c0 97d8 79c0 03fa b23f 7f90 fabc
00000010: e969 10c0 46a3 e8bf a3b8 07c0 ebb6 3cc0
00000020: 3098 3bc0 68d1 28c0 9a82 a0bf 908b 31c0
00000030: 0d70 77bf 9482 84c0 d69a 1dc0 aa0b 54c0
00000040: b45b 5bc0 ec25 98bf 1b6d 2ac0 3290 7fc0
00000050: 2cc4 26c0 d499 2bc0 dbf8 06c0 c357 6ebf
00000060: e18c 89c0 60ff 8ec0 529f ffbf 3837 07c0
00000070: 3ebd 8fc0 f1b0 84c0 4116 0bc0 3f9a a83f
00000080: d9eb 4abe aea2 2bc0 be6c d8b8 1529 01c0
00000090: afa0 62c0 cfac f0bf b137 0fc0 a51f 01c0
000000a0: 038c 5ec0 f835 07c0 ddd7 3bc0 3205 e5bf
000000b0: 6799 29c0 40d4 18c0 c5ab cebf 3312 07c0
000000c0: 6a94 91c0 98e2 a5bf a3f9 35c0 2061 97bf
000000d0: 6a30 86c0 0727 ff3f df83 35c0 97be 87c0
000000e0: 2f57 14c0 ea54 90c0 8376 ddbf b31c a2bf
000000f0: 32a6 4dc0 93de 7fbf 274a 87bf 9d02 fdbf
-2.138435 -3.9038446 1.3982548 -0.03058648 -2.2564642 -1.8174827 -2.1206443 -2.9486644
-2.9311638 -2.6377811 -1.2539856 -2.7741432 -0.9665535 -4.1409397 -2.4625754 -3.313212
-3.427472 -1.1886573 -2.6629093 -3.993176 -2.6057234 -2.681264 -2.108939 -0.93102664
-4.298447 -4.4686737 -1.9970496 -2.1127453 -4.491851 -4.1465993 -2.1732333 1.3172072
-0.19816531 -2.6818042 -0.000103199374 -2.0181324 -3.5410573 -1.8802737 -2.2377741 -2.0175564
-3.4772956 -2.112669 -2.9350502 -1.789221 -2.649988 -2.3879547 -1.614617 -2.1104858
-4.549367 -1.2959776 -2.8433616 -1.1826515 -4.19341 1.9933785 -2.8361738 -4.2420154
-2.3178213 -4.5103655 -1.7301792 -1.2665008 -3.2132688 -0.99948996 -1.0569504 -1.9766423

base_feature_extractor.1.1.running_var f4 [64]
00000000: a493 0442 4fa6 6f42 fc61 a041 caa7 923b
00000010: 0be8 5742 ee07 3442 c48e 3842 9251 8442
00000020: 7d24 6642 d904 7f42 e6b2 0a42 b19a 7442
00000030: 4131 3541 8f3d 7842 bfc9 6142 a2d0 8942
00000040: 1896 a642 b50f f241 dfa1 6142 c33f 8e42
00000050: d1b5 6042 74a2 5d42 d745 1642 bdec 6640
00000060: 96e2 8342 e80f 8f42 a951 1a42 01ce 3442
00000070: 9dc0 8f42 9834 5d42 6a54 4f42 37dc 9641
00000080: f4c0 183e d4a9 4142 5249 7732 d602 f441
00000090: c22c a342 fed5 7041 0ea6 3142 5638 9c41
000000a0: eaff 9442 fe13 aa41 ad72 7d42 ed94 db41
000000b0: 0a09 5242 2b34 3242 225d 1942 1311 4d42
000000c0: 2266 8042 863b 1e42 fe9e 7942 1cf6 0c41
000000d0: 8bfd 7542 0143 0e42 9cfa 0b42 40c3 6142
000000e0: ae30 1f42 7a66 a242 06f3 0042 b0d4 b341
000000f0: 6bdb 9842 0f32 d041 27de f841 0bef 2742
33.14418 59.91241 20.047844 0.0044755684 53.976604 45.007744 46.13942 66.15932
57.535633 63.754734 34.674706 61.151066 11.324525 62.060116 56.447018 68.907486
83.29315 30.25767 56.408077 71.124535 56.177555 55.408646 37.568203 3.6081994
65.94255 71.53107 38.579746 45.201176 71.8762 55.30136 51.832436 18.857527
0.14917356 48.415848 1.4393963e-08 30.501385 81.58742 15.052244 44.412163 19.527508
74.49983 21.259762 63.361988 27.447718 52.508827 44.550945 38.34095 51.266674
64.19948 39.55813 62.405266 8.810085 61.4976 35.565434 34.994736 56.440674
39.79754 81.20015 32.237328 22.478851 76.42855 26.024443 31.108473 41.98344

language_head.2.weight f4 [2, 64]
00000000: 8003 773b 1424 a53d 08aa 62bd b406 c5bd
00000010: 24aa 75bd 24d1 1e3d 9cd9 efbd 406a 353c
00000020: a030 e0bd 208d 4abd a4fe 4cbd c85b 333d
00000030: 188b f23c 0022 c23c b4df 673d 206a fe3d
00000040: 2074 71bc 1a85 eb3d 4a98 e73d 1675 98bd
00000050: d05a 86bd 5068 67bc 9020 2a3d c445 b43d
00000060: 5601 a3bd 6e17 e33d ecd3 713d 9084 acbc
00000070: 0cd9 ec3d 28c0 4b3d 2099 af3b d014 053c
00000080: 4413 873d daf1 a23d 006e 883b 7429 22bd
00000090: 28ee eb3c 9aad 83bd e06d 90bc ae1e 98bd
000000a0: d04d d8bc 401e b4bb a064 9b3c 0083 52bb
000000b0: 5e4b debd 0098 373d f498 41bd ec20 b0bd
000000c0: 8004 b93a 5827 c53d 92bc babd f81f 353d
000000d0: 2411 bf3d eac6 d53d 52c2 9c3d 8c06 33bd
000000e0: 405c 063b 804d 79bc fa06 933d 30c6 c1bd
000000f0: b4f5 00bd 0aff c2bd cc24 e8bd 2cbc 7f3d
00000100: 127e 82bd 682e c33c fa0a f93d 84f1 773d
00000110: 7e37 f73d 4823 9a3c 1ea9 86bd b65a d1bd
00000120: 7e34 adbd e0f8 cc3d 72b4 a93d 84d8 3dbd
00000130: a27f d63d 88db 8e3c 587c c8bd da32 a53d
00000140: d46b 7e3d eca9 babd 744e 643d c0ef 7d3b
00000150: 0471 f9bd a442 853d a206 d7bd e0a4 cb3b
00000160: 008f 71ba 468f f8bd e43b 1a3d f074 dfbc
00000170: f4ae 4abd 4089 5d3c e0bf c2bc 167e cfbd
00000180: 46ad 893d c041 31bb a03d 4e3c f43a adbd
00000190: c0b7 713c 6037 f43b b8a5 d63c 3c42 cc3d
000001a0: 4cc3 293d d0a3 b7bd 3681 e8bd f6e7 f53d
000001b0: 92ca f7bd 500e d0bd 60b9 babd b4df 333d
000001c0: 3834 c9bd 64fd c3bd d80d 1d3d 6e20 bfbd
000001d0: 08b5 b33c aa5e 88bd 2c79 8bbd 3050 b43c
000001e0: 6846 3fbd c814 663d c044 bd3c 341c 86bd
000001f0: 3091 6fbc 583f 8f3c ca40 99bd aee2 f7bd
0.0037691295 0.08063522 -0.055337936 -0.09620419 -0.059976712 0.03877367 -0.117114276 0.011072695
-0.109467745 -0.049450994 -0.05004753 0.0437887 0.02960734 0.023697853 0.056609824 0.124225855
-0.014737159 0.114999965 0.11308344 -0.07444207 -0.0656029 -0.014123991 0.04153496 0.08802369
-0.07959239 0.11088453 0.059039995 -0.021059304 0.11564836 0.0497438 0.00535883 0.008122638
0.065954715 0.07956286 0.0041635036 -0.039590314 0.028800085 -0.06429596 -0.017630517 -0.07427727
-0.026404291 -0.00549677 0.01896888 -0.003212154 -0.10854219 0.044822693 -0.047265008 -0.08600029
0.0014115721 0.09626645 -0.09117998 0.04421994 0.09329441 0.104383305 0.07654251 -0.043707415
0.0020501763 -0.015216231 0.07179065 -0.094616294 -0.03148432 -0.09521301 -0.113351434 0.062435314
-0.06371702 0.02382584 0.12160297 0.06053306 0.12071131 0.018815652 -0.06575225 -0.1022238
-0.08457278 0.10008407 0.0828637 -0.046349064 0.10473563 0.017438665 -0.09789342 0.0806634
0.06211455 -0.09114441 0.05573888 0.0038747638 -0.12179759 0.06506851 -0.10499312 0.006214723
-0.0009214729 -0.12136702 0.037654772 -0.02727744 -0.049483255 0.0135214925 -0.023773134 -0.10131471
0.067225024 -0.0027047247 0.012587935 -0.0845851 0.014753282 0.0074528903 0.026202068 0.09973571
0.041446015 -0.08966792 -0.1135277 0.12007134 -0.12099184 -0.1015898 -0.09117389 0.04391451
-0.09824413 -0.09569815 0.03834328 -0.09332357 0.021936908 -0.06658681 -0.06810221 0.022010893
-0.046698004 0.056172162 0.023104072 -0.06548348 -0.014622018 0.01748626 -0.07483061 -0.121037826

language_head.2.bias f4 [2]
00000000: 98b9 45bd 70e9 1fbd
-0.0482727 -0.039040983

disease_feature_extractor.0.0.0.weight f4 [64, 64, 3]
00000000: 1668 f1bd 721a 25be 85b4 3dbe 4a74 02be
00000010: 7529 1cbe a0b8 cfbd d686 813d 3283 113e
00000020: 7e9d 233e 2f07 f7bd 5596 bfbd f31d ebbc
00000030: ceb6 1b3e ac9a dc3c e4cd b7bd 8e32 423e
00000040: 753a 4e3d 51fc babc d833 be3e 76ba 913e
00000050: 770a 7e3e f7ca 2a3e 15a7 b13a d71d 32bd
00000060: 20b6 023e 9907 ef3d c6a9 c33c e908 b23d
00000070: be04 8abd 301c abbd e9b9 783e ff01 de3b
00000080: 617e a0bd ff8e 1b3e 9a1b babb a893 c0bc
00000090: 9656 2ebe bf4d 953c 3ee5 af3d a14c e7bd
000000a0: 7384 27be 036a 65be 69eb 393e 65f3 b03c
000000b0: 1d44 d0bc 3252 1b3e 67de 0c3e 4a6f c43d
000000c0: 02c0 993e e076 883e 3241 773e a8f0 4c3e
000000d0: cc14 e3bc 37d1 a4bd b668 dc3d df4a 05bc
000000e0: 28f5 59bd 5a64 efbd 89be 3fbe 234e 7fbe
000000f0: e149 853e 89b8 ad3e 7c4c 013f 34c6 253e
00000100: b305 0a3e d2e5 1dbd d6f2 0f3e 7649 b7bc
00000110: b7cd 27be ec4a 3ebe e24e 41be 8c0f 45be
00000120: 94cf 8bbe 4333 a8be 9ed8 aebe 340d 6bbe
00000130: fccc 91be b44b b3be 3e81 0e3e fd16 86bc
00000140: 867e e5bd d715 ce3c d9bc 25bd 509e 41be
00000150: 0d93 3bbe f8b3 98be c140 bbbe 9267 8ebe
00000160: 120f a8be ad64 b6be 3418 503e da83 833e
00000170: 2e38 953e d014 353b cf87 903d 57c2 063e
00000180: aa14 67bd 580f eabd 7c2d f9bd d319 783d
00000190: 8417 54bd d97b efbd 3609 36bd 2bea 47bd
000001a0: 4010 86bd 05fa 813d 3a22 debb 31f6 b6bd
000001b0: c4c4 4d3e c48a 113e 04a1 f63d 8a98 8abd
000001c0: 339e a1bd ffce 02be 36dd 14bd 2248 33be
000001d0: 798d 25be 4e86 36be 49ca b4bd 6bfe a0bd
000001e0: 8909 983d f02e 75bb ecdf b039 4b32 36be
000001f0: 1211 3bbe bc54 54be 89f3 733e 931f 7c3e
00000200: ab05 c33d 2a33 8f3c 721d 923d 089b 9e3c
00000210: 53e1 803e 2cfb 113e f1dd 50bc 5d60 543d
00000220: 70e3 983b 83e7 00be ec71 353e fd5c 1b3e
00000230: 5ce6 f83d 79ac 863e 3178 1e3e f148 643d
00000240: 51a9 0bbe 3138 9abe e837 c8be af13 413e
00000250: 0d0a 8f3d bc61 f23d c335 533e fefc 413e
00000260: 0730 f33d f5d5 37bd e545 873c 14e2 dc3c
00000270: 9343 05be 23db a2be 55b0 a8be 86c3 0dbe
00000280: 90a4 b4bd 9e39 30bd cfb2 14be 583a 51be
00000290: d937 5bbe 6938 a7be 29ad c9be 515c c3be
000002a0: 8dfa bdbc 5973 babd 4492 41be 2196 82be
000002b0: 54fa 92be a61c a2be af32 d03d ce6d 96bd
000002c0: b905 0abe 4f8b 033e 0ccc 6fbd ab88 42bd
000002d0: c656 733e 4597 283e a02a 003e fd37 f8bc
000002e0: 9c40 07be 77cc 4dbe 0a1f ca3d fcbb dabd
000002f0: dbfd bcbd c8b7 d33d 8511 81bd ebe3 22be
00000300: 8b60 92bd fe76 bbbc 005b 0abe bf0e 1dbd
00000310: 584d 96bd 7621 6ebe f634 37be caa7 6ebe
00000320: eae9 87be a014 023b d13a 1abe 1b72 70be
00000330: d9fb 9dbd dc19 90bd 6ad3 34be bcc0 953c
00000340: 666a 893c d725 afbd da33 81be 58e2 bcbc
00000350: cfeb a0be 5203 65be 0601 93bd 4337 20be
00000360: 14c7 1dbe c2de 03bd 84c3 b4bd f375 37bc
00000370: 4dfb a13d 24b6 78be a522 adbc 911e cd3c
00000380: 0467 11be 9e64 83be b0d5 3e3c 8509 50be
00000390: 8ce1 aebd a556 91be 520d 53bd f4a0 06be
000003a0: d2d3 79be aaf0 a9be 5de9 893b ccef b3bb
000003b0: 29ae 0dbe bc4c 87be 4724 74bd a162 ddbd
000003c0: 07e5 6bbe 2e85 88bd a896 52be c8e8 dcbd
000003d0: 7471 a33b c4ec 9cbd 8701 78be a302 8fbd
000003e0: 3f29 a6bd 9978 b9bd e93f c5bd ecf8 22be
000003f0: ba15 12be 73cf 39be 81d9 48be f612 11be
-0.11787431 -0.1612337 -0.18525894 -0.12739673 -0.1525019 -0.10142636 0.06324546 0.14210203
0.15978047 -0.12061917 -0.093548454 -0.028700804 0.15206453 0.026929222 -0.089748174 0.18964598
0.050348718 -0.022825392 0.3714893 0.2846257 0.2480868 0.16678987 0.0013553823 -0.04348549
0.12764788 0.11671371 0.023884665 0.08693106 -0.06739186 -0.08354986 0.24289669 0.0067751403
-0.07836605 0.15191267 -0.00567956 -0.023507908 -0.17025217 0.018225549 0.08588646 -0.11293913
-0.16359119 -0.22403722 0.18156208 0.021600435 -0.025423104 0.15168074 0.13756715 0.09591539
0.30029303 0.26653194 0.24145964 0.20013678 -0.027719878 -0.08047717 0.107621595 -0.008135526
-0.053212315 -0.116890624 -0.18725027 -0.2493215 0.26032928 0.33929852 0.5050733 0.1618889
0.13478737 -0.03854925 0.14057478 -0.022373896 -0.16387068 -0.18583268 -0.18877748 -0.19244212
-0.27306807 -0.3285161 -0.3414964 -0.22954255 -0.28476703 -0.35018694 0.1391649 -0.016368384
-0.11205773 0.025156898 -0.040463302 -0.18908048 -0.18317814 -0.29824805 -0.3657284 -0.27813393
-0.32823998 -0.35623685 0.20321733 0.25686532 0.29144424 0.0027630813 0.070571534 0.13160072
-0.05641619 -0.11428708 -0.121668786 0.060571503 -0.05178024 -0.11693544 -0.044442378 -0.048807304
-0.06546068 0.063465156 -0.0067789825 -0.08933676 0.20094591 0.14213091 0.1204243 -0.06767376
-0.07891502 -0.12774275 -0.036343776 -0.17507985 -0.16167249 -0.1782467 -0.08827645 -0.078610264
0.07423694 -0.003741201 0.0003373617 -0.17792623 -0.1826823 -0.20735449 0.2382337 0.2462142
0.095225655 0.017480452 0.071345225 0.019361034 0.2517191 0.1425597 -0.012748227 0.05184971
0.0046657845 -0.12588315 0.17719239 0.15172191 0.121533126 0.2630346 0.15475537 0.055733625
-0.13638808 -0.30120996 -0.39105153 0.18855165 0.06984339 0.118350476 0.20625977 0.18944165
0.11874395 -0.04488178 0.01651282 0.026963271 -0.13014059 -0.31807813 -0.3294703 -0.13844118
-0.0882045 -0.043023698 -0.14521335 -0.20432413 -0.21408023 -0.32660225 -0.39389923 -0.3815637
-0.023190761 -0.09104032 -0.18903452 -0.25505164 -0.2870661 -0.31662482 0.10165917 -0.07345162
-0.13478746 0.12846111 -0.058544204 -0.047493618 0.2376357 0.16463955 0.1251626 -0.030300135
-0.1320824 -0.20097528 0.098692015 -0.106803864 -0.092281066 0.10337788 -0.0630217 -0.15907256
-0.0714732 -0.022883888 -0.13511276 -0.03834414 -0.07338971 -0.23254952 -0.17891297 -0.23306194
-0.2654565 0.001984872 -0.15061499 -0.23481028 -0.07714052 -0.07036182 -0.17658773 0.01828038
0.016774368 -0.08552139 -0.25234872 -0.023057148 -0.31429908 -0.22364548 -0.071779296 -0.1564608
-0.15407974 -0.03219486 -0.08826354 -0.011197555 0.0790926 -0.24288231 -0.021134684 0.02503899
-0.14199454 -0.25662702 0.011647627 -0.20316131 -0.085391134 -0.28386417 -0.051526375 -0.13147336
-0.2439721 -0.33191425 0.0042087273 -0.0054912325 -0.13835968 -0.2642573 -0.05960491 -0.108098276
-0.23036586 -0.06666027 -0.20565283 -0.10786587 0.00498789 -0.07662347 -0.24219333 -0.06982925
-0.08113336 -0.09056205 -0.096313305 -0.15915269 -0.142661 -0.18145542 -0.19614221 -0.1416739

disease_feature_extractor.0.0.0.bias f4 [64]
00000000: 6852 0538 16cc 7f38 8bff 09b8 69db 8336
00000010: e1bb 50b6 78c1 a234 0868 4532 48cf b337
00000020: 0f51 7e36 f3c7 2a36 6c06 0800 3c00 0338
00000030: a7e1 8636 652e eeb3 7d46 53b5 e173 d2b6
00000040: d122 1338 eef6 48b5 860b cdb7 a5ce 9cb7
00000050: 7596 7bb7 ea92 47b1 6db7 1f38 8a41 2db6
00000060: b5fd 0232 52e9 ad37 3fa3 ca23 af8e 8cb7
00000070: a932 fa36 8681 a237 0fe7 3b32 452e 6fb5
00000080: 66b9 a6b2 5336 3c38 cea6 2ab6 2985 fe36
00000090: 0df3 bb37 bab7 2039 e89c 3e38 48a3 8430
000000a0: 2514 88b7 2921 af37 8628 1336 ae89 e335
000000b0: 8727 46b8 e79b 8637 d43d f137 9f4e dd36
000000c0: c801 4938 cbd5 8c38 0ff9 7133 da56 8a35
000000d0: 5969 5b37 d977 3f38 3acd 0336 a0bd 3ab8
000000e0: 8c30 b432 e6f1 5835 e147 c6af 1f62 ceb3
000000f0: 8c31 92b6 9c52 c9b6 2436 8eb7 f9cb 1f38
3.1786418e-05 6.0986808e-05 -3.290134e-05 3.929647e-06 -3.1103775e-06 3.0315618e-07 1.1490563e-08 2.1434986e-05
3.7896132e-06 2.544836e-06 7.36988e-40 3.1233052e-05 4.0197806e-06 -1.1091178e-07 -7.87062e-07 -6.271978e-06
3.5079956e-05 -7.4865136e-07 -2.444327e-05 -1.8692876e-05 -1.4995797e-05 -2.9041822e-09 3.8079383e-05 -2.5817158e-06
7.624682e-09 2.0731855e-05 2.1970021e-17 -1.6755743e-05 7.456478e-06 1.9372219e-05 1.0937369e-08 -8.910177e-07
-1.9409253e-08 4.4873286e-05 -2.5429067e-06 7.5852918e-06 2.2405316e-05 0.00015327233 4.544566e-05 9.650671e-10
-1.6221844e-05 2.0877067e-05 2.1928295e-06 1.6952888e-06 -4.724369e-05 1.6046642e-05 2.875823e-05 6.595466e-06
4.7923793e-05 6.715542e-05 5.6338703e-08 1.0307078e-06 1.3077945e-05 4.5649565e-05 1.9639979e-06 -4.4522458e-05
2.0976834e-08 8.081828e-07 -3.6067063e-10 -9.6104706e-08 -4.356907e-06 -5.999884e-06 -1.695293e-05 3.809852e-05

disease_feature_extractor.0.0.1.weight f4 [64]
00000000: 0f24 0e3f 4612 553f 9082 953f 7af1 563f
00000010: 09bc 303f 73fe 913e d6c4 833d fb49 4d3f
00000020: d87a 743f c075 e63d 0115 ec3a 5152 5b3f
00000030: 72c1 7b3e b6de 4d3f eee8 a43e 3573 243f
00000040: 7d7a 2c3f 8bb6 b3bb 7399 2d3f ba3d 4d3f
00000050: 3da5 533e 3d18 8d3c 0130 593f eacd 843d
00000060: 625c a53e 4287 633f eb3c b93d 23c9 453f
00000070: da1d 853f 7a93 793f e9b4 363d eb6b 773e
00000080: 5609 0e3e 93b5 643f 6595 cb3e 1054 333f
00000090: c38f 8f3f 07e0 803f bbe1 473f 17ac 853e
000000a0: 0f55 143f d6a5 743f f4fc 193e ee5f b03d
000000b0: 9606 823f d0bf ca3e 2fa5 803f 4f7b 233f
000000c0: 0b81 d23f 0bd4 653f 57fa 753e 4de3 1b3e
000000d0: 27ed 333f e51b 9f3f e585 aa3e 143e 8a3f
000000e0: 5a69 a53d e6d9 f73e 2478 9fbb c4f0 6c3d
000000f0: 4126 123f 2218 193f 7041 183f 0501 123f
0.5552377 0.8323101 1.168047 0.83962214 0.6903692 0.28514442 0.06434028 0.8019101
0.95499945 0.11252928 0.0018011631 0.8567248 0.24585512 0.80417955 0.3220896 0.6423829
0.673744 -0.0054844073 0.6781227 0.8017231 0.20668502 0.017223472 0.84838873 0.064845875
0.32297045 0.8887826 0.09044822 0.77260035 1.0399735 0.97490656 0.044606123 0.24162261
0.13870749 0.8933956 0.39762416 0.70050144 1.1215748 1.0068368 0.7807881 0.26107857
0.5794229 0.95565546 0.150379 0.08612047 1.015826 0.39599466 1.005041 0.6386003
1.6445631 0.89776677 0.24021278 0.15223427 0.7028374 1.2430388 0.33305278 1.0800195
0.08076735 0.4840843 -0.004866617 0.0578468 0.5708962 0.5980245 0.5947485 0.57032806

disease_feature_extractor.0.0.1.bias f4 [64]
00000000: 1c47 8cbc 22b5 37be 4bd0 a23d 774a 19bd
00000010: 4688 d1bc 3399 cbbc 411b 71be 82d7 38bd
00000020: 1005 493e 9ff0 60be e2b5 2bbe 5a6a d93d
00000030: 47a8 3b3e c923 01be e3cb cfbe 480a 5dbd
00000040: 3742 cb3d 6d5c 053e 28cb 3ebe 3afc 253e
00000050: c7e5 673e ca9c e8be 7d4f f63e 5989 a1bc
00000060: d890 80be 2fa1 33bd 8fcc 24be fe69 a63d
00000070: f7f9 c53e d26b 8cbd 0cdb a9be 8791 ecbe
00000080: 29f5 46be 0248 143e fd1e 493e 3c1f d23d
00000090: d9cc 5bbd 4d9c e83e e3e8 dd3d cbfe a9be
000000a0: 0480 febc 7092 6c3d 5306 b7be 6c8f adbe
000000b0: c9ef b73d 0d3a 84bd a9ee 7fbc 2757 5cbd
000000c0: 073e 673e f51b 6e3e fb0f b8be 7ac9 663e
000000d0: bb8e 0bbe a2ca c4bc 875f 9ebe 470d e73d
000000e0: 9e52 bcbe 8997 6bbe da6a 14bd f2a7 b3bd
000000f0: 1372 45be 23cd c7ba 5c81 d13b 1820 cb3b
-0.017123751 -0.1794019 0.07949885 -0.03742453 -0.025577676 -0.024853325 -0.23545553 -0.0451274
0.19630837 -0.2196679 -0.16768602 0.10615988 0.18325911 -0.12611307 -0.4058524 -0.053964883
0.09924739 0.13023539 -0.18632185 0.16209498 0.22646247 -0.4543212 0.4810752 -0.019718813
-0.25110507 -0.04385489 -0.16093658 0.08125685 0.3866727 -0.068565026 -0.33174932 -0.4620478
-0.19429459 0.14480594 0.19640727 0.10259864 -0.053662155 0.45431748 0.10835435 -0.33202204
-0.031066902 0.05775684 -0.35747012 -0.33898485 0.08981282 -0.06456385 -0.015620866 -0.053794052
0.22582255 0.23252852 -0.35949692 0.22537795 -0.13628666 -0.024022404 -0.30932257 0.11281829
-0.36781782 -0.23007025 -0.036234714 -0.087722674 -0.19281797 -0.0015243631 0.0063935947 0.006198894

disease_feature_extractor.0.0.1.running_mean f4 [64]
00000000: e7a0 adc0 9c8f 9cc1 ef3a 67c1 1720 68c1
00000010: d01a c8c0 2473 4cbf 0241 033f 4ca4 b3c0
00000020: 9e59 4f41 7562 93c0 d4a0 813d 689c 2741
00000030: 97df 14c1 f5c6 45c1 194f 3840 1c21 6cc0
00000040: 5d10 3841 0090 82c0 c401 b9c0 94c4 4841
00000050: 246f 0dc1 7c3a 873f 636a 0841 5438 a4c0
00000060: f241 d1c0 e4b0 a1c1 e7e8 07be cddf 92c0
00000070: c02c 3841 b261 5bc1 8dd0 0a40 cf43 22c0
00000080: 7ae2 05c0 4799 2a41 7b9e 8940 d63a 3f41
00000090: ea20 cbc0 aa97 d640 9abd 0d41 04fe f9bf
000000a0: 10e1 adc0 7dcc 83c1 e545 3b40 d6f4 c240
000000b0: c2f1 8641 6bb4 17c0 049c 87c1 4f21 2ec0
000000c0: 9b45 9c41 a1e7 5741 7d6f 09c0 1589 7e40
000000d0: e717 60c1 19fd c5c1 fd84 2640 909e 9841
000000e0: 61b6 2740 72ba c03f 5c48 8c3f 28c3 3dc0
000000f0: 95a9 97bf 6558 24c1 5562 42bf 476f 02c1
-5.4258914 -19.570122 -14.451888 -14.507834 -6.253273 -0.7986319 0.5127107 -5.613806
12.959379 -4.6057687 0.06329504 10.475685 -9.304587 -12.3610735 2.8798277 -3.6895208
11.503995 -4.080078 -5.7814655 12.547993 -8.839634 1.0564723 8.525973 -5.131876
-6.5393 -20.211372 -0.13272439 -4.5898194 11.510925 -13.711351 2.168979 -2.5353887
-2.091948 10.662421 4.3005958 11.951864 -6.347768 6.7060137 8.858789 -1.9530644
-5.4337234 -16.474848 2.926141 6.092387 16.868046 -2.3703868 -16.95118 -2.720783
19.533987 13.49405 -2.1474297 3.9771168 -14.005836 -24.748583 2.601867 19.077423
2.6205065 1.5056899 1.0959582 -2.9650364 -1.1848627 -10.271581 -0.7593129 -8.152167

disease_feature_extractor.0.0.1.running_var f4 [64]
00000000: caa2 9142 d027 2b43 2ef7 dc42 d391 e642
00000010: e846 4c42 0f4f b041 a32e 1e40 534c c142
00000020: 0027 2943 8b54 4641 ffa0 aa3b 55ee 1743
00000030: 282d 1042 a6af 8742 1e57 7641 8cd3 8842
00000040: ee89 0a43 de36 f540 fc7a a142 51e6 0b43
00000050: da03 3942 c8e7 873f c440 b542 2fb4 8541
00000060: 910a be41 a71a 3943 cb24 7b3c 3961 d742
00000070: d0f2 0f43 4050 c542 584a 4e40 92da 4341
00000080: 296d 3240 1f8a 1943 1cc1 2c42 d3e7 d942
00000090: ecb1 dc42 263e d342 8e18 0f43 f0a0 2540
000000a0: f5be a842 d82f 0243 3764 0941 2b50 8e41
000000b0: a002 1b43 fc70 7b42 32ba 1a43 9a86 0942
000000c0: 5bd6 8e43 31b5 3343 deec 5340 b567 cb41
000000d0: 3db2 aa42 e00e 8543 235b 8241 cbdf 4243
000000e0: 9d75 d340 7ab2 ae41 d3ab a53f 8b34 ad40
000000f0: 06da 5441 bc6e 8742 49e9 d541 ed59 5442
72.81795 171.15552 110.48277 115.28481 51.069244 22.038603 2.4715965 96.64907
169.15234 12.39564 0.0052071805 151.93098 36.044098 67.84306 15.396269 68.41318
138.53879 7.6629477 80.740204 139.89967 46.25376 1.0617609 90.626495 16.71298
23.75516 185.10411 0.015328596 107.68989 143.94849 98.65674 3.2232876 12.240862
2.7879126 153.53954 43.188583 108.95278 110.3475 105.62138 143.09592 2.5879478
84.37296 130.18689 8.5869665 17.789145 155.01025 62.860336 154.72733 34.381447
285.67465 179.70778 3.3113322 25.425638 85.34812 266.1162 16.2945 194.87419
6.608107 21.837147 1.2943062 5.412664 13.303228 67.71628 26.738909 53.08782

disease_feature_extractor.0.1.0.weight f4 [64, 64, 3]
00000000: 7fbb 653e f6f9 063e b692 963d c9c9 2bbe
00000010: 7c25 84bd f239 c43d 9188 3abe 0c09 603d
00000020: 296d ef3d 4cb7 25be bd6f 14bb 9859 043e
00000030: 8976 083d ef48 0abe 93eb e5bd 2dc7 923d
00000040: 0193 c03c 4afe 41bd bd39 cb3d da47 7fbd
00000050: 4620 7f3d 6d04 8b3e c1cd 843e e9f2 063e
00000060: 6ec5 a73e 887d 293e aeae a53c b05e babc
00000070: f15d 2bbe d360 a0bd bb92 82bd 73ce 0ebe
00000080: 4a7f adbd 85fc a03e 771d 2e3e 2bf4 023d
00000090: 690a f1ba f511 743d 91d1 d73d 26a2 e5bd
000000a0: 82e6 063d 1cfb 013e c3e6 adbd b8dc f5bd
000000b0: a75e 0cbe 4844 763e d597 283e 2022 003e
000000c0: 4ad7 ab3e 082a 283e f20d 3a3d 1973 2c3d
000000d0: dd39 76bc d858 5bbd 5429 973e 5784 493e
000000e0: c6be 573e 403b 8d3e ff27 3b3e 7561 b2bb
000000f0: ad22 0f3e 7f59 b63d 25ff 0c3e 2994 6e3c
00000100: 3198 fbbd 407b c0bd 6212 453e 2e90 cf3d
00000110: 91e3 3fbd f4e5 26bd 7393 ecbc 1291 a83c
00000120: 69a6 3a3b a95c 243a e3b5 f7bc 1e4e 4bbe
00000130: 36c8 14bc ab29 a73d 2f13 d9bc 09e6 1cbe
00000140: b3d4 c1bd dc9e 973e 6e44 833e 006f 3c3e
00000150: b8ec 9d3e 743e 1c3e 77aa d1bc 1926 0fbe
00000160: 6dbe e23c a9a9 b63d 0598 0a3e 06dd 9bbd
00000170: bfee f63c 837d a3b9 4119 513d dab9 293d
00000180: e870 123c 36a9 e5bb d38d 50bc a49b 9a3e
00000190: f2ed 2f3e be29 93bc b5bc 213e 8ae5 2b3d
000001a0: 6ceb d8bd 89a4 fb3c 96ee 5bbe b384 63be
000001b0: 3dfb 9d3e b811 983e f508 903e 38a4 373e
000001c0: f2ee c63d eb75 debd 0870 ab3e 1ab9 4b3e
000001d0: bad7 563c 6aa2 b83d c752 7fbd 973f 4ebc
000001e0: f0f3 843e 2c42 7d3e e6e9 003e 879f 1abe
000001f0: c388 823c 6845 0e3e 10b1 713d f004 5ebe
00000200: 9b4a 86bd a3bc 60bd e0d8 01be 136c acbd
00000210: acd7 ea3c f4f8 6bbe b287 86be d634 013e
00000220: c189 1a3e 9403 be3b 49ca 03be 44d5 acbd
00000230: 8ed3 d63d 878f 4f3b 94b2 0cbe aa8c 77bd
00000240: dad1 91bd 8b9c a2be e9d4 a3be 0b16 c33e
00000250: 97c0 843e 1632 8c3d e82f 723d e232 00be
00000260: 7737 4dbd 7aaf c23d 3f2b 013c be5f 92bd
00000270: 038d 32bd 851e 813d 2d28 c83d b218 82be
00000280: 9d60 813c 4498 ee3d fa90 0abd a30f 24bd
00000290: 49dd a6bd b281 b33b f80f e5bd ce31 53be
000002a0: d57b 38bc b667 04be ccf4 bfbd 112a 0d3d
000002b0: 60be 84bc 7cb9 18be 8aeb 0dbc 3a94 d8bd
000002c0: 2c0e 92bd 254c 233c c1e5 8cbd 9594 c4bc
000002d0: 42aa 343e a480 1dbd d6b8 f0bc b792 0abe
000002e0: 320a 7abd 2d3f 9a3d 5830 433e e037 fabd
000002f0: 9db2 3bbe 3c9d 8e3c 0de7 d7bd 2294 81bd
00000300: 8482 91bc a910 e7bd a162 06be 1846 11be
00000310: e128 9bbd 3f2a a6bd cb88 91bd 38b0 a53a
00000320: 296b 0bbc 9fb2 b2bd 2621 d4bc 7f68 fd3d
00000330: 6f88 8bbd 60b9 e0bd 44d3 873d 1a68 17bd
00000340: 1429 e6bd ae18 e0bd d8e7 2e3d 90ff fabd
00000350: 9143 9ebc c6fc 78bc af7b c3bd 41af 2cbe
00000360: c35b e4ba 56b7 80be ecc0 4abe 4186 31be
00000370: 5df6 21be ea38 08be 57ae 78bd ea78 c0bd
00000380: ee76 12bd 18a4 0abd 9a12 20be 6934 15be
00000390: 38e4 9c3d 7ba6 0d3e 8390 82bc 350c a3bd
000003a0: 97f9 4bbd f373 e8bd 49e8 47be 0099 3cbe
000003b0: 0845 cabd f2cd 533d 9268 05be b283 33be
000003c0: 5b4f 223d 0db2 11be 5766 39be 8145 193b
000003d0: 90db f6bd 77d4 fbbc 9053 b73d 4611 fdbd
000003e0: e5ee 1cbe 39c3 71bd 1a58 70be 4b75 5dbe
000003f0: d9d2 fe3b 4b8d a9bc 200c 0cb9 1e88 55bd
0.22434805 0.1318129 0.07352202 -0.16776194 -0.06452462 0.09581365 -0.18216158 0.054696128
0.116907425 -0.16183203 -0.002264961 0.12924802 0.03331617 -0.13504384 -0.11226573 0.07166896
0.023507597 -0.04736165 0.09923122 -0.062324382 0.062286638 0.27151814 0.25938228 0.131786
0.32767814 0.16551793 0.020224895 -0.022750229 -0.16735055 -0.07830968 -0.06375643 -0.13945942
-0.08471544 0.31442657 0.17003427 0.031971138 -0.0018389943 0.059587438 0.105380185 -0.11212568
0.032934673 0.12693447 -0.0849128 -0.120049894 -0.13707982 0.24049485 0.1646417 0.12513018
0.3356269 0.16422284 0.045423456 0.042101953 -0.015028444 -0.053551525 0.29523718 0.1967939
0.21068868 0.27584267 0.18276976 -0.0054437467 0.13978072 0.08903789 0.13769205 0.014561691
-0.122848876 -0.09398508 0.19245294 0.10134922 -0.046847884 -0.040746644 -0.028878903 0.020576987
0.0028480536 0.0006269911 -0.030238098 -0.19854018 -0.009080937 0.081622444 -0.026498405 -0.15322126
-0.09464397 0.29613388 0.25638145 0.18401718 0.30844665 0.15258199 -0.02559398 -0.13979377
0.027678693 0.08919079 0.13534553 -0.07610516 0.03014314 -0.00031183296 0.051049475 0.041437007
0.008938052 -0.007008697 -0.012729126 0.3019687 0.17180613 -0.01796424 0.15794642 0.041966952
-0.10591778 0.030718105 -0.21477732 -0.2221859 0.30855742 0.29701018 0.28131834 0.17933738
0.09713544 -0.10862335 0.3348391 0.1989483 0.013112957 0.09015353 -0.062334802 -0.012588403
0.2596736 0.24732274 0.12589225 -0.15099917 0.015934354 0.13893664 0.05900675 -0.21681571
-0.065571986 -0.054867398 -0.12680387 -0.08419051 0.028667293 -0.23044187 -0.26275402 0.12617812
0.15091611 0.0057987664 -0.12870134 -0.08439115 0.104895696 0.0031671242 -0.13739997 -0.060436882
-0.07120104 -0.31760058 -0.31998375 0.38102755 0.25928184 0.06845491 0.05912772 -0.1251941
-0.050101724 0.09506126 0.007883846 -0.071471676 -0.04359151 0.06304649 0.09773288 -0.25409466
0.01579314 0.11650136 -0.033829667 -0.040053975 -0.081476755 0.0054781074 -0.111846864 -0.20624468
-0.011259993 -0.12930188 -0.09372863 0.034463946 -0.01620406 -0.14914507 -0.008662114 -0.10575147
-0.07131609 0.009966885 -0.068797596 -0.02399663 0.17643073 -0.03845276 -0.029385012 -0.1353253
-0.06104488 0.07531581 0.1906141 -0.122176886 -0.18329854 0.01740896 -0.10542116 -0.06327082
-0.01776243 -0.112824745 -0.13123561 -0.14186895 -0.075761564 -0.081135266 -0.07106169 0.0012641018
-0.008509436 -0.087254755 -0.025894713 0.12373447 -0.06813132 -0.109728575 0.066320926 -0.036964513
-0.11238304 -0.10942207 0.042701572 -0.12255776 -0.019319328 -0.015196985 -0.09545075 -0.16863729
-0.0017422367 -0.25139874 -0.19800156 -0.1733637 -0.15816636 -0.13302961 -0.06071314 -0.093980625
-0.03575795 -0.0338479 -0.15632096 -0.14570774 0.07660717 0.13833039 -0.01593805 -0.07961313
-0.049798574 -0.113502406 -0.19522204 -0.1841774 -0.09876448 0.051710077 -0.13028172 -0.17530707
0.03962646 -0.14228077 -0.18105446 0.0023387375 -0.12053597 -0.03074096 0.08951485 -0.1235681
-0.15325506 -0.05902407 -0.23471108 -0.21626775 0.0077766 -0.020697257 -0.00013355957 -0.052131765
