models/wavenet/ncmmsc/best_model.pth (torch, 469026 bytes, 142 tensors)

base_feature_extractor.0.0.weight f4 [64, 1, 3]
0	0xbc245baf	-0.010031625
1	0xbf13db65	-0.57756644
2	0x3cbd358c	0.023096822
3	0xbe8b8898	-0.2725265
4	0xbe9f36da	-0.31096536
5	0x3ee00d12	0.43759972
6	0xbe4096b1	-0.18807484
7	0x3e1e3856	0.15451178
8	0xbe57d53f	-0.2107744
9	0xbc239de5	-0.009986375
10	0x3f315c34	0.69281316
11	0x3d270c58	0.040783256
12	0xbe9b772e	-0.30364364
13	0xbe86335d	-0.26211062
14	0xbe8322a4	-0.25612366
15	0xbdf2af54	-0.118498474
16	0x3eaa418d	0.33253136
17	0x3d6e4d81	0.058179382
18	0x3df50618	0.11964053
19	0x3ec2850c	0.37992132
20	0xbf2358f2	-0.63807595
21	0xbeeca3b6	-0.46218652
22	0xbe393e60	-0.180902
23	0x3ef803f9	0.4844053
24	0xbf13b3f9	-0.5769649
25	0x3eb715ea	0.35758907
26	0x3da582e4	0.08081606
27	0xbd9ccc1a	-0.07656117
28	0x3f3035c0	0.68832016
29	0x3e00de50	0.12584805
30	0x3ef1456c	0.47123277
31	0xbe82d607	-0.25553915
32	0xbec8025a	-0.39064294
33	0x3d3d8473	0.04626889
34	0x3e2f4531	0.17116238
35	0xbea6e2e2	-0.32594973
36	0xbe1fd9ab	-0.15610377
37	0x3d55a413	0.052158426
38	0xbe3449c2	-0.17606261
39	0x3e7a4b7f	0.24442862
40	0xbf0d78ff	-0.5526275
41	0x3f108a0a	0.5646063
42	0xbd5e97be	-0.05434393
43	0xbe77dbd5	-0.24204953
44	0xbe106228	-0.14099944
45	0xbed355f8	-0.41276526
46	0xbe9d4d24	-0.30722916
47	0x3bfe1000	0.007753372
48	0xbe20c3e0	-0.1569972
49	0xbe1e6bb3	-0.15470771
50	0xbd6385b0	-0.055547416
51	0xbe3b7662	-0.18306878
52	0x3e407993	0.18796377
53	0xbeb1a5aa	-0.34696704
54	0xbc8d01c3	-0.017212754
55	0xbbc4dc62	-0.006007717
56	0xbebc134f	-0.3673348
57	0x3ee9f555	0.45694986
58	0xbecc3537	-0.3988435
59	0xbce07abe	-0.027402278
60	0x3ec68e55	0.38780466
61	0xbe36a0a9	-0.17834724
62	0xbcf658b0	-0.030071586
63	0xbe879a12	-0.26484734
64	0x3d42761e	0.047475927
65	0xbf026d82	-0.50948346
66	0xbf050485	-0.5196002
67	0x3d2a4170	0.041566312
68	0x3eaa4707	0.33257315
69	0xbe89a4bc	-0.26883495
70	0x3cd1d411	0.025613816
71	0xbe73e613	-0.23818235
72	0xbd9512a2	-0.072789446
73	0xbea23739	-0.31682757
74	0xbeb10069	-0.34570625
75	0xbe81a229	-0.2531903
76	0x3ebd5a58	0.3698299
77	0x3c26a68a	0.010171542
78	0xbeb3e14d	-0.35132828
79	0x3e8f1849	0.27948216
80	0x3e9217c1	0.28533748
81	0x3e8316dc	0.25603378
82	0xbe18f5bf	-0.14937495
83	0xbe862809	-0.2620242
84	0x3de787eb	0.11305221
85	0x3e8fd74b	0.28093943
86	0x3e03fc87	0.128893
87	0x3f074608	0.52841234
88	0xbe7e4c25	-0.24833734
89	0x3e24c021	0.16088916
90	0xbea0824a	-0.31349403
91	0x3dc698f4	0.09697142
92	0x3e03f543	0.12886529
93	0xbe37b7f7	-0.17941271
94	0x3e89e673	0.2693363
95	0x3e044f3b	0.12920849
96	0xbe3653df	-0.17805432
97	0xbe0e3f9a	-0.1389145
98	0xbe03a2bf	-0.12855051
99	0xbeef43c7	-0.46731398
100	0x3ea3a5c5	0.3196241
101	0xbc69875b	-0.014253463
102	0xbdc619c1	-0.09672881
103	0xbe6578f0	-0.22409415
104	0xbeda7a59	-0.4267147
105	0xbe9007a5	-0.28130832
106	0x3e7e36f5	0.24825652
107	0x3d3a36bb	0.04546235
108	0x3e8a6a6c	0.27034318
109	0xbd831edd	-0.06402371
110	0xbe32c085	-0.17456253
111	0xbde0fd18	-0.10985774
112	0xbef2f4bc	-0.47452343
113	0x3ee1d0f3	0.44104728
114	0xbec36a57	-0.38167068
115	0xbeb0d4c5	-0.3453733
116	0x3e5009d3	0.20316248
117	0x3b2de30b	0.0026533033
118	0xbeac6738	-0.336725
119	0x3ec68a2d	0.38777295
120	0xbf13213c	-0.57472587
121	0x3e04adcc	0.12956923
122	0x3e96ea1f	0.29475495
123	0x3d2fccc2	0.04291988
124	0xbe99fc6f	-0.30075404
125	0xbeabd367	-0.33559725
126	0x3ea3a1f8	0.3195951
127	0xbd08e287	-0.03341916
128	0xbee1f2b6	-0.44130486
129	0x3ed37de1	0.41306975
130	0xbe957840	-0.29193306
131	0xbe96e82e	-0.29474014
132	0x3c8e8f15	0.017402211
133	0x3e9de191	0.30836156
134	0xbee2f9a0	-0.44331074
135	0xbd88978f	-0.066695325
136	0xbe433966	-0.19064865
137	0xbdf410b0	-0.119172454
138	0xbe87deb0	-0.26537085
139	0xbdf0ebce	-0.11763726
140	0x3e7652a0	0.24054956
141	0xbf1f7751	-0.6229144
142	0x3e223db1	0.15843846
143	0x3e9ccbe8	0.30624318
144	0xbe4b3747	-0.19845305
145	0xbdc7c8a9	-0.0975507
146	0x3e334cc6	0.17509755
147	0xbf11c216	-0.56936777
148	0x3eaa41fc	0.33253467
149	0xbe4d0358	-0.20020807
150	0xbd3fcaea	-0.046824373
151	0x3ed47ddc	0.41502273
152	0xbde98ab2	-0.11403407
153	0xbe88524b	-0.26625285
154	0xbe55d33b	-0.2088136
155	0xbed1816b	-0.4091905
156	0xbed3baa6	-0.4135334
157	0x3e0b7b3f	0.13621233
158	0xbe9893dd	-0.2980031
159	0xbe190e0e	-0.14946768
160	0xbeaf4a88	-0.3423655
161	0x3eb8e818	0.36114573
162	0x3e577b13	0.21043043
163	0x3e7e57aa	0.24838129
164	0xbf1d91c9	-0.61550575
165	0xbe9b433a	-0.30324727
166	0x3e28f9b7	0.16501509
167	0xbe498227	-0.19678555
168	0x3df2e366	0.11859779
169	0xbf10b0d8	-0.5651984
170	0x3f108724	0.5645621
171	0xbe9e51fc	-0.30921924
172	0xbe94a86c	-0.29034746
173	0xbdbd6749	-0.09248216
174	0xbe6f50e8	-0.23370707
175	0xbeaaf2ae	-0.33388275
176	0x3ed0d6de	0.4078893
177	0x3ecf2962	0.4046126
178	0x3daa1a48	0.08305794
179	0xbe4897f8	-0.19589221
180	0xbe65d59a	-0.22444764
181	0xbed82e3d	-0.42222777
182	0x3efa513c	0.48890102
183	0xbe8d9aaf	-0.27657077
184	0xbeebd136	-0.46058053
185	0x3f10e691	0.56601816
186	0x3a298c05	0.0006467703
187	0x3eda0d87	0.42588446
188	0xbe4e9cb1	-0.2017696
189	0x3f026ef5	0.50950557
190	0xbed07316	-0.40712804
191	0x3e58d3f1	0.21174599

base_feature_extractor.0.0.bias f4 [64]
0	0xba296834	-0.0006462366
1	0x39b3152a	0.0003415731
2	0x3b48e146	0.0030651852
3	0xbcbefdd2	-0.02331439
4	0x3a821971	0.0009925795
5	0xbb989bf3	-0.0046572625
6	0x3bb1801a	0.005416882
7	0xbc148052	-0.009063797
8	0x3bf7bcf4	0.0075603668
9	0x3be5c2f1	0.007011764
10	0x3ab78513	0.0014001451
11	0xba610d0b	-0.00085850124
12	0xbbd613fc	-0.006533144
13	0x3bec66b3	0.007214391
14	0xba720c48	-0.00092333974
15	0x383e9f6d	4.5448007e-05
16	0xba6927bc	-0.00088941655
17	0x3b5b7521	0.0033486562
18	0x3bb86a67	0.0056279185
19	0xb7bc5d65	-2.2454837e-05
20	0xb9c00791	-0.0003662673
21	0xb99b75a3	-0.0002965155
22	0xb9fb50be	-0.00047934608
23	0xba6d5fa8	-0.00090550864
24	0xbb9346e3	-0.0044945343
25	0x3a3b781e	0.0007151383
26	0x3c313caa	0.010817686
27	0xbb9c3e30	-0.0047681555
28	0x3a3ae646	0.00071296503
29	0x3bf3f541	0.007445008
30	0x39d65435	0.0004088
31	0xb8f25eb4	-0.00011557099
32	0x3b440281	0.002990872
33	0x3c0ce615	0.008599778
34	0xba401b2a	-0.00073282665
35	0xb950e501	-0.00019921736
36	0xb9a22b26	-0.00030931196
37	0xbc35146b	-0.011052231
38	0xb91b0e77	-0.0001478734
39	0xbb97ed9b	-0.004636479
40	0x3b6b0b9b	0.0035865072
41	0xbbaa71f7	-0.005201574
42	0xbc60d39c	-0.013722327
43	0x3c19604a	0.009361336
44	0x3a55a0d9	0.00081492733
45	0x3950fec3	0.00019931332
46	0xba151569	-0.0005687089
47	0xbbadb619	-0.0053012487
48	0xbb5ceef7	-0.003371177
49	0x3aa64c5a	0.001268755
50	0xbba3f117	-0.0050031054
51	0xb98e7afd	-0.00027175984
52	0x3ac318f6	0.0014884758
53	0xbcb48005	-0.0220337
54	0x3c0bf8ce	0.008543206
55	0x3baf1724	0.0053433347
56	0x3ab3c792	0.0013716093
57	0xbae6ce78	-0.001760914
58	0x3c87ea66	0.016591262
59	0x3c363cac	0.011122864
60	0x3cafdb46	0.021466862
61	0x3cab5745	0.020915637
62	0x39872817	0.00025779076
63	0xbc26b67a	-0.010175342

base_feature_extractor.0.1.weight f4 [64]
0	0x3f446069	0.7670961
1	0x3f8cb501	1.0992738
2	0x3f5f4194	0.8720944
3	0x3f6ea929	0.9322687
4	0x3f5409ca	0.82827437
5	0x3f7bbb98	0.9833312
6	0x3f8bfada	1.0935929
7	0x3f8fe192	1.1240714
8	0x3f8beabe	1.0931013
9	0x3f729141	0.9475289
10	0x3f9285fa	1.1447136
11	0x3f559dab	0.8344371
12	0x3f6596ca	0.8968321
13	0x3f74e6d5	0.9566472
14	0x3f4e454d	0.80574495
15	0x3f52b8c9	0.8231321
16	0x3f3e5604	0.7435
17	0x3f55a51d	0.8345507
18	0x3f432f41	0.7624398
19	0x3f538603	0.8262636
20	0x3f5f92cf	0.8733339
21	0x3f518e6c	0.81857944
22	0x3f92be4a	1.1464322
23	0x3f47b70c	0.7801368
24	0x3f4cdc7c	0.8002393
25	0x3f540036	0.8281282
26	0x3f637e51	0.8886462
27	0x3f83a49a	1.0284607
28	0x3f4e044b	0.804753
29	0x3f80331b	1.0015596
30	0x3f515202	0.8176576
31	0x3f4f4894	0.8097012
32	0x3f5d866d	0.8653324
33	0x3f7760fd	0.9663237
34	0x3f44147e	0.7659377
35	0x3f64f7e0	0.8944073
36	0x3f5940b8	0.8486438
37	0x3f8b589b	1.0886415
38	0x3f454e00	0.77072144
39	0x3f6aac43	0.916691
40	0x3f9006cb	1.1252073
41	0x3f4fd456	0.81183374
42	0x3f8fbec2	1.123009
43	0x3f906517	1.128085
44	0x3f6fb739	0.9363895
45	0x3f51438e	0.81743705
46	0x3f82289d	1.0168644
47	0x3f91c09f	1.1386908
48	0x3f82552d	1.0182244
49	0x3f431983	0.762108
50	0x3f7e88f2	0.9942771
51	0x3f606cfb	0.8766629
52	0x3f60d5f8	0.8782649
53	0x3f88a6b4	1.0675874
54	0x3f8678ab	1.0505575
55	0x3f622ca4	0.88349366
56	0x3f713444	0.94220376
57	0x3f50186c	0.81287265
58	0x3f8b687d	1.0891262
59	0x3f69c6cd	0.9131897
60	0x3f90b085	1.130387
61	0x3f870376	1.0547931
62	0x3f802241	1.0010453
63	0x3f7c0d70	0.98458004

base_feature_extractor.0.1.bias f4 [64]
0	0x3e3bf2f2	0.18354395
1	0x3bbd1511	0.0057703336
2	0x3e68ab48	0.22721589
3	0x3df7d785	0.12101654
4	0x3e626ec6	0.22112569
5	0x3e06b6f6	0.13155732
6	0x3bdcba59	0.0067360816
7	0x3bc9a915	0.0061541894
8	0x3c004777	0.007829539
9	0x3e14b9de	0.14524028
10	0x3bf2c979	0.0074092713
11	0xbe53d888	-0.20688069
12	0x3e7367e7	0.23770104
13	0x3e4cf7f5	0.20016463
14	0x3e6eb3e2	0.23310807
15	0x3e58d081	0.21173288
16	0x3e5e4291	0.2170508
17	0x3e4d13ce	0.20027086
18	0x3e45c0ba	0.193118
19	0xbe3c1f2e	-0.18371269
20	0xbe589d49	-0.2115375
21	0x3e717c29	0.2358252
22	0x3bbda22f	0.005787156
23	0x3e518743	0.20461755
24	0x3e5d5b90	0.2161696
25	0x3e87489c	0.26422584
26	0x3e3a1ad1	0.18174292
27	0x3baaf576	0.0052172495
28	0xbe4e2cde	-0.20134303
29	0x3dd72fe0	0.10507178
30	0xbe774412	-0.2414706
31	0xbe5e9e9f	-0.21740197
32	0x3e650edd	0.22368951
33	0x3c20d2ff	0.00981593
34	0x3e828ff1	0.25500444
35	0xbe31e297	-0.17371593
36	0xbe393a25	-0.18088587
37	0x3bd5a0ee	0.0065194285
38	0x3e3c377b	0.18380539
39	0xbe41f2dc	-0.189403
40	0x3bc63701	0.0060490374
41	0x3e7d1b8e	0.24717543
42	0x3bbde71a	0.0057953717
43	0x3bf17a51	0.0073693176
44	0x3bb31f58	0.005466383
45	0x3e73bdbf	0.23802851
46	0x3c00bcdf	0.00785753
47	0x3bb0f9f3	0.00540089
48	0x3c170da9	0.009219565
49	0x3e4d6051	0.20056273
50	0x3e18946f	0.14900373
51	0x3e557c6b	0.20848243
52	0x3e682f43	0.22674279
53	0x3beb679a	0.007183981
54	0x3bf72530	0.007542275
55	0x3e7d1252	0.2471402
56	0xbe64de4d	-0.22350426
57	0x3e51a04d	0.20471306
58	0x3bdf7a83	0.0068200245
59	0x3e2d3e6a	0.1691834
60	0x3c176272	0.00923978
61	0x3bb48478	0.0055089556
62	0xbc888290	-0.01666382
63	0x3e0b1472	0.13582018

base_feature_extractor.0.1.running_mean f4 [64]
0	0x390e4644	0.00013568351
1	0xba3aaf3c	-0.0007121449
2	0x3a5c30bd	0.00083995966
3	0xbc56a7ff	-0.013101577
4	0x3acee806	0.0015785701
5	0x398ac4bf	0.00026467998
6	0xba43cc99	-0.0007469147
7	0xbc035c57	-0.008017621
8	0x3c3ed412	0.011647241
9	0x3be30469	0.006928016
10	0x3bcb3ace	0.0062020784
11	0xba106436	-0.00055080967
12	0xbbff5ff6	-0.007793422
13	0x38a1ffd5	7.724731e-05
14	0xbb04d3ca	-0.0020267838
15	0x3a24ad8e	0.0006281965
16	0xbabaacf4	-0.0014242218
17	0x3b12312e	0.0022307145
18	0x3b5f717a	0.0034094737
19	0x38805f24	6.121237e-05
20	0xb96b4230	-0.00022436003
21	0xb8d88c6b	-0.000103258375
22	0xbb5d0bf1	-0.0033729041
23	0xb98ed950	-0.0002724626
24	0xba05fc5b	-0.0005111151
25	0xbb071e15	-0.0020617296
26	0x3c2213f3	0.009892452
27	0xbbadd3a0	-0.0053047687
28	0x3605de53	1.9947954e-06
29	0x3b2e5a55	0.0026604135
30	0x3a811bc6	0.0009850196
31	0xb8d7a906	-0.00010283482
32	0xbac14df0	-0.0014747959
33	0x3a9934d6	0.001168872
34	0x3a0c0412	0.00053411827
35	0xb7c7338a	-2.3746648e-05
36	0xb9a8ec9a	-0.0003221974
37	0xbc4daa01	-0.012552739
38	0x392383d9	0.00015594008
39	0xbb87e26e	-0.0041468656
40	0x3baf5d60	0.0053517073
41	0xbb279fb1	-0.0025577361
42	0xbc743cb4	-0.014907051
43	0x3c1538e0	0.009107798
44	0x3b20ca7c	0.0024534753
45	0x3aa2090b	0.0012362314
46	0x3a5ce6c1	0.0008426719
47	0xba86c515	-0.0010282124
48	0xbbebe856	-0.0071993275
49	0xb9021494	-0.00012405432
50	0xbc08cba0	-0.008349329
51	0xba0cd9a6	-0.00053730083
52	0x3ad3df1f	0.0016164518
53	0xbca2d45c	-0.019876651
54	0x3c4f0f66	0.012637949
55	0x3b777b80	0.003776282
56	0x3a60fb3a	0.00085823576
57	0xba738187	-0.00092890154
58	0x3c17fc00	0.00927639
59	0x3c430306	0.011902576
60	0x3c7a74ad	0.015286607
61	0x3c8443cb	0.016145607
62	0xbb1a4db7	-0.0023544857
63	0xbbc9e82f	-0.0061617116

base_feature_extractor.0.1.running_var f4 [64]
0	0x3b079ce4	0.002069288
1	0x39f2aae0	0.0004628515
2	0x39b9c64d	0.00035433695
3	0x3b61fa81	0.0034481587
4	0x3b845495	0.0040384033
5	0x3a0b55c1	0.00053152075
6	0x39f47db3	0.0004663296
7	0x3a3c9025	0.000719311
8	0x39c731a6	0.0003799323
9	0x3b6b2644	0.0035880962
10	0x3a2a89d4	0.00065055233
11	0x392b3993	0.00016329279
12	0x39f49040	0.0004664678
13	0x39f5d7f2	0.00046890933
14	0x3a9aa25e	0.0011797657
15	0x3b506b36	0.0031802184
16	0x3a57a679	0.00082264055
17	0x3a387112	0.0007035892
18	0x3a80de90	0.0009831954
19	0x3971b6cc	0.00023051648
20	0x39d923a1	0.0004141601
21	0x3b4cf156	0.0031271777
22	0x3a14e99c	0.00056805625
23	0x3ab3897c	0.001369759
24	0x3b5aeb32	0.0033404347
25	0x394d03b6	0.00019551706
26	0x3a17b046	0.00057864597
27	0x399e4484	0.00030187157
28	0x3ae0010a	0.0017090153
29	0x3aa0c3c1	0.001226537
30	0x39329225	0.00017029846
31	0x3a0f023b	0.00054553495
32	0x3a9c4944	0.001192369
33	0x398a7f90	0.00026416453
34	0x3b600f36	0.0034188754
35	0x38e2a6ba	0.00010807575
36	0x391e60cd	0.00015104115
37	0x39be3774	0.0003628094
38	0x3afab32e	0.0019126886
39	0x392f0f22	0.00016694938
40	0x3a1b6a73	0.0005928643
41	0x3b12dc6f	0.002240922
42	0x39fea531	0.00048569732
43	0x3a029197	0.0004980801
44	0x39571683	0.00020512384
45	0x3a64d9f0	0.0008729985
46	0x398eba36	0.0002722309
47	0x3a306acc	0.0006729781
48	0x3930f8ac	0.00016877305
49	0x3a9b2f9b	0.0011839749
50	0x39ff2c34	0.00048670324
51	0x3b992b75	0.00467437
52	0x3afd9d42	0.0019349235
53	0x3997d924	0.00028962747
54	0x3a0ff501	0.00054915255
55	0x3a308474	0.0006733604
56	0x399f4fa9	0.00030386195
57	0x3b3f19e1	0.0029159712
58	0x39e2cb13	0.0004325738
59	0x3a50279a	0.00079404714
60	0x3a07231b	0.00051550724
61	0x3a308279	0.0006733309
62	0x39c84ac1	0.0003820267
63	0x3a2a4ae9	0.0006496148

base_feature_extractor.1.0.weight f4 [64, 64, 3]
0	0xbe171ff0	-0.14758277
1	0xbda6b848	-0.081406176
2	0xbd9bc05d	-0.0760505
3	0xbd84926b	-0.064732395
4	0xbe0955da	-0.13411656
5	0xbe036f34	-0.1283539
6	0xbe1e9a45	-0.15488537
7	0xbdfe98cd	-0.12431488
8	0xbd1c5050	-0.03816253
9	0x3e026705	0.12734611
10	0x3df1a026	0.11798124
11	0x3e2060af	0.15661882
12	0xbdef0c2d	-0.11672244
13	0xbcf7e50c	-0.030260585
14	0xbd00ed68	-0.03147641
15	0x3c542c03	0.012949946
16	0x3c5a4739	0.013322645
17	0x3d905ed4	0.07049337
18	0xbd7d5866	-0.06185188
19	0xbbb3c61e	-0.005486264
20	0xbd8cd49b	-0.06876489
21	0xbe1ca9a7	-0.15299092
22	0xbe425ca2	-0.18980649
23	0xbe0e3ee4	-0.13891178
24	0xbc2fbc2c	-0.010726016
25	0xbdfbcefd	-0.12295339
26	0xbe583308	-0.21113217
27	0x3e0735e3	0.1320415
28	0x3e0bcaf5	0.1365164
29	0x3d8f5101	0.06997872
30	0xbe3714c3	-0.17879014
31	0xbd3880a9	-0.045044575
32	0xbdfa3ca6	-0.12218599
33	0x3d9f72e4	0.077855855
34	0x3c634ef4	0.013873804
35	0x3d1cfa19	0.03832445
36	0xbe279771	-0.16366364
37	0xbe1ba571	-0.1519983
38	0xbda81c43	-0.082085155
39	0x3c803c9a	0.015653897
40	0x3b072766	0.0020622849
41	0x3e02b0e4	0.12762791
42	0xbdce6bea	-0.10079177
43	0xbdbad005	-0.09121708
44	0xbe1885e2	-0.14894822
45	0xbe4b1635	-0.1983269
46	0xbddafced	-0.10692773
47	0xbd9296ee	-0.07157694
48	0xbe4b2703	-0.198391
49	0xbd26281d	-0.0405656
50	0xbd199af9	-0.03750131
51	0xbd9f064c	-0.07764873
52	0xbdfb8131	-0.12280501
53	0xbd5ac1da	-0.053407528
54	0xbdef4770	-0.116835475
55	0xbd54ab95	-0.051921446
56	0xbd776aed	-0.060404707
57	0x3d3a3267	0.045458224
58	0x3bcfa92f	0.006337307
59	0x3d1679a0	0.036737084
60	0x3d19c5b9	0.03754208
61	0xbd03d0af	-0.032181438
62	0x3d22b610	0.03972441
63	0xbd187070	-0.037216604
64	0xbd1bd6c2	-0.038046606
65	0xbdb16d8f	-0.08663475
66	0xbde47810	-0.111557126
67	0xbdf107b5	-0.11769048
68	0xbe7af00a	-0.2450563
69	0xbe1d0d49	-0.15337099
70	0xbcfabb45	-0.030606875
71	0xbd9fef52	-0.078093186
72	0xbddd4a34	-0.10805169
73	0xbe0eb34d	-0.13935585
74	0xbe05fe0b	-0.13085191
75	0x3d0927a8	0.033485085
76	0xbcaf2ed1	-0.021384628
77	0x3d20017c	0.039063916
78	0x3ca0fe62	0.01965255
79	0x3daf4def	0.085597865
80	0x3deceaa1	0.115681894
81	0xbe2df8cf	-0.16989444
82	0xbd549743	-0.051902067
83	0xbd9cb4f0	-0.076516986
84	0xbccceb99	-0.025014685
85	0x3d8742e2	0.06604554
86	0xbc8b190c	-0.016979717
87	0x3b9b74a2	0.0047441283
88	0x3da8f0d7	0.082490616
89	0x3d888764	0.06666449
90	0xbc9f8fe1	-0.019477786
91	0xbd3fe67f	-0.046850678
92	0x3c7fd151	0.01561387
93	0x3d885610	0.0665704
94	0xbd303766	-0.043021582
95	0xbc8b3fa9	-0.016998129
96	0xbe1335c8	-0.14375985
97	0xbe01def7	-0.1268271
98	0xbd9c2d64	-0.07625845
99	0xbdc6bc30	-0.09703863
100	0xbd9ea112	-0.077455655
101	0xbe67b745	-0.22628506
102	0xbda258bc	-0.07927081
103	0xbd3d5ef2	-0.046233125
104	0xbdc9a85b	-0.098465644
105	0x3c055d98	0.00813999
106	0x3dc4be35	0.096065916
107	0xbbd4e3f3	-0.0064969
108	0x3da8f554	0.082499176
109	0x3d2d1bf5	0.04226299
110	0x3d84f3fc	0.06491849
111	0xbd4aafd2	-0.04948408
112	0xbe1615c2	-0.14656737
113	0xbe2313c0	-0.15925503
114	0xbe010834	-0.12600785
115	0xbddea320	-0.108709574
116	0xbce97d98	-0.02850227
117	0x3d9bd40f	0.07608806
118	0x3d688f79	0.05677745
119	0x3d0a20b6	0.0337226
120	0xbe17cb41	-0.14823629
121	0xbe195a6f	-0.14975904
122	0xbe13c9fc	-0.1443252
123	0xbe0cb27f	-0.13739966
124	0xbca46fbd	-0.020072812
125	0xbdaba3dc	-0.08380863
126	0xbddb4ee8	-0.107084095
127	0xbc8e4be1	-0.017370166
128	0xbd3a6c6a	-0.045513548
129	0xbe314de4	-0.17314869
130	0xbd7d6df1	-0.061872426
131	0xbd27e1ba	-0.040986754
132	0xbd3ea05a	-0.046539642
133	0xbda77702	-0.08176996
134	0xbd45c3a5	-0.048282284
135	0xbe204826	-0.15652522
136	0xbdb4bc37	-0.08824962
137	0xbe0c549b	-0.1370415
138	0xbd38770e	-0.045035414
139	0xbd3fb1c6	-0.046800397
140	0xbe566fd4	-0.20941097
141	0xbe05877d	-0.13039966
142	0xbe32f465	-0.17476042
143	0xbe6982e2	-0.22803834
144	0xbc55683b	-0.013025339
145	0xbe38edfe	-0.18059537
146	0xbe43e4e4	-0.19130284
147	0xbe1bcc24	-0.15214592
148	0xbdb41014	-0.08792129
149	0xbdda380b	-0.106552206
150	0x3ceff38c	0.029290937
151	0x3e17267a	0.14760771
152	0x3e0e9692	0.13924626
153	0xbdb22790	-0.08698952
154	0xbd069e4a	-0.0328658
155	0xbd9dc399	-0.07703323
156	0xbdf954f2	-0.12174405
157	0xbe0fb69f	-0.14034508
158	0xbda52501	-0.080636986
159	0xbe0e0f53	-0.13873033
160	0xbe07e65e	-0.13271472
161	0xbe3806fe	-0.17971417
162	0xbe146d6d	-0.14494868
163	0xbddfadd6	-0.109218284
164	0xbdbf8da1	-0.093531854
165	0xbe375949	-0.17905153
166	0xbdee36fa	-0.1163158
167	0xbdf797b8	-0.12089485
168	0xbd38b267	-0.045092013
169	0x3d9be606	0.07612233
170	0x3d734fa0	0.05940211
171	0xbe4bca77	-0.19901453
172	0xbe0c57e4	-0.13705403
173	0xbdfa5e90	-0.122250676
174	0xbdcde03e	-0.100525364
175	0xbda404f7	-0.080087595
176	0xbe37dc28	-0.17955077
177	0x3dd9bafb	0.10631367
178	0x3ce92124	0.028458185
179	0x3d92f209	0.07175071
180	0xbdf08218	-0.117435634
181	0xbe6f6f5b	-0.23382322
182	0xbe490a6b	-0.1963288
183	0xbddb2821	-0.10701013
184	0xbdf13689	-0.1177798
185	0xbe6b4b85	-0.22978027
186	0xbd939891	-0.07206834
187	0xbd243566	-0.040089987
188	0xbd5ce23c	-0.05392669
189	0x3d91de36	0.071224615
190	0x3c61871d	0.013765124
191	0x3e0bdf8e	0.13659498
192	0xbe831371	-0.2560077
193	0xbe150af6	-0.14554963
194	0x3b17a422	0.0023138602
195	0x3d54a16e	0.051911764
196	0xbda8e590	-0.082469106
197	0xbc9f8d05	-0.019476423
198	0xbe233b93	-0.15940695
199	0xbe17710c	-0.14789218
200	0xbd2e4c60	-0.042553306
201	0xbb2dc856	-0.0026517115
202	0xbe19dac6	-0.15024862
203	0xbe7f0e39	-0.2490777
204	0xbe18258c	-0.14858073
205	0xbe2d7050	-0.16937375
206	0xbd9fd4c3	-0.07804253
207	0x3caf5d6a	0.021406848
208	0xbe1189d2	-0.1421273
209	0xbe60c8e4	-0.21951634
210	0x3da85d9e	0.08220981
211	0x3e16f270	0.1474092
212	0x3d1ef536	0.03880807
213	0x3cf98406	0.030458461
214	0xbdad0972	-0.08449067
215	0x3db6effc	0.08932492
216	0x3e033ae9	0.12815441
217	0x3db790ab	0.0896314
218	0x3d91c8b1	0.07118357
219	0xbd061b14	-0.032740667
220	0xbde68c02	-0.11257173
221	0xbe82623d	-0.25465575
222	0x3e035748	0.12826264
223	0x3e357705	0.17721184
224	0x3dc2a962	0.095049635
225	0xbd77c1ad	-0.060487438
226	0xbc945d86	-0.018111002
227	0xbe237f19	-0.15966453
228	0xbe210880	-0.15725899
229	0xbe20a958	-0.156896
230	0xbd2c90e9	-0.042130385
231	0xbd8212f7	-0.063512735
232	0xbe52cb36	-0.20585331
233	0xbe8b2a92	-0.27180916
234	0xbe607fc1	-0.21923734
235	0xbe01b4b7	-0.12666593
236	0x39e9cdb9	0.00044594498
237	0xbe2ba2fe	-0.16761395
238	0xbe158b36	-0.14603886
239	0xbc897ce7	-0.01678319
240	0xbe585c0b	-0.21128862
241	0xbe03809c	-0.1284203
242	0xbd530417	-0.051517572
243	0xbe49af86	-0.19695863
244	0xbdd59146	-0.10428099
245	0xbd99c71c	-0.0750868
246	0xbe5ab0be	-0.21356484
247	0xbd538cc4	-0.051647916
248	0x3ce297b0	0.02766022
249	0x3cae91de	0.02130979
250	0xbce78b12	-0.028264556
251	0xbe1a7c77	-0.15086542
252	0x3bf14536	0.007362987
253	0xbd81c747	-0.06336837
254	0xbdf51eab	-0.1196874
255	0xbe52cb8a	-0.20585456

base_feature_extractor.1.0.bias f4 [64]
0	0x393885d5	0.00017597464
1	0xb9162a34	-0.00014320837
2	0xb84add67	-4.836675e-05
3	0x372cf558	1.0309122e-05
4	0x37df7bfa	2.6641403e-05
5	0x39964648	0.00028662593
6	0x390cd21d	0.00013429714
7	0xb68510fb	-3.9656857e-06
8	0x36c73fad	5.938075e-06
9	0xb4b22156	-3.317934e-07
10	0xb7223c18	-9.669944e-06
11	0xb753671a	-1.2600585e-05
12	0xb4dd21a1	-4.1188926e-07
13	0xb810d54a	-3.4530916e-05
14	0x39206aba	0.00015298548
15	0xb57340bc	-9.0618755e-07
16	0xb99fd00b	-0.00030481847
17	0x38ebfd98	0.00011252909
18	0x3766726c	1.3735709e-05
19	0xb8fa0556	-0.00011921923
20	0xb6c3c764	-5.834665e-06
21	0xb88737e9	-6.447716e-05
22	0x382a29c5	4.057006e-05
23	0x390bcd20	0.00013332488
24	0x3856d27b	5.12176e-05
25	0xb90310c2	-0.00012499376
26	0x35c0e59e	1.4371942e-06
27	0x376026e5	1.3360496e-05
28	0x391884e2	0.00014545352
29	0x3927ffeb	0.00016021698
30	0x3690e824	4.318559e-06
31	0xb790e37c	-1.7272068e-05
32	0xb8b7326b	-8.735511e-05
33	0xb7e9cc4f	-2.7870903e-05
34	0x3959526a	0.00020725434
35	0x39926699	0.0002792373
36	0x38c61821	9.44587e-05
37	0x37ea555c	2.7934722e-05
38	0xb9615769	-0.00021490235
39	0xb7c024fd	-2.2905408e-05
40	0xb77052b0	-1.4324367e-05
41	0xb833b062	-4.2841195e-05
42	0x37734080	1.4498946e-05
43	0x3925762a	0.00015779646
44	0x3909d105	0.00013143204
45	0xb7699e45	-1.3924732e-05
46	0x396da74d	0.00022664406
47	0x36ccd62b	6.104606e-06
48	0x392c3baa	0.00016425425
49	0x3795cf0f	1.7858603e-05
50	0xb88d615b	-6.741538e-05
51	0x37bc558a	2.2451179e-05
52	0xb8bae41e	-8.911661e-05
53	0x37e53115	2.7321783e-05
54	0xb925a06a	-0.00015795385
55	0xb8b8618c	-8.791973e-05
56	0x390945d0	0.00013091345
57	0x36afdef9	5.241364e-06
58	0xb83b8c65	-4.4715027e-05
59	0xb72a76c9	-1.0160446e-05
60	0x3981b3ce	0.00024738762
61	0x3801441b	3.0819425e-05
62	0x38f7519c	0.00011793079
63	0xb6651226	-3.4134223e-06

base_feature_extractor.1.1.weight f4 [64]
0	0x3f93c30f	1.1543902
1	0x3f40dfae	0.7534131
2	0x3f59f7b0	0.85143566
3	0x3f778f09	0.9670263
4	0x3f8b60ee	1.0888956
5	0x3f762f17	0.96165603
6	0x3f5b58db	0.8568246
7	0x3f8069fe	1.0032346
8	0x3f3523cc	0.70757747
9	0x3f3168f4	0.6930077
10	0x3f8994dd	1.0748554
11	0x3f3d02d6	0.7383245
12	0x3f33cd64	0.70235276
13	0x3f9046e7	1.1271638
14	0x3fa450cb	1.2837156
15	0x3f4eac26	0.8073143
16	0x3f84b35f	1.036724
17	0x3f848de2	1.0355799
18	0x3f44c1d5	0.76858264
19	0x3fa36181	1.2764131
20	0x3f39cca2	0.7257787
21	0x3f4aff8d	0.7929619
22	0x3f9d2995	1.2278315
23	0x3f5c0f31	0.8596068
24	0x3f635604	0.88803124
25	0x3f5f38ec	0.8719623
26	0x3f56799a	0.837793
27	0x3f822367	1.0167054
28	0x3f86ab4e	1.0521028
29	0x3f8f0bf2	1.117552
30	0x3f55476b	0.833121
31	0x3fabad1f	1.3412207
32	0x3f629fdc	0.88525176
33	0x3f564336	0.83696306
34	0x3f9eef12	1.2416708
35	0x3f56d1b5	0.8391374
36	0x3f804f24	1.0024152
37	0x3f2eb661	0.6824704
38	0x3faa1c7e	1.3289945
39	0x3f4d2f5e	0.801504
40	0x3f730f24	0.9494498
41	0x3f77dc8b	0.96820897
42	0x3f8d13e3	1.1021694
43	0x3f775ba8	0.9662423
44	0x3f4b51bb	0.79421586
45	0x3f60a89a	0.87757266
46	0x3f86ecb7	1.054099
47	0x3faffa5c	1.3748279
48	0x3fa66fbf	1.3002852
49	0x3f60affa	0.8776852
50	0x3fa14792	1.2599967
51	0x3f6f2b1f	0.9342517
52	0x3f6ac9bb	0.91714066
53	0x3f5e47ff	0.8682861
54	0x3f75dfb0	0.96044445
55	0x3f531f0f	0.82469267
56	0x3f8dc730	1.1076412
57	0x3f46474a	0.7745253
58	0x3f66354b	0.8992507
59	0x3f3fee29	0.7497278
60	0x3fa4b930	1.2869015
61	0x3f4deae3	0.80436534
62	0x3f56a360	0.8384304
63	0x3f780157	0.96877044

base_feature_extractor.1.1.bias f4 [64]
0	0xbd8c676d	-0.068556644
1	0x3d916aa2	0.07100417
2	0x3dd80bf6	0.10549156
3	0x3ccd7a00	0.025082588
4	0xbcd9a77f	-0.026569126
5	0x3d8e2b7f	0.0694189
6	0x3b8441d4	0.0040361676
7	0x3de291ee	0.1106299
8	0xbe02b820	-0.1276555
9	0xbe6fc40f	-0.23414634
10	0x3da338b6	0.07969801
11	0xbe42bdfe	-0.19017789
12	0x3e1f1fc2	0.15539458
13	0x3d85f19b	0.06540223
14	0xbd2dffef	-0.042480405
15	0xbda73fa6	-0.08166437
16	0x3d2c3ab3	0.042048167
17	0xbd45fcd5	-0.048336823
18	0x3deeb17b	0.116549455
19	0xbd13ab24	-0.036051884
20	0xbdaa431b	-0.083135806
21	0x3d9d3fce	0.076781854
22	0xbdcffce7	-0.10155659
23	0xbc3c9328	-0.011509694
24	0x3ca26055	0.019821325
25	0x3a9272f9	0.001117318
26	0xbcb03839	-0.021511184
27	0xbd4370dd	-0.047715057
28	0x3e0a03cd	0.13478012
29	0xbd535e3b	-0.051603537
30	0x3db05f5a	0.08611937
31	0xbd0a8101	-0.033814434
32	0x3e1dc57c	0.15407366
33	0x3e03e729	0.1288115
34	0xbdb9f775	-0.09080402
35	0x3e364d68	0.17802966
36	0x3c08e966	0.008356428
37	0xbd040160	-0.032227874
38	0xbd72b0fd	-0.05925082
39	0x3d507935	0.050896842
40	0x3df8abae	0.1214212
41	0x3dd99d85	0.106257476
42	0x3c53ee77	0.012935272
43	0x3e535af7	0.20640169
44	0x3d0e2827	0.03470626
45	0x3d8e55d8	0.06949967
46	0xbd48e38a	-0.049045123
47	0xbd908b1b	-0.07057782
48	0xbdd52183	-0.104067825
49	0xbca4ec21	-0.020132126
50	0xbd3c10a1	-0.045914296
51	0x3bd01631	0.0063503017
52	0xbd68abd4	-0.056804493
53	0xbd8d6bb0	-0.069053054
54	0x3e49d976	0.19711861
55	0x3e655e41	0.22399236
56	0x3d3a4e83	0.04548503
57	0x3b849335	0.0040458688
58	0x3e2c5146	0.16827878
59	0xbd814590	-0.06312096
60	0x3bb49502	0.005510927
61	0xbc0a4de4	-0.008441422
62	0x3c79ec09	0.015254029
63	0x3e6ce7d1	0.23135306

base_feature_extractor.1.1.running_mean f4 [64]
0	0xc03f554a	-2.9895806
1	0xc05d7e60	-3.4608383
2	0xbff70a6f	-1.9300059
3	0x3fff8f35	1.9965578
4	0xc00a1998	-2.157812
5	0xc0216621	-2.5218585
6	0xc054dda7	-3.3260286
7	0x3ff59922	1.9187357
8	0xbf6ae798	-0.91759634
9	0x3f89dc14	1.0770288
10	0x402e11a9	2.719828
11	0xbf871329	-1.0552722
12	0x3f58cac1	0.8468438
13	0x4057aed8	3.3700466
14	0xc0499430	-3.1496696
15	0x3f0ba031	0.5454131
16	0xc03bbbb4	-2.9333315
17	0xbf84c13d	-1.0371472
18	0xbfbae693	-1.4601616
19	0xc06132e4	-3.518731
20	0xbed41011	-0.41418508
21	0xbf3946fe	-0.7237395
22	0xc0957433	-4.6704345
23	0x3ff321c1	1.8994676
24	0xc027b078	-2.6201458
25	0xc00b80ae	-2.179729
26	0xbeb9ccf6	-0.36289185
27	0x3e89a5b1	0.26884225
28	0xc00aebfb	-2.170653
29	0xc035106f	-2.829128
30	0xc0788dc9	-3.8836539
31	0xc0575864	-3.36477
32	0xbfee7b0f	-1.8631305
33	0xc0161042	-2.3447423
34	0xc07fb0fc	-3.9951773
35	0xbfb38d5d	-1.4027516
36	0xc03bae1c	-2.9325018
37	0xbfad0672	-1.3517592
38	0xc056d328	-3.356638
39	0xc0104bda	-2.2546296
40	0x3fa56c42	1.2923663
41	0xc007e70c	-2.123477
42	0x3fc49ed3	1.5360969
43	0xbe4520b2	-0.19250754
44	0xc01c71fe	-2.4444575
45	0xc05336c3	-3.3002174
46	0xc00bdbf7	-2.1853006
47	0xc05933c1	-3.3937838
48	0xc06ffd11	-3.749821
49	0xbf6be656	-0.9214834
50	0xc053598c	-3.3023405
51	0x3fda2dc4	1.7045217
52	0xbf9439c3	-1.1580127
53	0x3f1ceddf	0.6130046
54	0xbfa444e7	-1.2833527
55	0xbf9bcd9d	-1.2172123
56	0xbf91d2ff	-1.1392516
57	0xbf4a5fad	-0.7905224
58	0xbf2efe58	-0.6835685
59	0x3f60cc50	0.87811756
60	0xc046037b	-3.0939624
61	0x3f9c3467	1.2203492
62	0x3f147d21	0.5800343
63	0xbd808928	-0.062761605

base_feature_extractor.1.1.running_var f4 [64]
0	0x42580c73	54.012157
1	0x4194bfba	18.593616
2	0x4103a8c4	8.228703
3	0x42071cd4	33.778152
4	0x422bc82d	42.945484
5	0x4109b14f	8.605788
6	0x41661fd1	14.382768
7	0x420d3211	35.298893
8	0x40f1e378	7.559017
9	0x418c4ba4	17.536934
10	0x41cf0bf7	25.880842
11	0x41135c9d	9.210111
12	0x41d0b959	26.090502
13	0x420ff740	35.991455
14	0x425dad4b	55.41923
15	0x409a517a	4.822446
16	0x41295c7f	10.585082
17	0x41cff465	25.994333
18	0x4213e09f	36.969357
19	0x428327e9	65.57795
20	0x40d20d22	6.564103
21	0x410ed57a	8.927118
22	0x42b8816b	92.25277
23	0x4204a48a	33.160683
24	0x423ad600	46.708984
25	0x40e077d9	7.01463
26	0x418dc203	17.719732
27	0x41e1132e	28.134365
28	0x40e26e91	7.075997
29	0x424f03a6	51.753563
30	0x4210c317	36.190517
31	0x4280cb05	64.39652
32	0x41527f13	13.156024
33	0x4224df46	41.21804
34	0x429c5cdb	78.18136
35	0x413f86c2	11.9704
36	0x4113fe0b	9.249522
37	0x41241707	10.255622
38	0x427b8433	62.8791
39	0x418d5266	17.665234
40	0x41b2e12c	22.359947
41	0x40f82147	7.754062
42	0x420199f6	32.400352
43	0x420ae530	34.723816
44	0x4103b3a2	8.231356
45	0x4219747f	38.363766
46	0x421e1abe	39.526115
47	0x427fd063	63.953503
48	0x428bbdf3	69.870995
49	0x418553fe	16.666012
50	0x42731bf8	60.777313
51	0x41bd0528	23.627518
52	0x4153cb75	13.237172
53	0x41ae6aae	21.80209
54	0x41101eed	9.00755
55	0x4206f541	33.739506
56	0x41ca4ea0	25.288391
57	0x413c6b1b	11.776149
58	0x420d4aaa	35.322914
59	0x413f9ef9	11.976312
60	0x4258db4e	54.214165
61	0x419f0dc0	19.881714
62	0x41e95101	29.164553
63	0x42009b48	32.15164

language_head.2.weight f4 [2, 64]
0	0xbde2aece	-0.110684976
1	0x3ddd41ea	0.10803588
2	0x3c6a32e0	0.014294356
3	0xbda667ac	-0.081252426
4	0x3daac310	0.083379865
5	0xbdfddebc	-0.12395999
6	0x3db1e3a2	0.08685996
7	0xbdf95c02	-0.12175752
8	0x3dd84924	0.105608255
9	0x3cd1bd78	0.025603041
10	0x3d15cd3c	0.03657268
11	0x3c9d64d8	0.019213125
12	0x3d98d404	0.07462314
13	0xbd966ede	-0.07345365
14	0x3da45bfe	0.080253586
15	0xbdec25e8	-0.115306675
16	0xbd9444cc	-0.072396845
17	0x3d7973cc	0.060901448
18	0xbd2b5b64	-0.041835204
19	0x3da0364c	0.07822856
20	0xbdb32d8e	-0.08748923
21	0xbd43d720	-0.04781258
22	0xbdac8dd2	-0.084254876
23	0x3c0e9dc0	0.008704603
24	0xbdb83714	-0.0899488
25	0xbdb62bd6	-0.0889508
26	0x3d20b8c8	0.03923872
27	0xbd54b89c	-0.05193387
28	0xbdac8e5a	-0.08425589
29	0xbb9da520	-0.004810944
30	0xbd31f6d4	-0.043448284
31	0xbd2628bc	-0.04056619
32	0x3db07fdc	0.08618137
33	0x3dc37d96	0.09545438
34	0x3c3c4a50	0.011492327
35	0x3dfc63be	0.12323712
36	0xbd2c2a08	-0.04203227
37	0x3d8b4078	0.06799406
38	0xbda131a0	-0.07870793
39	0xbd206ba8	-0.03916517
40	0xbd3393f4	-0.04384227
41	0x3dace496	0.08442037
42	0xbb73cc00	-0.003720045
43	0xbd4b00b0	-0.049561203
44	0x3d020090	0.031738818
45	0xbaa2d200	-0.0012422204
46	0xbd87b6f6	-0.06626694
47	0x3dea3ddc	0.1143758
48	0xbd641994	-0.055688456
49	0xbdfe0af2	-0.124044314
50	0x3d5b4b78	0.05353877
51	0x3d31724c	0.043321893
52	0xbde168e2	-0.11006333
53	0x3dd4cb18	0.103902996
54	0x3d97d9f6	0.074146196
55	0xbd2a2828	-0.041542202
56	0xbd97bc0c	-0.07408914
57	0xbdcf3364	-0.10117224
58	0x3dcbc9e6	0.099506184
59	0x3cc599e8	0.02412124
60	0xbcdfe1a0	-0.027329266
61	0xbdc99524	-0.098428994
62	0xbdf93c7e	-0.12169741
63	0xbd693e24	-0.056944028
64	0x3beda680	0.0072525144
65	0x3d8264f2	0.0636691
66	0x3db301a6	0.08740549
67	0x3d9c9236	0.07645075
68	0x3dff79fa	0.12474437
69	0xbd00c7bc	-0.03144048
70	0x3d61f418	0.055164427
71	0xbc726ec0	-0.014796913
72	0x3dd2c850	0.10292113
73	0xbcbdd2d0	-0.023171812
74	0xbd8c6870	-0.06855857
75	0x3d968bf8	0.07350916
76	0x3c67d6b0	0.014150307
77	0xbd9a68ee	-0.07539545
78	0xbdce0bc4	-0.10060838
79	0xbc2f8d70	-0.010714874
80	0x3ca9ce60	0.02072829
81	0x3d8fb388	0.07016665
82	0x3dceba74	0.10094157
83	0xbd26a62c	-0.040685818
84	0xbc3f6990	-0.011682883
85	0xbdd7e62e	-0.1054195
86	0x3d61ee94	0.055159166
87	0xbde1d7ac	-0.11027464
88	0xbd642c74	-0.055706456
89	0xbd2e81fc	-0.04260443
90	0xbd919af6	-0.071096346
91	0x3da50a98	0.08058661
92	0xbda90ac8	-0.082540095
93	0x3d873bd6	0.0660321
94	0xbd56dccc	-0.052456662
95	0xbdbda0c6	-0.09259181
96	0xbd802f50	-0.06259024
97	0xbd0a7164	-0.033799544
98	0xbd87773c	-0.06614539
99	0x3cf5a120	0.029984057
100	0x3c9acba8	0.018895939
101	0xbc1227a0	-0.00892058
102	0xbd42093c	-0.047372088
103	0x3d091794	0.03346975
104	0x3c99bc88	0.018766657
105	0x3df6f30e	0.12058078
106	0x3d8bc58c	0.068247885
107	0x3da107c2	0.07862808
108	0xbdfc953a	-0.1233315
109	0x3cb401b0	0.02197346
110	0x3cef3340	0.029199243
111	0x3cafdd78	0.02146791
112	0x3d4cebc8	0.050029546
113	0xbdcb4b6e	-0.099264964
114	0xbdfdad8e	-0.123866186
115	0x3d3f319c	0.04667817
116	0x3dce8db8	0.100856245
117	0x3d5a603c	0.053314433
118	0xbd7ba9a0	-0.061441064
119	0xbd009f90	-0.03140217
120	0xbcb4e7c8	-0.022083178
121	0x3d165f4c	0.036711976
122	0x3dbfc2c6	0.09363322
123	0x3da65af4	0.08122817
124	0x3d23aad8	0.03995785
125	0xbcc9ee68	-0.024649814
126	0xbcba3010	-0.022727996
127	0xbd956d4c	-0.07296237

language_head.2.bias f4 [2]
0	0xbd69d2d0	-0.057085812
1	0xbbb18ce0	-0.005418405

disease_feature_extractor.0.0.0.weight f4 [64, 64, 3]
0	0xbd24ce9a	-0.040236093
1	0xbe485206	-0.1956254
2	0xbdf6eb2f	-0.120565765
3	0x3d3dd22e	0.04634302
4	0x3cdcb971	0.026943894
5	0x3c3f9762	0.011693807
6	0xbdf89b55	-0.12139002
7	0xbc13d5fa	-0.009023184
8	0xbdff8feb	-0.12478622
9	0x3e209360	0.15681219
10	0x3db7fd8a	0.089839056
11	0x3d98106d	0.07425008
12	0xbe1d1700	-0.15340805
13	0xbe600f3f	-0.21880816
14	0xbe1b9ea1	-0.15197231
15	0x3d819439	0.06327099
16	0xba8139a0	-0.0009859093
17	0x3d975fe2	0.07391335
18	0x3d943dff	0.07238387
19	0x3dcfc223	0.101444505
20	0x3e20c56f	0.15700315
21	0x3e2605ba	0.16213122
22	0x3d175126	0.036942624
23	0x3d3ab9c5	0.04558732
24	0x3d3d13d5	0.04616149
25	0xbd28c6c2	-0.041205175
26	0xbb9c3e49	-0.004768167
27	0xbd8e0dd8	-0.06936234
28	0xbc405875	-0.01173984
29	0xbdc67e66	-0.09692077
30	0x3e124b44	0.14286524
31	0x3d4a1453	0.04933579
32	0x3be20b71	0.0068983366
33	0x3da2f65e	0.07957147
34	0x3d9f4f4a	0.07778795
35	0xbc357755	-0.011075814
36	0x3d80bf3b	0.06286474
37	0x3dfb9bae	0.12285553
38	0x3d3ae7f4	0.045631364
39	0x3e34b631	0.17647626
40	0x3e072bab	0.13200252
41	0x3e326f2d	0.17425223
42	0xbdfc4eea	-0.12319739
43	0xbd72bafd	-0.059260357
44	0xbd1aa11d	-0.037751306
45	0x3d6fc367	0.05853596
46	0x3dc3974d	0.09550343
47	0x3cadac3a	0.021200288
48	0x3e0786df	0.13235043
49	0x3db05382	0.08609678
50	0x3dd4af22	0.103849664
51	0xbd2025cc	-0.039098546
52	0xbc6303f3	-0.013855922
53	0xba9c4f15	-0.0011925424
54	0x3d308267	0.04309311
55	0x3e191e6c	0.14953011
56	0x3db190f9	0.086702295
57	0xbdb34c59	-0.087547965
58	0xbdacec09	-0.08443458
59	0xbcd19597	-0.025584025
60	0x3ddaf613	0.10691466
61	0x3da46852	0.0802771
62	0xbcb68417	-0.022279782
63	0xbc73988b	-0.014867912
64	0x3db5f0cc	0.08883819
65	0x3caf454c	0.021395348
66	0xbd4453c9	-0.047931466
67	0xbde701f0	-0.112796664
68	0xbda89846	-0.08232169
69	0x3de6638e	0.11249457
70	0x3dc2ec58	0.09517735
71	0x3e439818	0.19100988
72	0x3dae4b4d	0.08510456
73	0x3d4ddc08	0.050258666
74	0xbd5dcc77	-0.05415007
75	0x3e5b25f3	0.21401195
76	0x3e5ddad6	0.2166551
77	0x3decff78	0.11572164
78	0x3d919e84	0.071103126
79	0x3dec5c88	0.115410864
80	0x3d6d1c7f	0.057888504
81	0xbc80fd3e	-0.015745755
82	0x3c70c141	0.014694513
83	0xbd1515a7	-0.036397602
84	0xbe249f1a	-0.16076317
85	0xbd427ebd	-0.04748415
86	0xbdb34c08	-0.08754736
87	0xbe11eceb	-0.14250533
88	0xbe12cdf0	-0.14336371
89	0xbe22fc9e	-0.15916678
90	0x3e035275	0.12824424
91	0x3cb92396	0.022599977
92	0x3d8adae1	0.06780029
93	0xbde15efa	-0.110044435
94	0xbe1a4235	-0.15064318
95	0xbd9e6d0d	-0.077356435
96	0x3dc651d0	0.09683573
97	0x3db41ca4	0.08794525
98	0x3e48dc14	0.19615203
99	0x3d2afe22	0.041746266
100	0xbd0832fd	-0.03325175
101	0x3d585f52	0.05282528
102	0x3d5b8311	0.05359179
103	0xbdc4cfcf	-0.09609949
104	0xbb0ea8e9	-0.0021768159
105	0x3d634a9a	0.055491067
106	0x3db6c6eb	0.08924659
107	0x3e10b2d5	0.14130719
108	0x3da09801	0.078414924
109	0x3d7a5050	0.06111175
110	0x3db0eaaa	0.086385086
111	0x3dacbf24	0.08434895
112	0x3dd00a3a	0.101582006
113	0xbce971a0	-0.028496563
114	0x3c9ff5b9	0.01952635
115	0xbd9c72f8	-0.07639116
116	0xbc927351	-0.017877253
117	0xbbce388d	-0.0062933625
118	0xbb8c612e	-0.0042840457
119	0x3a1ab179	0.0005901079
120	0x3dcd3def	0.100215785
121	0x3d35d1cc	0.04438953
122	0x3dc4edc3	0.09615662
123	0x3d84986b	0.06474384
124	0x3cb7aec6	0.022422206
125	0x3ded1897	0.11576956
126	0x3cfae2c7	0.030625714
127	0xbdc9ef9a	-0.098601535
128	0x3b3d38e4	0.002887302
129	0x3d8e960e	0.069622144
130	0x3de4460b	0.11146172
131	0x3d4a65bc	0.049413428
132	0x3c9a801f	0.018859921
133	0x3dc9d0ad	0.09854255
134	0x3c67549d	0.0141192945
135	0x3c7c4b8a	0.015398869
136	0xbdfef10c	-0.1244832
137	0xbddd1095	-0.107941784
138	0xbe215dd6	-0.15758452
139	0xbe3079d8	-0.1723398
140	0xbdc6e78a	-0.09712131
141	0xbde7a286	-0.11310296
142	0xbe23ffeb	-0.16015594
143	0xbdc2a953	-0.09504952
144	0xbe4454ca	-0.1917297
145	0xbe1107dc	-0.14163154
146	0xbdd917fb	-0.10600277
147	0x3e20aa0c	0.15689868
148	0x3dea3c36	0.114372656
149	0x3c064d2d	0.008197111
150	0xbe1a258f	-0.1505339
151	0xbe90d1b7	-0.28285
152	0xbdaabf57	-0.083372764
153	0x3d647d2e	0.055783443
154	0x3dc7dbea	0.09758742
155	0x3e20c228	0.15699065
156	0xbdc1a609	-0.09455497
157	0xbdccd574	-0.100016505
158	0xbda71a3c	-0.08159301
159	0x3bf8c7a5	0.007592159
160	0xbc25e78e	-0.010126008
161	0xbdcbef55	-0.09957758
162	0x3e27736c	0.16352624
163	0x3e1d67bb	0.15371601
164	0x3dd2ea16	0.102985546
165	0x3dba970b	0.091108404
166	0x3e009f4d	0.12560768
167	0x3dbfb2b3	0.09360256
168	0xbe3d0f9c	-0.18462986
169	0xbe3575f1	-0.17720772
170	0xbe1712ee	-0.14753315
171	0xbd681865	-0.05666389
172	0x3c053357	0.008129916
173	0xbd00f928	-0.031487614
174	0x3e4c961e	0.1997914
175	0x3e3674e6	0.1781803
176	0x3df5cf44	0.120024234
177	0x3c9fbaf9	0.019498335
178	0x3bba63cf	0.0056881676
179	0x3d36c21e	0.04461872
180	0xbd81659d	-0.06318209
181	0xbe4b9339	-0.1988038
182	0xbe0fd92f	-0.14047693
183	0x3db7f4c6	0.08982234
184	0x3db38c03	0.087669395
185	0x3dd396a9	0.103314705
186	0x3e5c2ef2	0.21502283
187	0x3e3dc181	0.18530847
188	0x3e57091b	0.20999567
189	0x3e4d380a	0.20040908
190	0x3dd26178	0.10272497
191	0x3e4060ed	0.18786974
192	0xbe044f29	-0.12920822
193	0xbdfbf733	-0.12303009
194	0xbdc3718b	-0.09543141
195	0x3d1fa19a	0.038972475
196	0x3d968302	0.073492065
197	0x3dd0300b	0.101654135
198	0xbc599052	-0.013279038
199	0xbcfb29ee	-0.030659642
200	0x3d04128d	0.032244254
201	0xbda584e3	-0.08081987
202	0xbdd154a2	-0.102212206
203	0xbdaa8118	-0.08325404
204	0xbe4b571e	-0.19857451
205	0xbdf9ace5	-0.1219118
206	0xbe321e1c	-0.17394298
207	0x3d031ab6	0.032007895
208	0x3cfbbf2d	0.030730808
209	0x3d5c9ccc	0.05386047
210	0x3e65df28	0.22448409
211	0x3e4e264a	0.20131794
212	0x3e88933b	0.26674828
213	0xbe0a726f	-0.13520215
214	0xbe004509	-0.12526335
215	0xbe2fdeaa	-0.17174783
216	0xbd498948	-0.049203187
217	0xbd69f3c6	-0.057117246
218	0xbc804e15	-0.015662232
219	0x3d88fc1d	0.06688712
220	0x3dcd1786	0.10014252
221	0x3da5f178	0.08102697
222	0xbd2e6ae4	-0.042582408
223	0xbdb9567d	-0.090496995
224	0xbddf5a09	-0.10905845
225	0xbdc1556d	-0.09440122
226	0xbe1c06d7	-0.15236984
227	0xbe175703	-0.14779286
228	0xbc8a058a	-0.016848344
229	0xbd367d46	-0.044553064
230	0xbd8769a1	-0.06611944
231	0xbe27e8a8	-0.16397345
232	0xbe40814a	-0.1879932
233	0xbe722cf3	-0.2364996
234	0xbe49284d	-0.1964428
235	0xbe02335a	-0.12714902
236	0xbe08a566	-0.13344344
237	0x3d118187	0.035523918
238	0x3c47b51f	0.012189179
239	0x3d9a5d1f	0.07537293
240	0x3e80f94b	0.25190195
241	0x3e59f32a	0.21284166
242	0x3e72b464	0.23701626
243	0xbddea979	-0.10872168
244	0xbd759b7b	-0.05996273
245	0xbd9bd5fa	-0.07609172
246	0xbc9709c9	-0.018437283
247	0x3d82435b	0.06360503
248	0xbb548db0	-0.0032433085
249	0xbe156819	-0.14590491
250	0xbe78d8ad	-0.24301405
251	0xbe5b3b4b	-0.21409337
252	0xbd95a245	-0.07306341
253	0xbda78499	-0.08179588
254	0x3ba395c1	0.0049922173
255	0xbdd85086	-0.105622336

disease_feature_extractor.0.0.0.bias f4 [64]
0	0x377baad6	1.5000542e-05
1	0xb8b61464	-8.682234e-05
2	0x370f5a24	8.544452e-06
3	0xb6d4e0d7	-6.344267e-06
4	0xb9422d93	-0.0001851826
5	0x36d1d2c6	6.2532226e-06
6	0x388fe257	6.8609304e-05
7	0x382b103e	4.0784704e-05
8	0xb89e83da	-7.5585864e-05
9	0x378d6824	1.6857004e-05
10	0x36e81865	6.9169787e-06
11	0xb51243ef	-5.4488095e-07
12	0xb92eeb7c	-0.00016681658
13	0xb8c8a767	-9.567924e-05
14	0xb8cd8d33	-9.801462e-05
15	0xb763f0a5	-1.3586284e-05
16	0xb83dc3ce	-4.524347e-05
17	0x37a23970	1.9338651e-05
18	0xb52cd265	-6.438116e-07
19	0x38293091	4.033797e-05
20	0xb6a8ec81	-5.034323e-06
21	0x37a3b122	1.9513598e-05
22	0x3885c289	6.378169e-05
23	0xb904bedb	-0.000126596
24	0x36a2ac11	4.8480074e-06
25	0x385e8043	5.3048378e-05
26	0xb639bf1d	-2.767839e-06
27	0xb8f8873b	-0.0001185075
28	0x35b30ffe	1.3341194e-06
29	0x37ad567b	2.0663478e-05
30	0xb9276b37	-0.00015966302
31	0xb7bca008	-2.2485867e-05
32	0xb7669926	-1.3744726e-05
33	0xb8196494	-3.6571713e-05
34	0xb71012f3	-8.587481e-06
35	0xb8dc47db	-0.000105038016
36	0xb7986994	-1.8168976e-05
37	0x37cf4286	2.47073e-05
38	0x38031753	3.1254556e-05
39	0xb6983446	-4.5360384e-06
40	0x3802581a	3.1076466e-05
41	0x36390840	2.757195e-06
42	0x378bbc75	1.6657848e-05
43	0x38109020	3.4466502e-05
44	0x37b898a8	2.2005595e-05
45	0x36a2824d	4.8431452e-06
46	0xb87d10e8	-6.0335646e-05
47	0xb869a5d4	-5.570597e-05
48	0x3894e113	7.099113e-05
49	0x35a45dbc	1.2246232e-06
50	0xb626639a	-2.4793903e-06
51	0xb85cdf7f	-5.2660234e-05
52	0x36244155	2.4475933e-06
53	0xb6dee0e3	-6.642296e-06
54	0xb7353e69	-1.0802972e-05
55	0xb53f0ea0	-7.1174327e-07
56	0xb7a7ffca	-2.0027062e-05
57	0x3758871a	1.2906059e-05
58	0xb7f21139	-2.8856668e-05
59	0x378fa221	1.7122426e-05
60	0x3807d9a2	3.2389195e-05
61	0xb9816027	-0.00024676436
62	0xb77a2d39	-1.491169e-05
63	0xb75b93d1	-1.3087833e-05

disease_feature_extractor.0.0.1.weight f4 [64]
0	0x3f819a41	1.01252
1	0x3f8d5e79	1.1044456
2	0x3f71eb68	0.94499826
3	0x3f6ce48f	0.9253625
4	0x3f8b473f	1.0881118
5	0x3f560d8b	0.83614415
6	0x3f8f7890	1.1208668
7	0x3f51611e	0.81788814
8	0x3f5dc0cf	0.8662233
9	0x3f7bf940	0.984272
10	0x3f87e128	1.0615587
11	0x3f86298c	1.0481429
12	0x3f7cbe28	0.98727655
13	0x3f83fc5e	1.0311391
14	0x3f81ea3e	1.014961
15	0x3f782c1f	0.96942323
16	0x3f59eeba	0.8512989
17	0x3f7c5596	0.98568094
18	0x3f6a9250	0.91629505
19	0x3f8b7904	1.0896306
20	0x3f47fb3c	0.7811773
21	0x3f41510d	0.755143
22	0x3f8307cb	1.0236753
23	0x3f828603	1.0197147
24	0x3f4b2d42	0.7936593
25	0x3f82f529	1.0231067
26	0x3f700275	0.9375375
27	0x3f8167e8	1.0109835
28	0x3f53fa3d	0.8280371
29	0x3f65d663	0.89780253
30	0x3f8c92df	1.0982322
31	0x3f57a4bf	0.8423576
32	0x3f72ba9a	0.9481598
33	0x3f81b986	1.0134742
34	0x3f6ed046	0.9328655
35	0x3f870b42	1.0550311
36	0x3f74008a	0.9531332
37	0x3f6cd1ab	0.9250743
38	0x3f64a820	0.8931904
39	0x3f56663e	0.8374976
40	0x3f604c90	0.87616825
41	0x3f49e5a8	0.7886605
42	0x3f813720	1.0094948
43	0x3f511590	0.81673527
44	0x3f552aa2	0.8326818
45	0x3f2de080	0.67920685
46	0x3f6c0126	0.9218925
47	0x3f816708	1.0109568
48	0x3f915afc	1.1355891
49	0x3f3c3938	0.7352481
50	0x3f5a729e	0.8533114
51	0x3f8d6b43	1.1048359
52	0x3f786a98	0.9703765
53	0x3f853cb7	1.0409154
54	0x3f6e20b4	0.9301865
55	0x3f2ee331	0.68315417
56	0x3f668869	0.90051895
57	0x3f55deab	0.8354289
58	0x3f6c7702	0.9236909
59	0x3f6899ae	0.90859497
60	0x3f6538c9	0.8953977
61	0x3f897aaa	1.0740559
62	0x3f5fbc77	0.8739695
63	0x3f5230a9	0.821055

disease_feature_extractor.0.0.1.bias f4 [64]
0	0xbca5c60a	-0.020236034
1	0x3d611486	0.054951213
2	0x3b6ab0db	0.003581098
3	0xbdb73032	-0.089447394
4	0xbd828efb	-0.063749276
5	0xbd5a4d17	-0.053296175
6	0x3d9f8e01	0.07790757
7	0xbc7a6a7b	-0.015284176
8	0xbe068d32	-0.13139799
9	0x3d94bbd9	0.072623916
10	0x3d143ae9	0.036188994
11	0xbdeb1fe1	-0.1148069
12	0xbe058ca3	-0.1304193
13	0xbe04c59f	-0.12966011
14	0x3e14cec7	0.14532004
15	0x3d6ba3a9	0.057529125
16	0xbe0f4c93	-0.13994054
17	0xbd703431	-0.058643524
18	0xbd36c01e	-0.04461681
19	0xbc8a6136	-0.016892057
20	0xbde57559	-0.11204023
21	0xbdc3fd55	-0.095698036
22	0xbd9886fd	-0.07447622
23	0x3d934685	0.07191185
24	0x3c08bd6e	0.008345945
25	0xbdc8ed30	-0.09810865
26	0xbaa10e53	-0.0012287594
27	0x3e2d1b54	0.16904956
28	0xbc66b810	-0.01408197
29	0xbd65a7ce	-0.056068234
30	0xbcf4caca	-0.029881854
31	0xbda992bc	-0.082799405
32	0xbc8a0d96	-0.016852181
33	0xbcf9518a	-0.030434389
34	0xbdae0cbd	-0.084985234
35	0x3c86f297	0.016473098
36	0xbd9e7423	-0.07736995
37	0xbc11801b	-0.00888064
38	0xbdcddff2	-0.1005248
39	0xbda07f0f	-0.078367345
40	0xbe0f2a0b	-0.13980882
41	0xbdb969d3	-0.090533875
42	0xbd2e771e	-0.042594068
43	0xbda06844	-0.07832387
44	0xbd25f56e	-0.040517263
45	0xbd9be7c5	-0.07612566
46	0xbd125108	-0.03572181
47	0x3e14da0c	0.14536303
48	0xbcca3f42	-0.024688367
49	0xbdbd051c	-0.0922949
50	0xbc37878c	-0.0112017505
51	0xbcf8b919	-0.030361699
52	0xbd8412bb	-0.06448885
53	0x3d5ba1d4	0.05362113
54	0xbe304a86	-0.17215928
55	0x3dd1cd53	0.102442406
56	0xbd1c6fd0	-0.03819257
57	0xbc86e5ac	-0.016466938
58	0xbdc9420d	-0.09827051
59	0xbe126d9d	-0.14299627
60	0xbd332017	-0.043731775
61	0xbc5445cd	-0.012956095
62	0xbe109f8a	-0.1412336
63	0x3dd92650	0.10603011

disease_feature_extractor.0.0.1.running_mean f4 [64]
0	0x408b32fd	4.349974
1	0xc13248c5	-11.142766
2	0x4035d84c	2.8413267
3	0xc0e4de8c	-7.1521664
4	0xc0cf170a	-6.4715624
5	0x40a58f30	5.173729
6	0xc181d3e1	-16.228456
7	0xbf74bacd	-0.95597535
8	0xc0af0fea	-5.4706926
9	0xc164bd8b	-14.296275
10	0x40966870	4.7002487
11	0xc0ac2178	-5.3790855
12	0xc0ca4997	-6.321483
13	0xc0bede93	-5.9646697
14	0x4133c5c0	11.235779
15	0xc15915f8	-13.567863
16	0x3fc274c1	1.519188
17	0x40a11dbf	5.034881
18	0x4081ddf4	4.058344
19	0xc0e29419	-7.0805783
20	0x410003df	8.000945
21	0xbfe6ec69	-1.8040897
22	0xc113b90f	-9.23268
23	0x415fc87a	13.986444
24	0x4002a8d1	2.0415537
25	0xbfb9ead1	-1.4524785
26	0x3fd510c7	1.6645745
27	0x40adfaa8	5.4368477
28	0x40edc2db	7.430036
29	0x40b70066	5.7187986
30	0xc13feda2	-11.995516
31	0xbebe2349	-0.37136295
32	0xc1869d66	-16.826855
33	0x4032f5ef	2.7962606
34	0x40b81e21	5.753678
35	0xc0d05b46	-6.511142
36	0xc104d657	-8.302329
37	0xbf8a1a6b	-1.0789312
38	0xc13b40fe	-11.703367
39	0x408c615a	4.3868837
40	0xc14b6832	-12.712938
41	0x40ba8e64	5.8298817
42	0xc0f81abe	-7.7532644
43	0xc1307a60	-11.029877
44	0x415ff64c	13.997631
45	0x40754e7a	3.8329148
46	0xc13a1a93	-11.631488
47	0xc121cd87	-10.112678
48	0xc1136151	-9.211259
49	0x40907cbc	4.5152264
50	0x4102b724	8.169712
51	0xc0bbf2fa	-5.87341
52	0x40936789	4.6063886
53	0xc134b064	-11.293064
54	0xc0afdc89	-5.495671
55	0xc119d700	-9.61499
56	0x411759c6	9.459417
57	0x401138e5	2.2690976
58	0xc192d16b	-18.352255
59	0xc12b7b3b	-10.717586
60	0xc0ea13b9	-7.3149076
61	0xc11f35b8	-9.950615
62	0xc10a3ed3	-8.640338
63	0xc1369ad3	-11.412799

disease_feature_extractor.0.0.1.running_var f4 [64]
0	0x4284f648	66.48102
1	0x429a3dc7	77.12066
2	0x42988960	76.26831
3	0x42a2889d	81.26682
4	0x42c05026	96.15654
5	0x4253344a	52.801064
6	0x42fd796f	126.737175
7	0x41bca452	23.580235
8	0x4248872e	50.13201
9	0x42a0f5db	80.48019
10	0x423fce3e	47.95141
11	0x426820fc	58.03221
12	0x42942a31	74.082405
13	0x42ba6d09	93.21296
14	0x424a9668	50.64688
15	0x42840e95	66.02848
16	0x42736fc6	60.859154
17	0x42b50991	90.518684
18	0x4211d77f	36.460445
19	0x42fbef7d	125.96775
20	0x4282b4f7	65.35345
21	0x41f6496e	30.785854
22	0x42d41aac	106.05209
23	0x426fd7e4	59.96083
24	0x4232e62d	44.72478
25	0x423e04ad	47.504566
26	0x422a415d	42.56383
27	0x4270b4d0	60.176575
28	0x422bfe3b	42.998272
29	0x428ecc47	71.39898
30	0x42bc2909	94.08015
31	0x422e74ea	43.614174
32	0x43027287	130.44737
33	0x42685d6a	58.091225
34	0x42a4f965	82.4871
35	0x4245616f	49.34515
36	0x4296d9f6	75.425705
37	0x425dc53f	55.442623
38	0x42e07221	112.22291
39	0x428b64c7	69.69683
40	0x4296d22d	75.4105
41	0x42523369	52.550205
42	0x42f80aaa	124.02083
43	0x4287dda0	67.93286
44	0x42c16f0b	96.71688
45	0x41efa5db	29.955984
46	0x430b30ce	139.19064
47	0x43030721	131.02785
48	0x4301af58	129.68494
49	0x41d402da	26.501392
50	0x429c4a28	78.14484
51	0x42c119a5	96.55009
52	0x4291ea16	72.9572
53	0x42be4362	95.13161
54	0x426dcf55	59.452473
55	0x42341555	45.020832
56	0x4275254a	61.286415
57	0x42055367	33.331448
58	0x431b3a08	155.22668
59	0x42b15eba	88.68501
60	0x42b305b4	89.51114
61	0x42842ef3	66.0917
62	0x42abf5c4	85.98001
63	0x42703f00	60.061523
