models/spec_cnn/ncmmsc_spec/best_model.pth (torch, 490594 bytes, 36 tensors)

cnn_backbone.0.weight f4 [16, 3, 3, 3]
-0.121562056 -0.035622552 -0.047489617 -0.031629335 -0.17937633 -0.04860292 -0.13064574 -0.29172623
0.16286024 0.26071605 0.021322878 0.053402275 -0.0641406 -0.22644103 -0.14990869 0.02006449
-0.2068362 -0.12437713 0.124008305 0.0053704805 0.07083658 0.102939904 -0.02330266 0.024760861
-0.020930482 -0.16222475 0.22675103 -0.04241983 0.133865 0.06018106 0.05248737 0.17799363
0.123941325 -0.10799846 0.12759072 0.18021841 0.09730763 0.2505098 0.3789878 0.03848583
0.047053553 -0.10617264 0.054378387 0.2297551 0.06518679 -0.13323177 -0.15195061 -0.10409587
-0.202872 -0.14629078 -0.02071684 0.102175005 0.014081345 -0.135093 -0.102436826 0.07295678
-0.08839323 0.008723527 0.041326992 -0.06365484 -0.006607575 -0.04594529 -0.042966783 -0.09402103
-0.21417667 -0.11617357 -0.122941166 0.1117722 -0.09212463 -0.163314 -0.0009864089 0.030493826
0.048619118 0.14475563 0.21553242 -0.26276338 -0.00030159822 0.19162832 -0.106653735 -0.13762301
0.24074313 -0.055800587 -0.14024855 -0.17749637 -0.0023052592 0.01805729 0.005172897 0.042993415
-0.19428006 -0.21093184 0.017452585 0.15147617 0.10946361 -0.120131776 -0.07965319 -0.17143561
-0.092828475 -0.011757004 0.074022986 0.22214359 -0.1681735 0.13472869 -0.09608241 0.0587432
0.14720608 0.04157113 0.16182972 -0.18688756 -0.07289143 0.10215601 -0.06800495 -0.03991866
-0.08318918 0.10163501 0.079529874 0.056020975 -0.13295612 -0.15209915 0.018951753 0.03444816
-0.08656217 -0.042685505 0.106277086 0.0006426941 0.015975412 -0.064939536 -0.23556884 -0.18483236
-0.09821107 -0.15676935 0.059442624 -0.060522642 -0.14665791 0.17680937 0.0547473 0.12847893
-0.0898011 -0.097713925 0.052929237 -0.15089601 -0.16922235 -0.017049268 -0.10029032 -0.19215174
0.10136003 0.16400282 0.036088705 -0.05549619 -0.18946104 -0.07911041 0.038436055 0.0648852
-0.04608263 -0.012673661 0.15770583 -0.15559673 0.16243161 -0.06146684 -0.03520332 -0.012347744
0.020742707 -0.113600284 0.18581049 0.033921942 0.11129154 0.1977865 -0.09368317 -0.16808671
0.19963764 0.13129988 -0.17017682 0.039655413 -0.12355298 -0.20344172 0.058153026 0.063422866
0.014621573 0.015123043 0.16344547 0.004188134 -0.08087248 0.00828462 0.002163578 0.09528101
-0.12309209 0.02709778 -0.09124406 -0.15829103 -0.15568842 0.15621117 0.12458418 0.21565494
0.04759291 0.10739005 -0.050875477 -0.2625352 -0.007047749 -0.22756384 -0.1503434 -0.097079754
0.0915281 0.06255727 -0.087348364 -0.11465682 -0.109975345 -0.17927882 -0.24229708 0.05026171
-0.082419366 0.1530935 0.1394957 0.009241254 0.046856124 -0.024069007 -0.05871125 -0.053181734
0.018857535 0.100885 0.21733832 -0.01761854 -0.03795684 0.007754741 -0.0640334 0.08848461
0.18167835 0.17928629 0.13765526 -0.09299393 -0.04839989 0.022657523 0.030105975 0.061228327
-0.09523232 0.09739545 -0.10431347 -0.08332669 -0.12182126 0.21070702 -0.14008345 0.18552613
0.039116956 0.027046856 0.17347772 -0.052812632 0.121155135 0.11489418 -0.20882888 0.090312324
0.026936017 0.016215893 0.08671142 0.05371663 -0.09835542 -0.01035038 0.16277303 0.1193981
00000000: 87f5 f8bd f4e8 11bd 7984 42bd c38d 01bd
00000010: 6eae 37be db13 47bd ffc7 05be 245d 95be
00000020: d6c4 263e 937c 853e 51ad ae3c 58bc 5a3d
00000030: 265c 83bd 28e0 67be aa81 19be 495e a43c
00000040: decc 53be 70b9 febd 11f8 fd3d dbfa af3b
00000050: c512 913d 28d2 d23d 38e5 bebc 4ad7 ca3c
00000060: 6776 abbc 3f1e 26be 6c31 683e 6ac0 2dbd
00000070: e813 093e 6a80 763d fffc 563d f643 363e
00000080: f3d4 fd3d 4c2e ddbd 24a7 023e 2d8b 383e
00000090: 3949 c73d d242 803e b00a c23e 51a3 1d3d
000000a0: 3abb 403d 0b71 d9bd dfbb 5e3d ec44 6b3e
000000b0: a780 853d e96d 08be f198 1bbe 3730 d5bd
000000c0: adbd 4fbe 40cd 15be 5db6 a9bc 2141 d13d
000000d0: 71b5 663c d255 0abe 66ca d1bd 5d6a 953d
000000e0: 8307 b5bd 20ed 0e3c 7e46 293d 785d 82bd
000000f0: 5b84 d8bb 2131 3cbd f0fd 2fbd 198e c0bd
00000100: 2151 5bbe 69ec edbd 94c8 fbbd d3e8 e43d
00000110: d7ab bcbd c93b 27be 644a 81ba 30ce f93c
00000120: d724 473d d23a 143e 88b4 5c3e ec88 86be
00000130: d41f 9eb9 373a 443e 466d dabd 0ced 0cbe
00000140: 5e85 763e 288f 64bd 519d 0fbe 9cc1 35be
00000150: d513 17bb e2ec 933c 6881 a93b dd19 303d
00000160: 5af1 46be 84fe 57be b9f8 8e3c 921c 1b3e
00000170: 752e e03d a607 f6bd 3621 a3bd d18c 2fbe
00000180: db1c bebd 73a0 40bc 5d99 973d 9c79 633e
00000190: ad35 2cbe 51f6 093e dbc6 c4bd b69c 703d
000001a0: 31bd 163e 7d46 2a3d b1b6 253e 745f 3fbe
000001b0: 1a48 95bd 2c37 d13d 2e46 8bbd c081 23bd
000001c0: 175f aabd 0426 d03d 8fe0 a23d 4076 653d
000001d0: a625 08be e1bf 1bbe b540 9b3c 8419 0d3d
000001e0: 8247 b1bd ffd6 2ebd cda7 d93d 797a 283a
000001f0: dede 823c 05ff 84bd f538 71be b244 3dbe
00000200: e322 c9bd 2588 20be 1c7a 733d 97e6 77bd
00000210: 7e2d 16be 840d 353e b43e 603d fb8f 033e
00000220: a4e9 b7bd 3d1e c8bd 54cc 583d 7c84 1abe
00000230: a048 2dbe e8aa 8bbc 0365 cdbd 6dc3 44be
00000240: d995 cf3d 5bf0 273e c0d1 133d f94f 63bd
00000250: 1302 42be a304 a2bd 206f 1d3d 88e2 843d
00000260: 24c1 3cbd 30a5 4fbc a37d 213e c054 1fbe
00000270: 7954 263e a7c4 7bbd 5b31 10bd 314e 4abc
00000280: 9cec a93c 44a7 e8bd 1b45 3e3e bcf1 0a3d
00000290: d2ec e33d 8b88 4a3e f6dc bfbd ec1e 2cbe
000002a0: cf6d 4c3e 7a73 063e d542 2ebe b76d 223d
000002b0: 5809 fdbd 0753 50be de31 6e3d d9e3 813d
000002c0: 528f 6f3c a4c6 773c 405e 273e 9d3c 893b
000002d0: 79a0 a5bd 37bc 073c d1ca 0d3b b122 c33d
000002e0: b517 fcbd 2afc dd3c 2ade babd 0b17 22be
000002f0: c96c 1fbe d2f5 1f3e fe25 ff3d a6d4 5c3e
00000300: c8f0 423d 51ef db3d ce62 50bd 046b 86be
00000310: cef0 e6bb 7f06 69be 9ff3 19be c0d1 c6bd
00000320: 1673 bb3d 071e 803d b3e3 b2bd 32d1 eabd
00000330: c13a e1bd de94 37be ba1c 78be 39df 4d3d
00000340: 7ccb a8bd 8bc4 1c3e f6d7 0e3e a168 173c
00000350: 35ec 3f3d 5e2c c5bc 357b 70bd 17d5 59bd
00000360: 1e7b 9a3c cb9c ce3d f08d 5e3e c254 90bc
00000370: a278 1bbd 7b1b fe3b f123 83bd 6b37 b53d
00000380: e409 3a3e d396 373e 80f5 0c3e 9a73 bebd
00000390: f73e 46bd 459c b93c cea0 f63c 8eca 7a3d
000003a0: 2a09 c3bd 4477 c73d 4da2 d5bd 2fa7 aabd
000003b0: 6d7d f9bd 95c3 573e 0972 0fbe 90fa 3d3e
000003c0: 1a39 203d 5e91 dd3c 25a4 313e 0f52 58bd
000003d0: 2f20 f83d a44d eb3d 3dd7 55be abf5 b83d
000003e0: eca8 dc3c 31d7 843c c295 b13d f805 5c3d
000003f0: 916e c9bd a494 29bc f9ad 263e fe86 f43d

cnn_backbone.0.bias f4 [16]
0.00038528303 -0.00034214804 0.0013381374 -6.2283245e-05 0.000113857 8.3934596e-05 -0.000353004 0.0003498799
-0.00021255562 0.0004439975 5.7906436e-05 -0.00031495586 -9.54904e-05 -0.00034018746 0.0029104566 -0.00096220605
00000000: d0ff c939 5562 b3b9 7164 af3a 109e 82b8
00000010: 83c6 ee38 0b06 b038 6513 b9b9 1670 b739
00000020: 77e1 5eb9 56c8 e839 90e0 7238 a920 a5b9
00000030: 0542 c8b8 305b b2b9 5cbd 3e3b 8e3c 7cba

cnn_backbone.1.weight f4 [16]
1.0156147 0.9767352 1.13564 1.0180887 0.96094835 1.0751772 0.95851994 1.0868112
0.94244844 0.936236 0.98729926 0.9123049 0.9680519 1.0793579 1.0277058 0.88482374
00000000: aaff 813f 510b 7a3f a75c 913f bb50 823f
00000010: b600 763f 689f 893f 9061 753f a11c 8b3f
00000020: 4d44 713f 2aad 6f3f a5bf 7c3f d08c 693f
00000030: 40d2 773f 6628 8a3f dd8b 833f cf83 623f

cnn_backbone.1.bias f4 [16]
0.08503736 -0.15251061 -0.102391884 0.027495645 -0.036734987 -0.008729223 -0.1407835 -0.0026710038
-0.016066128 -0.01919481 0.06002199 -0.033409424 0.057450525 0.03455363 0.0413644 -0.02871928
00000000: 1128 ae3d be2b 1cbe d6b2 d1bd 8c3e e13c
00000010: 6d77 16bd 0405 0fbc 8d29 10be 020c 2fbb
00000020: 1d9d 83bc 6f3e 9dbc 9ed9 753d 52d8 08bd
00000030: 3e51 6b3d 1b88 0d3d b86d 293d b244 ebbc

cnn_backbone.1.running_mean f4 [16]
-0.09817569 0.01017144 -0.002713908 -0.085396774 -0.20104705 -0.16220635 -0.033690922 0.011877242
0.19242156 0.22763248 -0.29969695 -0.19202249 -0.0029767754 -0.11541866 0.10121441 -0.0686446
00000000: 5610 c9bd 1da6 263c d2db 31bb 81e4 aebd
00000010: 47df 4dbe 6c19 26be 7eff 09bd c398 423c
00000020: 280a 453e 7d18 693e e171 99be 8ba1 44be
00000030: 0116 43bb 9e60 ecbd 8049 cf3d 8a95 8cbd

cnn_backbone.1.running_var f4 [16]
0.016266417 0.01314182 0.0051197647 0.010798192 0.011835401 0.02029013 0.0067345616 0.0018779222
0.01809695 0.020647196 0.034181245 0.013190482 0.0027582773 0.01700771 0.0030646655 0.002780949
00000000: 2641 853c ca50 573c b3c3 a73b e6ea 303c
00000010: 45e9 413c 7d37 a63c 99ad dc3b 9d24 f63a
00000020: 0e40 943c 4f24 a93c a201 0c3d e41c 583c
00000030: 37c4 343b c153 8b3c 8ed8 483b 9540 363b

cnn_backbone.4.weight f4 [32, 16, 3, 3]
-0.070520744 -0.10054331 -0.071804225 0.043908127 -0.10813942 -0.10693736 0.04329052 0.021404855
0.033572044 -0.092810355 -0.06160068 -0.009648695 0.05893712 0.06663248 -0.0034264745 -0.0051138606
0.08037571 -0.10132633 -0.048968688 0.06793999 -0.09355398 -0.07244052 0.044283308 -0.032066643
0.010249728 -0.013403311 -0.05489566 0.045495845 -0.09932021 -0.01858959 0.019042017 -0.09153097
0.06654207 -0.06966637 -0.0710201 -0.04876262 -0.078832135 -0.11813402 -0.01886378 -0.012738743
-0.12295264 -0.11622173 0.04423973 -0.025846038 -0.032143973 -0.10690159 -0.06847742 -0.023618866
-0.08516691 -0.09740404 -0.012924716 -0.054880533 -0.04670993 -0.010938239 -0.11909242 0.0035741243
0.015900997 -0.10980932 -0.08742688 0.04061221 -0.079050064 -0.070761435 0.05420735 -0.017013835
0.05538985 0.055290718 -0.0053946762 0.10759004 -0.02832178 -0.01047643 0.006169503 -0.02959727
0.04756514 -0.023139495 -0.03272465 -0.09885804 0.04876363 -0.063675635 -0.10524702 0.0033688582
-0.01847796 0.11440975 -0.021390246 -0.031161996 0.08068109 0.07146158 0.051395945 0.06997598
0.002340245 0.050554402 0.042507853 -0.04945618 0.026949303 0.007287721 0.030231463 -0.09135541
-0.065096155 -0.05525424 -0.028889298 0.016574083 -0.08720266 -0.0056972993 -0.06697035 0.00015511664
-0.05573145 -0.10884088 -0.089604184 -0.10633497 0.029161517 -0.091602534 -0.017883362 -0.0054146517
-0.083698794 0.010608371 -0.090728156 -0.09566274 -0.08739532 -0.022389786 -0.060276233 -0.022669325
-0.018873038 0.015053607 0.0435114 0.023282226 -0.064251676 -0.11447461 0.03504419 -0.0053171455
0.054889638 0.073235504 0.0929197 0.091172166 0.038801927 0.03257491 -0.09594348 0.03472785
-0.049225863 -0.06137164 0.03154452 0.05378541 0.0065777255 -0.0616056 -0.08405248 -0.04481831
0.06713432 -0.03038257 0.013048175 -0.014393466 -0.06697009 0.07048383 -0.019275669 -0.0042391545
-0.014887026 0.049152493 0.043129716 -0.06921753 0.07175566 0.06433826 -0.0077701234 0.08791116
0.0015465753 -0.15572739 0.06276476 0.029684437 -0.06848411 0.05729433 0.047499493 0.04508465
0.06439758 -0.008104759 -0.04614823 -0.04004498 -0.06371964 0.12903501 0.015895156 0.03336091
0.047223188 -0.0130913835 -0.014385805 -0.032595288 -0.08421018 -0.10821561 -0.11674919 -0.12013521
-0.017677166 0.013784133 -0.047522727 -0.037289213 -0.12208066 -0.0626192 0.013799714 0.018356407
-0.05653553 -0.06853925 0.06815513 -0.11183794 -0.017946875 0.11213342 -0.05164848 -0.030099021
0.08577291 -0.06462284 -0.0068198903 0.10681646 -0.05451157 -0.053466883 -0.0053713657 0.013043746
0.047867924 -0.018193489 -0.003483406 0.029565394 -0.09045225 -0.07416461 0.0030200968 -0.11321437
-0.015785156 -0.072705604 -0.074081324 -0.047988843 -0.06853952 -0.17068273 0.04910211 -0.04362403
-0.12723854 0.069021024 0.103548065 -0.03220688 -0.075241044 -0.005467205 -0.12585412 0.07976299
0.06744373 -0.14064406 -0.037971325 -0.11661475 -0.036346804 -0.047373258 0.030874321 0.017607879
-0.07338111 -0.056315146 -0.06278895 -0.027359834 -0.043995067 -0.036197163 -0.07697932 0.006176621
-0.056030706 -0.10902316 -0.04013319 -0.006040008 0.03771355 -0.043594237 -0.011153031 0.011295623
00000000: 2e6d 90bd a7e9 cdbd 180e 93bd 02d9 333d
00000010: 3378 ddbd f901 dbbd 6651 313d 3c59 af3c
00000020: d782 093d 5b13 bebd ff50 7cbd 8f15 1ebc
00000030: 0d68 713d 9c76 883d b48e 60bb 2c92 a7bb
00000040: 059c a43d 2e84 cfbd 6493 48bd 1f24 8b3d
00000050: 3b99 bfbd b25b 94bd 6a62 353d 5058 03bd
00000060: 7aee 273c 9099 5bbc 46da 60bd da59 3a3d
00000070: 6568 cbbd 3249 98bc 01fe 9b3c 9774 bbbd
00000080: 3547 883d 3ead 8ebd fc72 91bd 50bb 47bd
00000090: be72 a1bd 40f0 f1bd 3788 9abc 29b6 50bc
000000a0: 98ce fbbd a905 eebd b834 353d 12bb d3bc
000000b0: 66a9 03bd 39ef dabd e43d 8cbd 5a7c c1bc
000000c0: fd6b aebd c57b c7bd 30c2 53bc 69ca 60bd
000000d0: e952 3fbd 4d36 33bc bae6 f3bd db3b 6a3b
000000e0: cf42 823c b5e3 e0bd dd0c b3bd fd58 263d
000000f0: 00e5 a1bd 5feb 90bd 8708 5e3d 9960 8bbc
00000100: 78e0 623d 8578 623d d3c5 b0bb 2b58 dc3d
00000110: 1403 e8bc 55a5 2bbc 8b29 ca3b f975 f2bc
00000120: aad3 423d 0a8f bdbc 480a 06bd 1676 cabd
00000130: 5fbc 473d 5f68 82bd c08b d7bd 10c8 5c3b
00000140: 175f 97bc a94f ea3d 993a afbc 7147 ffbc
00000150: 213c a53d 735a 923d 8e84 523d 914f 8f3d
00000160: cc5e 193b 2212 4f3d b71c 2e3d 9092 4abd
00000170: c9c4 dc3c d6cd ee3b f9a7 f73c 8c18 bbbd
00000180: 2251 85bd 4552 62bd 40a9 ecbc 5fc6 873c
00000190: 4f97 b2bd 69b0 babb c027 89bd cea6 2239
000001a0: a946 64bd f8e7 debd 6682 b7bd 26c6 d9bd
000001b0: 22e4 ee3c 1c9a bbbd 2180 92bc 646d b1bb
000001c0: 466a abbd bcce 2d3c afcf b9bd d4ea c3bd
000001d0: 51fc b2bd c96a b7bc 36e4 76bd 05b5 b9bc
000001e0: a19b 9abc 67a3 763c 0339 323d 5eba be3c
000001f0: 6296 83bd aa71 eabd 7f8a 0f3d 733b aebb
00000200: f5d3 603d 7ffc 953d af4c be3d 79b8 ba3d
00000210: c5ee 1e3d 456d 053d 047e c4bd ca3e 0e3d
00000220: 0fa1 49bd d460 7bbd d434 013d 174e 5c3d
00000230: f689 d73b 2756 7cbd b523 acbd 6793 37bd
00000240: b87d 893d dee4 f8bc 03c8 553c 92d2 6bbc
00000250: 9d27 89bd d459 903d 02e8 9dbc 9be8 8abb
00000260: b6e8 73bc 2054 493d c9a8 303d ecc1 8dbd
00000270: a2f4 923d c7c3 833d 859c febb c40a b43d
00000280: 75b6 ca3a 0077 1fbe cf8a 803d c72c f33c
00000290: 6641 8cbd 76ad 6a3d d48e 423d afaa 383d
000002a0: e1e2 833d d3c9 04bc ed05 3dbd 3406 24bd
000002b0: 717f 82bd c121 043e 8f36 823c 73a5 083d
000002c0: 1a6d 413d 3e7d 56bc 71b2 6bbc a382 05bd
000002d0: 6376 acbd 25a0 ddbd 331a efbd 7309 f6bd
000002e0: b4cf 90bc d8d6 613c 31a7 42bd 93bc 18bd
000002f0: 6d05 fabd 7f3e 80bd 3218 623c 2d60 963c
00000300: cd91 67bd 4e5e 8cbd eb94 8b3d 4a0b e5bd
00000310: 5305 93bc 35a6 e53d 5b8d 53bd 3992 f6bc
00000320: b5a9 af3d fb58 84bd 6379 dfbb 97c2 da3d
00000330: 8647 5fbd 1700 5bbd 4802 b0bb 70b5 553c
00000340: 2811 443d 830a 95bc db49 64bb 2033 f23c
00000350: 073f b9bd 9de3 97bd d1ec 453b f0dc e7bd
00000360: df4f 81bc ade6 94bd f3b7 97bd f38f 44bd
00000370: 735e 8cbd 74c7 2ebe 4b1f 493d 1caf 32bd
00000380: d24a 02be e55a 8d3d 0211 d43d 5deb 03bd
00000390: fa17 9abd 3d26 b3bb e7df 00be c75a a33d
000003a0: f01f 8a3d ff04 10be d287 1bbd b7d3 eebd
000003b0: 63e0 14bd 760a 42bd 25ec fc3c 663e 903c
000003c0: d648 96bd b6aa 66bd 7e97 80bd bb21 e0bc
000003d0: 2c34 34bd 7a43 14bd 55a7 9dbd 4165 ca3b
000003e0: 7480 65bd 8947 dfbd b362 24bd 42eb c5bb
000003f0: 8679 1a3d df8f 32bd 34bb 36bc 4711 393c

cnn_backbone.4.bias f4 [32]
2.737082e-06 5.281222e-06 2.1050733e-05 1.4234734e-05 4.922549e-05 -8.365299e-05 -6.6477594e-05 -9.650992e-05
-1.0154675e-05 7.334721e-05 2.83901e-05 -1.3241696e-05 1.0284202e-05 -1.5207824e-05 9.252824e-06 -8.958902e-06
1.1438115e-06 1.7309669e-06 2.1046857e-05 -2.1574862e-05 1.3176248e-05 7.0556025e-06 1.0908701e-05 8.547189e-06
3.6854979e-06 -2.956903e-05 2.1518605e-05 8.432975e-06 4.271237e-06 5.7276934e-06 -1.3531545e-05 -4.35086e-06
00000000: b6ae 3736 5a35 b136 1b96 b037 b8d1 6e37
00000010: 7877 4e38 db6e afb8 e369 8bb8 5e65 cab8
00000020: ff5d 2ab7 fcd1 9938 4727 ee37 a728 5eb7
00000030: 508a 2c37 1b25 7fb7 943c 1b37 314e 16b7
00000040: 1085 9935 9253 e835 c88d b037 aafb b4b7
00000050: 8e0f 5d37 2abf ec36 8404 3737 e665 0f37
00000060: 5f54 7736 020b f8b7 da82 b437 5a7b 0d37
00000070: a551 8f36 8330 c036 8b05 63b7 9afd 91b6

cnn_backbone.5.weight f4 [32]
0.8987634 1.0313472 0.9765662 0.8830567 1.0475835 1.029327 1.0215162 1.0461357
0.953331 1.0130461 0.9133289 1.0280043 0.92230225 0.9924155 0.88902414 0.8225652
1.0126275 1.0802158 0.90943456 1.0409964 1.0123374 1.0231172 0.9524597 1.0520508
0.96913075 1.053826 1.0268353 1.0170282 0.93039405 1.072081 1.0831754 0.9806031
00000000: 5c15 663f 2f03 843f 3e00 7a3f 0110 623f
00000010: 3717 863f fdc0 833f 0bc1 823f c6e7 853f
00000020: 800d 743f 7fab 813f eccf 693f a595 833f
00000030: 001c 6c3f f10e 7e3f 1697 633f a293 523f
00000040: c79d 813f 8344 8a3f b4d0 683f 5f3f 853f
00000050: 4694 813f 81f5 823f 66d4 733f 9aa9 863f
00000060: f418 783f c5e3 863f 576f 833f fb2d 823f
00000070: 4e2e 6e3f f339 893f 7ea5 8a3f ce08 7b3f

cnn_backbone.5.bias f4 [32]
-0.0524206 0.03583224 -0.018731173 -0.09032549 -0.004899352 -0.066009246 0.00076866616 -0.016427202
-0.0050553693 -0.059130788 0.03173022 0.033921495 -0.052234963 -0.0008500028 -0.10813933 -0.11491489
-0.08730188 0.040464465 -0.066585034 -0.009987004 0.059698556 0.012692432 -0.105119154 0.044007163
0.0040331683 0.005397259 -0.014118686 0.09160505 -0.05191436 0.043898724 0.039296824 -0.005909616
00000000: fcb6 56bd d4c4 123d 1e72 99bc 92fc b8bd
00000010: be8a a0bb db2f 87bd 5080 493a 5792 86bc
00000020: 83a7 a5bb 2033 72bd 8cf7 013d 44f1 0a3d
00000030: 54f4 55bd b9d2 5eba 2778 ddbd 7f58 ebbd
00000040: 54cb b2bd 11be 253d bc5d 88bd 88a0 23bc
00000050: 7986 743d ebf3 4f3c b648 d7bd db40 343d
00000060: ab28 843b 7ddb b03b 1052 67bc 6e9b bb3d
00000070: 27a4 54bd 26cf 333d b5f5 203d 74a5 c1bb

cnn_backbone.5.running_mean f4 [32]
-1.7151291 -2.0237577 -0.1385422 -1.362698 -2.2718368 4.2710094 -2.3561409 -0.68991107
-1.6836501 3.5321982 -4.263597 -0.62938815 -0.6279773 -1.8981998 -1.2212445 -0.9935235
1.0883003 1.407792 -1.6717134 -2.1520033 -3.258139 -2.3826027 0.7281564 0.770558
-1.6408633 -3.2032423 -1.7411921 -0.74668556 -1.7236336 1.7088072 1.1301382 -0.27930596
00000000: 5a89 dbbf 3f85 01c0 02de 0dbe e36c aebf
00000010: c665 11c0 1cac 8840 03cb 16c0 039e 30bf
00000020: d981 d7bf 890f 6240 636f 88c0 951f 21bf
00000030: 1fc3 20bf 36f8 f2bf bd51 9cbf 8e57 7ebf
00000040: 6d4d 8b3f 8732 b43f b4fa d5bf 6cba 09c0
00000050: 5985 50c0 907c 18c0 7568 3a3f 4a43 453f
00000060: cf07 d2bf ec01 4dc0 62df debf c926 3fbf
00000070: 07a0 dcbf 32ba da3f 5ea8 903f 3101 8fbe

cnn_backbone.5.running_var f4 [32]
2.498939 1.3835783 1.1141899 3.5574791 4.4685745 1.6220576 2.4545295 1.8904417
1.4635547 1.1913387 1.9763961 3.439788 1.6231806 1.5927665 0.6155154 3.4115725
3.5376008 4.5442977 3.3389947 3.4642606 1.610945 4.2014923 3.9834404 2.9096627
2.9166317 3.0281727 2.9667056 5.821175 2.6515763 4.2482686 2.3072155 3.599103
00000000: 9eee 1f40 1819 b13f c69d 8e3f bdad 6340
00000010: 90fe 8e40 959f cf3f 0317 1d40 fef9 f13f
00000020: c355 bb3f c97d 983f 8cfa fc3f 7d25 5c40
00000030: 62c4 cf3f c6df cb3f 6b92 1d3f 3457 5a40
00000040: 0d68 6240 e36a 9140 17b2 5540 72b6 5d40
00000050: 7233 ce3f a072 8640 b0f0 7e40 ea37 3a40
00000060: 18aa 3a40 95cd 4140 81de 3d40 1147 ba40
00000070: 6db3 2940 d1f1 8740 6ba9 1340 b457 6640

cnn_backbone.8.weight f4 [64, 32, 3, 3]
0.02479923 0.02422 0.06939507 0.11434012 0.06499281 0.104061164 0.07525662 0.06424985
-0.019869618 -0.03373477 0.0027539725 0.055940572 -9.805974e-05 0.05189541 0.105788305 0.011078678
0.016198669 0.090377524 0.030159699 0.10311416 0.09011524 0.03553124 0.0848453 0.10779457
0.04702777 0.046808355 0.016359739 0.046654876 -0.01447727 -0.02152977 0.016289318 0.051067393
0.008442046 -0.0036590325 0.00904763 0.05737573 -0.06580492 -0.08916552 -0.060631756 -0.035708413
-0.0027406425 -0.043574452 0.027209347 -0.0019836342 -0.050633673 0.12344618 0.05580568 0.122231305
0.11446741 0.075952806 0.024952093 0.10795967 0.11358708 0.16135836 0.0102482475 0.055417232
0.01166869 -0.00088860403 0.01398277 0.002209216 0.0077090943 0.01964519 0.038113687 0.045894872
-0.0016049468 0.027945604 0.00441518 -0.047367744 -0.02469991 0.028139872 -0.0038223518 -0.06209878
-0.041667636 -0.045113117 0.005328842 0.023148123 -0.012771802 0.056967176 0.0032875421 -0.017270103
-0.04501247 0.08925443 0.1255084 0.06551706 0.028543174 0.1163882 0.09474558 0.048377335
0.11753322 0.014260176 0.003636679 0.06759496 -0.01362522 -0.004464654 -0.0038927938 -0.004325967
0.087830745 0.0884142 -0.006338123 -0.059199452 -0.024670107 -0.052323967 -0.07079549 -0.10305637
-0.00088137767 0.03536858 0.005243504 -0.012366591 0.0070309504 0.036738914 0.09614999 0.08657045
0.12564752 0.120132335 0.07501614 0.07951872 0.11608323 -0.023154875 -0.00832641 -0.029522102
0.0023779902 -0.04635192 0.051538553 -0.05219892 -0.022294553 -0.06264286 0.0051525207 0.002940224
-0.012125618 0.023412745 0.065166555 0.059009656 0.006474676 0.043201856 0.1278834 -0.008595442
-0.0431986 -0.02936005 0.0022662377 -0.017072886 0.002766894 0.042675264 -0.036978543 -0.02068804
0.022543749 -0.026351037 0.049703725 0.056005802 0.0049279993 -0.04064122 0.039769523 0.06501712
0.027847433 0.059296776 0.008868953 -0.020578496 0.005029615 0.024849435 0.0698599 0.04212966
0.007477229 0.0016510044 -0.01262003 -0.03386025 -0.027786182 0.031831145 0.05515444 0.06595137
0.018667538 -0.05046949 0.04808877 0.0112168705 -0.04638119 -0.017689241 0.017474703 -0.03440157
0.012092741 -0.04101956 0.0025004281 -0.0017220452 0.070743 0.031496987 -0.015065372 0.056212466
-0.017016076 0.009572579 0.016753128 -0.029231379 -0.013546198 -0.09198952 -0.07480288 -0.018577334
0.013938798 0.0149537185 0.0007185228 -0.024864333 -0.11119681 -0.101480074 0.08982955 -0.006427298
0.103552684 0.077393495 0.023860112 0.09572539 0.066934004 0.06370085 0.06640606 -0.006617667
0.044413228 0.016696723 -0.008541103 -0.009322758 -0.045224823 0.010364986 0.076482974 0.019439785
-6.8580004e-05 -0.010181204 -0.086511835 0.009308855 0.0039047021 0.042452235 -0.06327262 -0.0024880648
-0.10381395 0.04501687 0.045299433 -0.00017054378 -0.015577303 -0.033657297 0.024937693 0.0078014075
-0.027520098 0.048922945 -0.025020445 -0.019803366 0.045613557 0.027441107 0.055215806 0.06026284
-0.031645037 0.01153741 0.0672696 -0.0029621758 0.041818496 0.047197342 0.03060502 0.008461083
0.021716047 0.0040330775 0.08831695 0.072204925 -0.063579224 -0.043020725 -0.031093724 0.027265871
00000000: c127 cb3c 0569 c63c 011f 8e3d 272b ea3d
00000010: f31a 853d 051e d53d 2520 9a3d 6d95 833d
00000020: 9cc5 a2bc 782d 0abd fe7b 343b f121 653d
00000030: 6ca5 cdb8 4890 543d 8aa7 d83d 5883 353c
00000040: 12b3 843c da17 b93d 7911 f73c 842d d33d
00000050: 578e b83d 3589 113d 5fc3 ad3d 66c3 dc3d
00000060: 31a0 403d 1eba 3f3d dc04 863c 2f19 3f3d
00000070: 1232 6dbc 335f b0bc 2d71 853c 0b2c 513d
00000080: 8250 0a3c 61cc 6fbb 833c 143c d002 6b3d
00000090: bbc4 86bd 6a9c b6bd 0159 78bd fc42 12bd
000000a0: 5a9c 33bb 207b 32bd 23e6 de3c dcff 01bb
000000b0: 4165 4fbd 5ad1 fc3d 7f94 643d 6854 fa3d
000000c0: e46d ea3d 258d 9b3d 5568 cc3c f619 dd3d
000000d0: 58a0 e83d 203b 253e 44e8 273c 2efd 623d
000000e0: 082e 3f3c 35f1 68ba fd17 653c 7ec8 103b
000000f0: 929c fc3b f3ee a03c 191d 1c3d 43fc 3b3d
00000100: 145d d2ba 2eee e43c 37ad 903b ae04 42bd
00000110: 7757 cabc 9785 e63c 6c80 7abb 4a5b 7ebd
00000120: afab 2abd 88c8 38bd 919d ae3b 22a1 bd3c
00000130: d240 51bc 6a56 693d ce73 573b 087a 8dbc
00000140: ff5e 38bd 07cb b63d 4685 003e cf2d 863d
00000150: 60d3 e93c f05c ee3d f809 c23d 5027 463d
00000160: 42b5 f03d 83a3 693c 5955 6e3b 3a6f 8a3d
00000170: 513c 5fbc 3b4c 92bb 3e1e 7fbb d7c0 8dbb
00000180: 9be0 b33d 8112 b53d 08b0 cfbb 207b 72bd
00000190: f718 cabc a851 56bd 3afd 90bd 380f d3bd
000001a0: 410c 67ba a5de 103d b3d1 ab3b 3e9d 4abc
000001b0: e363 e63b 8b7b 163d 49ea c43d d94b b13d
000001c0: bea9 003e f107 f63d 10a2 993d b6da a23d
000001d0: 0bbd ed3d 4baf bdbc 7f6b 08bc 56d8 f1bc
000001e0: 0ed8 1b3b 83db 3dbd 171a 533d 89ce 55bd
000001f0: 11a3 b6bc e64a 80bd 7ad6 a83b c6b0 403b
00000200: 87aa 46bc 16cc bf3c 0b76 853d 1cb4 713d
00000210: 8529 d43b 6ef4 303d def3 023e e6d3 0cbc
00000220: 04f1 30bd 7d84 f0bc 2985 143b 70dc 8bbc
00000230: c754 353b 42cc 2e3d d076 17bd f779 a9bc
00000240: abad b83c 21de d7bc 2296 4b3d 5766 653d
00000250: 0e7b a13b 6877 26bd 5ee5 223d b227 853d
00000260: 4d20 e43c 2de1 723d 164f 113c 3c94 a8bc
00000270: 78cf a43b 0b91 cb3c b512 8f3d 2690 2c3d
00000280: 8b03 f53b 8466 d83a 3ec4 4ebc 0cb1 0abd
00000290: d99f e3bc 6061 023d 9fe9 613d 8311 873d
000002a0: aaec 983c 19b9 4ebd bbf8 443d f7c6 373c
000002b0: 34fa 3dbd 07e9 90bc 1c27 8f3c a9e8 0cbd
000002c0: a220 463c 2004 28bd 39de 233b 40b6 e1ba
000002d0: b5e1 903d fc02 013d c0d4 76bc 0b3f 663d
000002e0: 4c65 8bbc 4ed6 1c3c db3d 893c a576 efbc
000002f0: dff0 5dbc 0065 bcbd 4132 99bd 7e2f 98bc
00000300: 8e5f 643c 7100 753c 405b 3c3a 49b0 cbbc
00000310: 27bb e3bd c9d4 cfbd 8ef8 b73d 159c d2bb
00000320: 6e13 d43d 7b80 9e3d 4876 c33c ac0b c43d
00000330: b214 893d 9775 823d e6ff 873d 04d9 d8bb
00000340: a5ea 353d 91c7 883c fcef 0bbc 7bbe 18bc
00000350: aa3d 39bd e7d1 293c 1ba3 9c3d 2f40 9f3c
00000360: 9cd2 8fb8 11cf 26bc 1e2d b1bd 2b84 183c
00000370: 08e6 7f3b 65e2 2d3d 1395 81bd cd0e 23bb
00000380: 699c d4bd 9c63 383d e68b 393d ffd3 32b9
00000390: f237 7fbc 3cdc 09bd 224a cc3c f3a2 ff3b
000003a0: d471 e1bc 6d63 483d adf7 ccbc ab3a a2bc
000003b0: 48d5 3a3d 2ccc e03c f829 623d 2bd6 763d
000003c0: 3a9e 01bd 6807 3d3c a5c4 893d 1021 42bb
000003d0: df49 2b3d 0052 413d 61b7 fa3c 5ba0 0a3c
000003e0: dae5 b13c e827 843b 84df b43d 2de0 933d
000003f0: d335 82bd 8036 30bd 44b8 febc ad5c df3c

cnn_backbone.8.bias f4 [64]
1.9295429e-05 -5.386489e-05 -1.4633462e-05 2.9536654e-06 -2.105482e-06 1.781193e-06 1.08669565e-05 1.1527704e-05
2.839913e-05 -1.6770977e-06 8.303374e-06 2.477064e-06 4.134474e-06 -3.107814e-05 6.0124707e-06 -1.7155007e-05
-6.201206e-06 7.421349e-07 6.310906e-06 2.0283951e-05 -1.5794833e-05 -2.8868899e-05 2.0331892e-05 -9.667741e-06
-6.0997136e-06 -7.626456e-06 -2.0957073e-06 6.367751e-06 -9.2700875e-06 -3.6653753e-05 -2.2846004e-06 2.062857e-06
7.149696e-06 -2.7445549e-06 5.7515585e-06 -9.563544e-05 -4.0758317e-05 1.0092659e-05 8.952717e-06 -1.709629e-05
-4.6619602e-06 -1.2781024e-05 3.729132e-07 5.8471243e-05 1.1553908e-05 -5.9158124e-06 -4.7373032e-06 -1.093589e-05
-2.5198155e-05 -1.9657084e-06 -1.2534158e-05 -8.021803e-06 7.2193816e-06 -1.7665212e-05 1.4270879e-06 1.0435477e-05
-7.752127e-06 -2.0098805e-05 4.037589e-06 -2.4121098e-06 -5.205337e-07 1.4348521e-05 4.2957226e-06 -4.250497e-05
00000000: 9edc a137 fcec 61b8 3e82 75b7 9637 4636
00000010: e84b 0db6 5311 ef35 3951 3637 1d67 4137
00000020: ab3a ee37 a318 e1b5 b84e 0b37 a33b 2636
00000030: dcba 8a36 e659 02b8 bbbe c936 19e8 8fb7
00000040: f413 d0b6 1f37 4735 45c2 d336 7427 aa37
00000050: 257f 84b7 7d2b f2b7 688e aa37 a232 22b7
00000060: 24ac ccb6 c2e6 ffb6 faa3 0cb6 91aa d536
00000070: b986 1bb7 abbc 19b8 2351 19b6 9d6f 0a36
00000080: 6ce7 ef36 182f 38b6 83fd c036 e38f c8b8
00000090: e9f3 2ab8 a453 2937 a033 1637 016a 8fb7
000000a0: ef6d 9cb6 156e 56b7 cd34 c834 053f 7538
000000b0: a8d7 4137 7180 c6b6 20f5 9eb6 4a79 37b7
000000c0: a060 d3b7 9dea 03b6 cc49 52b7 6295 06b7
000000d0: 043e f236 c12f 94b7 5e8a bf35 0814 2f37
000000e0: 220f 02b7 db99 a8b7 a07a 8736 bbdf 21b6
000000f0: ceba 0bb5 6eba 7037 fa23 9036 5d47 32b8

cnn_backbone.9.weight f4 [64]
0.9272582 1.0880753 1.0764165 0.94645983 1.0935658 0.95243907 0.9102349 0.9546537
1.0220009 1.0391486 0.9101376 0.92760897 1.0240604 1.0347797 1.032136 0.9552805
0.92197645 0.9691675 0.9080827 0.9795843 1.0395615 1.0150784 1.0448879 0.9265174
0.929197 0.9992133 0.9387926 0.94469494 0.9200001 0.997169 0.98411566 0.98877305
1.0302423 0.8864137 0.943344 1.0529802 0.9795053 1.0104079 0.9506099 1.0260953
1.024947 1.0535728 0.9489843 1.0986495 0.9422134 0.9610869 0.95214176 0.94707245
1.0372589 0.95690286 0.97533697 0.9462748 1.0212808 0.9903825 1.0158997 0.9925551
0.95168024 1.00123 1.0083898 1.0392251 0.966679 1.005904 1.053073 1.0583631
00000000: cb60 6d3f 0d46 8b3f 04c8 893f 314b 723f
00000010: f7f9 8b3f 0cd3 733f 2805 693f 2f64 743f
00000020: edd0 823f d202 853f c7fe 683f c877 6d3f
00000030: 6914 833f a973 843f 081d 843f 438d 743f
00000040: a606 6c3f 5c1b 783f 1c78 683f 09c6 7a3f
00000050: 5a10 853f 17ee 813f e3be 853f 3f30 6d3f
00000060: dbdf 6d3f 71cc 7f3f b654 703f 87d7 713f
00000070: 2085 6b3f 7846 7f3f 01ef 7b3f 3b20 7d3f
00000080: fbde 833f 02ec 623f fe7e 713f 0ec8 863f
00000090: dcc0 7a3f 0c55 813f 2c5b 733f 1757 833f
000000a0: 7731 833f 79db 863f a3f0 723f 8ca0 8c3f
000000b0: e634 713f cb09 763f 90bf 733f 5773 723f
000000c0: e6c4 843f 96f7 743f afaf 793f 113f 723f
000000d0: 54b9 823f b589 7d3f 0009 823f 1718 7e3f
000000e0: 51a1 733f 4e28 803f eb12 813f 5405 853f
000000f0: 4678 773f 76c1 803f 19cb 863f 7178 873f

cnn_backbone.9.bias f4 [64]
-0.093718894 0.019789826 -0.04515431 -0.06938082 0.06429328 -0.03886126 -0.0705381 -0.07232767
-0.07015074 -0.036763724 -0.073684946 -0.067302145 -0.037418783 0.053159196 0.08919042 -0.06590838
-0.08208981 -0.095668025 -0.07591043 -0.03165907 -0.050148603 -0.013936949 0.009858986 -0.07624212
-0.06085126 0.008520811 -0.02332283 -0.06501643 -0.100041464 -0.059819 -0.05264026 0.008521205
-0.025734145 -0.08466458 -0.05085955 -0.05452521 -0.07914929 -0.018586919 -0.04758694 -0.024673643
-0.032263517 -0.069573045 -0.03693134 0.017746976 -0.04181353 0.025302183 -0.056286857 -0.055093575
-0.055513095 -0.056326244 -0.0034547623 -0.0507905 -0.04662636 -0.08298614 -0.033439524 -0.04972568
-0.041040834 0.08197327 -0.028475445 -0.04926209 0.035002314 -0.05205826 -0.052471783 -0.055975135
00000000: b1ef bfbd 461e a23c baf3 38bd 8817 8ebd
00000010: 32ac 833d fc2c 1fbd 4876 90bd 8820 94bd
00000020: 31ab 8fbd 8f95 16bd 22e8 96bd b5d5 89bd
00000030: 7044 19bd 75bd 593d 78a9 b63d f9fa 86bd
00000040: b41e a8bd 99ed c3bd ed76 9bbd f1ac 01bd
00000050: 9f68 4dbd cd57 64bc 9687 213c d424 9cbd
00000060: 2c3f 79bd df9a 0b3c 850f bfbc 5627 85bd
00000070: 8ae2 ccbd c504 75bd 509d 57bd 869c 0b3c
00000080: 6ad0 d2bc a064 adbd 1a52 50bd d455 5fbd
00000090: 0619 a2bd 9843 98bc 86ea 42bd 6120 cabc
000000a0: c026 04bd 507c 8ebd 5145 17bd 1b62 913c
000000b0: aa44 2bbd 8646 cf3c 0c8d 66bd cda9 61bd
000000c0: b361 63bd 59b6 66bd 4b69 62bb b309 50bd
000000d0: 48fb 3ebd a3f4 a9bd e2f7 08bd 28ad 4bbd
000000e0: 6f1a 28bd 9ae1 a73d 5645 e9bc 0cc7 49bd
000000f0: 965e 0f3d 0b3b 55bd a7ec 56bd 2f46 65bd

cnn_backbone.9.running_mean f4 [64]
2.7733452 5.621265 -2.9875367 -3.1437685 7.1529284 -2.1697412 -2.2655823 -2.7698376
5.314994 -3.5678613 0.37484625 -2.6179724 -3.3069274 -5.1274414 3.1902366 -3.9043512
-3.2790794 -2.3624456 2.336722 2.0827565 -2.9165456 3.3966558 5.7489476 -3.3290596
-3.2223573 -1.8560892 -1.4707772 -3.020716 -2.049466 -2.6263287 -2.7926624 1.3256141
-4.763387 1.3543195 0.80353636 4.94949 -2.6001484 -4.023939 2.877775 -3.1736176
-2.8861158 -2.4760046 -2.518601 6.5412545 0.25416568 -0.5529445 -3.1005576 -2.8468292
-3.575025 -2.41264 1.7648388 2.52453 -3.5885205 4.150628 -2.3425887 -3.1109352
-2.8628857 0.26704296 -3.4979668 -3.3959224 0.028987661 -2.3940282 -3.21418 -3.4009829
00000000: 7d7e 3140 67e1 b340 cd33 3fc0 8133 49c0
00000010: cae4 e440 0add 0ac0 4dff 10c0 0545 31c0
00000020: 6e14 aa40 d757 64c0 d9eb bf3e dc8c 27c0
00000030: b3a4 53c0 0014 a4c0 d62c 4c40 e4e0 79c0
00000040: 70dc 51c0 4f32 17c0 da8c 1540 e24b 0540
00000050: afa8 3ac0 cf62 5940 61f7 b740 500f 55c0
00000060: 1a3b 4ec0 5594 edbf 6d42 bcbf 6953 41c0
00000070: 732a 03c0 c515 28c0 fbba 32c0 b9ad a93f
00000080: ab6d 98c0 575a ad3f 8fb4 4d3f 3962 9e40
00000090: d568 26c0 1cc4 80c0 772d 3840 8d1c 4bc0
000000a0: 1fb6 38c0 dc76 1ec0 c230 21c0 f551 d140
000000b0: 0122 823e c58d 0dbf 896f 46c0 7332 36c0
000000c0: 36cd 64c0 b268 1ac0 3de6 e13f e691 2140
000000d0: 52aa 65c0 f2d1 8440 f9ec 15c0 9019 47c0
000000e0: 8539 37c0 dbb9 883e b0de 5fc0 cb56 59c0
000000f0: 8877 ed3c c237 19c0 20b5 4dc0 b4a9 59c0

cnn_backbone.9.running_var f4 [64]
1.5110463 2.1738555 8.416452 7.19343 2.3205159 5.274302 1.968428 7.3951874
1.6887193 10.435227 11.067483 16.921772 11.435086 1.5469283 5.239387 3.849541
6.419701 6.711269 5.757701 0.95057875 3.4449859 1.3582084 9.9854 5.884706
5.8777966 10.767946 5.4659066 4.288662 2.5896566 5.861916 6.7966104 9.230091
7.2354536 6.303898 7.4822445 2.4544911 1.5073961 5.813074 4.605686 8.963464
10.085147 2.3340986 9.077695 2.9134839 9.325058 4.4689403 6.5170946 8.064893
6.633869 10.633208 8.563039 4.487698 5.6288357 2.177075 9.685125 10.811702
2.1279242 6.492085 8.970532 6.642156 6.002655 4.4673524 8.836217 2.5064435
00000000: f769 c13f 7320 0b40 caa9 0641 9430 e640
00000010: 5583 1440 15c7 a840 73f5 fb3f 60a5 ec40
00000020: f427 d83f b1f6 2641 6914 3141 ca5f 8741
00000030: 1df6 3641 bf01 c63f 0fa9 a740 e15e 7640
00000040: 316e cd40 b7c2 d640 163f b840 2159 733f
00000050: a67a 5c40 c6d9 ad3f 33c4 1f41 834f bc40
00000060: e916 bc40 8249 2c41 b5e8 ae40 b83c 8940
00000070: efbc 2540 d194 bb40 d57d d940 74ae 1341
00000080: d688 e740 88b9 c940 8c6e ef40 6216 1d40
00000090: 5bf2 c03f b404 ba40 c861 9340 596a 0f41
000000a0: c35c 2141 df61 1540 3d3e 1141 8576 3a40
000000b0: 7033 1541 8f01 8f40 0a8c d040 cd09 0141
000000c0: a848 d440 9f21 2a41 3502 0941 399b 8f40
000000d0: 6c1f b440 3255 0b40 46f6 1a41 bbfc 2c41
000000e0: e92f 0840 29bf cf40 4d87 0f41 8b8c d440
000000f0: c015 c040 8df4 8e40 2561 0d41 9269 2040

cnn_backbone.12.weight f4 [128, 64, 3, 3]
0.111676745 0.11003482 0.09099931 0.11323209 0.11041279 0.082503006 0.06908127 0.10189245
0.10067408 -0.040517222 -0.06983139 -0.07196377 -0.0950568 -0.061612036 -0.056298673 -0.039534416
-0.09660437 -0.11216773 -0.053582836 -0.05774901 -0.047345072 -0.041095898 0.0057903794 -0.05814626
-0.055779945 -0.023224944 -0.016604004 -0.021914514 -0.021066824 -0.018878283 -0.058970965 -0.002713058
-0.0047495207 -0.041872535 -0.015721645 -0.01747334 -0.07844867 -0.06278096 -0.08195598 -0.038265873
-0.09465771 -0.050551344 -0.06523412 -0.016053079 -0.06593676 -0.0447986 -0.02994033 -0.0021648263
-0.028609844 -0.0010739126 -0.017157417 -0.02832606 -0.0123758195 0.01200532 0.015835784 0.0762675
0.05922914 0.058505896 0.032166634 0.07748343 -0.004369959 0.012606844 0.06378317 -0.037332546
0.026029475 -0.013131407 -0.06109849 0.020744009 0.022417586 -0.02148553 -0.06318082 -0.014116627
-0.045882136 -0.0066357134 -0.03440728 -0.0509245 -0.09686355 -0.07037404 -0.014079198 -0.08516639
-0.048607923 -0.056915686 -0.023887247 -0.026411228 -0.03592393 -0.02681462 -0.03393324 -0.05844029
-0.018102188 -0.029040342 0.028329689 0.07316685 0.09186472 0.07706686 0.078424096 0.053792905
0.085453145 0.049070317 0.08807524 0.011539566 -0.036108997 -0.05002014 -0.020280663 -0.042896025
-0.013496394 -0.043857355 -0.002568248 -0.0024724319 -0.0054215365 -0.017382799 -0.035354514 0.0028936614
-0.029148502 -0.033684887 -0.009199603 -0.045786995 -0.014404378 0.026364477 -0.016560493 0.03251851
0.01872942 0.042853378 -0.0069416864 0.047037717 0.059651006 0.007282526 0.020806467 -0.04863561
-0.015622079 -0.015763681 -0.031972118 -0.022512669 -0.0042384304 -0.034269206 -0.05585606 -0.028845105
-0.0006715425 0.0008243706 -0.012493301 -0.008146577 -0.040000547 -0.062853396 -0.03647105 -0.058353644
0.02461748 -0.014859132 -0.011130682 0.0033091044 0.0056834077 0.023659695 -0.016433312 -0.009237961
-0.0022189454 0.039404944 0.013905939 0.0233418 -0.0030858123 0.010306046 -0.0013254384 -0.036110993
-0.0415474 0.014055804 -0.04850839 -0.01647588 -0.02908985 -0.028271329 -0.06784044 -0.037636533
-0.052390896 -0.051077116 -0.048454586 0.03747807 0.096303545 0.07507976 0.06959228 0.044603936
0.052464135 0.07087651 0.08140707 0.08885406 0.021777002 0.012275997 -0.0141935395 -0.026046524
0.015144614 -0.013147493 -0.021413872 -0.028735245 0.01114871 -0.008313352 -0.012420024 -0.015891451
-0.058245946 -0.04148136 -0.08551663 -0.07219777 -0.031418726 -0.038512543 -0.0793274 -0.03880562
-0.03820349 -0.046027802 -0.08763351 -0.09160408 -0.06833307 -0.070693605 -0.06923123 -0.01903305
0.030337518 0.040309206 -0.0030357148 0.037290413 0.017123055 0.0247589 0.0057717566 0.04431223
-0.008893762 0.006889968 0.0078148795 0.0076197493 -0.021061106 -0.019419938 0.012583901 -0.05200039
-0.032760452 0.0779547 0.016829876 0.03079006 0.01103967 0.03237979 0.026523208 0.06781831
0.06799741 0.08381677 -0.042418923 -0.0047467486 -0.023645911 -0.069295764 -0.08018583 -0.05350561
0.0038018804 -0.03655947 -0.06614305 0.041791584 -0.020390224 0.051706307 0.0166529 0.020308588
0.0074701696 0.015711412 0.014808738 0.041968305 0.035237577 0.022373796 0.0037058003 -0.00893617
00000000: c7b6 e43d f059 e13d d95d ba3d 3ae6 e73d
00000010: 1a20 e23d 56f7 a83d 7b7a 8d3d fdac d03d
00000020: 362e ce3d 63f5 25bd c303 8fbd be61 93bd
00000030: 24ad c2bd e75c 7cbd 7099 66bd d7ee 21bd
00000040: 83d8 c5bd 32b8 e5bd ad79 5bbd 3a8a 6cbd
00000050: e8ec 41bd 2c54 28bd 39bd bd3b c62a 6ebd
00000060: 8379 64bd 3d42 bebc 1f05 88bc 1186 b3bc
00000070: 5594 acbc a1a6 9abc 8a8b 71bd 8fcd 31bb
00000080: dea1 9bbb 8982 2bbd aeca 80bc 4024 8fbc
00000090: b2a9 a0bd 4e93 80bd 89d8 a7bd adbc 1cbd
000000a0: e7db c1bd ed0e 4fbd 7799 85bd bf81 83bc
000000b0: da09 87bd bd7e 37bd 6c45 f5bc c2df 0dbb
000000c0: 315f eabc 87c2 8cba b68d 8cbc 0e0c e8bc
000000d0: f3c3 4abc f6b1 443c 0cba 813c 2332 9c3d
000000e0: 419a 723d e1a3 6f3d 29c1 033d a2af 9e3d
000000f0: df31 8fbb f08c 4e3c c0a0 823d 03ea 18bd
00000100: c43b d53c 1d25 57bc 6942 7abd 57ef a93c
00000110: 16a5 b73c 6c02 b0bc f264 81bd 6d49 67bc
00000120: e8ee 3bbd 6670 d9bb a6ee 0cbd 3596 50bd
00000130: 6660 c6bd 4420 90bd 70ac 66bc b76b aebd
00000140: 1a19 47bd 6c20 69bd 30af c3bc 5c5c d8bc
00000150: f924 13bd 55aa dbbc 95fd 0abd 165f 6fbd
00000160: 0a4b 94bc 03e6 edbc aa13 e83c 80d8 953d
00000170: 9223 bc3d 3bd5 9d3d d09c a03d f355 5c3d
00000180: 0f02 af3d f5fd 483d cb60 b43d 7310 3d3c
00000190: 07e7 13bd ebe1 4cbd a223 a6bc beb3 2fbd
000001a0: fb1f 5dbc c5a3 33bd 0d50 28bb 8608 22bb
000001b0: 25a7 b1bb 5f66 8ebc e5cf 10bd 95a3 3d3b
000001c0: d7c8 eebc 2af9 09bd efb9 16bc 258b 3bbd
000001d0: 5700 6cbc 51fa d73c dfa9 87bc 2132 053d
000001e0: 716e 993c 0687 2f3d 1677 e3bb 9faa 403d
000001f0: 9d54 743d 42a2 ee3b 5372 aa3c 2236 47bd
00000200: c0f3 7fbc d622 81bc 32f5 02bd 7d6c b8bc
00000210: 88e2 8abb de5d 0cbd 53c9 64bd 924c ecbc
00000220: 740a 30ba 931a 583a b4b0 4cbc 3879 05bc
00000230: 9dd7 23bd 48b9 80bd ab62 15bd 3b04 6fbd
00000240: 99aa c93c b773 73bc 775d 36bc 8fdd 583b
00000250: e13b ba3b fad1 c13c 279f 86bc d15a 17bc
00000260: ba6b 11bb 1467 213d bcd5 633c 4d37 bf3c
00000270: 573b 4abb b1da 283c 55ba adba 1fe9 13bd
00000280: 9b2d 2abd 514a 663c bcb0 46bd 6df8 86bc
00000290: d64d eebc 4699 e7bc eeef 8abd c428 1abd
000002a0: d697 56bd 3d36 51bd 5178 46bd 9b82 193d
000002b0: cb3a c53d 6bc3 993d 6686 8e3d 9eb2 363d
000002c0: a2e4 563d b427 913d c0b8 a63d 1ef9 b53d
000002d0: af65 b23c 4321 493c 058c 68bc 855f d5bc
000002e0: 1d21 783c 9568 57bc 256c afbc 2d66 ebbc
000002f0: 14a9 363c ba34 08bc 5b7d 4bbc ca2e 82bc
00000300: 4d93 6ebd 5ce8 29bd 5823 afbd 6ddc 93bd
00000310: ecb0 00bd 54bf 1dbd 6776 a2bd a4f2 1ebd
00000320: 437b 1cbd a687 3cbd 3379 b3bd eb9a bbbd
00000330: 35f2 8bbd cfc7 90bd 1ac9 8dbd 33eb 9bbc
00000340: 6386 f83c 441b 253d d8f2 46bb d5bd 183d
00000350: a645 8c3c 2dd3 ca3c 0121 bd3b be80 353d
00000360: 24b7 11bc 3ec5 e13b fb09 003c 17af f93b
00000370: 5788 acbc 9016 9fbc b52c 4e3c 5cfe 54bd
00000380: d32f 06bd b7a6 9f3d cfde 893c 703b fc3c
00000390: bbdf 343c aca0 043d 3347 d93c 53e4 8a3d
000003a0: 3a42 8b3d 20a8 ab3d 77bf 2dbd 9d8a 9bbb
000003b0: 12b5 c1bc f0ea 8dbd 7838 a4bd b328 5bbd
000003c0: f828 793b 62bf 15bd 0276 87bd a72d 2b3d
000003d0: 6609 a7bc fec9 533d aa6b 883c 325e a63c
000003e0: 53c8 f43b 38b5 803c 59a0 723c f5e6 2b3d
000003f0: 4755 103d 4049 b73c 03dd 723b 0369 12bc

cnn_backbone.12.bias f4 [128]
-9.790877e-06 -5.259146e-07 -1.2358922e-06 1.3759198e-05 -3.678022e-06 8.23242e-06 1.8012378e-06 5.461334e-06
1.3423153e-06 -1.32200885e-05 1.1639772e-06 7.293119e-06 -2.3465782e-07 -2.2797524e-06 1.5932477e-06 -3.533464e-07
9.885104e-07 2.2430079e-06 3.0700924e-06 2.3023973e-05 -1.878173e-07 5.363062e-07 3.2878966e-06 -2.2720135e-06
-7.719579e-06 1.0008515e-06 2.7811882e-06 2.0261766e-07 -1.4884148e-06 5.38177e-07 1.4978251e-06 -2.7500112e-06
-2.6153605e-06 8.131997e-06 -9.233215e-06 3.650903e-06 1.8674646e-05 1.1752238e-06 -5.665549e-07 -2.758194e-06
-5.9832846e-06 -6.4911474e-06 -8.07819e-06 -4.1237877e-07 -3.9840206e-06 -9.188637e-07 5.76752e-06 -2.5683592e-06
-7.3827628e-06 4.2476922e-06 -1.9775775e-06 -1.8080033e-05 -2.5426762e-06 6.0883335e-06 -4.369343e-07 1.5898546e-05
-9.570178e-06 6.8799454e-06 -1.1425587e-07 4.428214e-06 -5.7938523e-06 4.098919e-06 2.4165058e-06 3.1096846e-05
-2.3013106e-06 -6.2339777e-06 -1.3088603e-05 -2.3810974e-06 -9.27182e-07 7.362374e-06 3.3991275e-06 -1.7619597e-05
4.2704232e-06 -1.058405e-06 -3.5268122e-06 5.146291e-07 3.898445e-06 -1.5306343e-05 -8.3549285e-06 -3.94316e-06
-1.9890185e-06 -3.8745093e-06 1.7816249e-06 -2.120621e-05 -1.5909512e-06 1.3220231e-05 -8.28861e-06 -1.4365551e-05
4.193656e-07 -3.1373722e-06 4.09411e-06 -6.179478e-06 -4.891021e-06 -3.3234382e-06 -1.5984799e-05 1.9732981e-06
-2.1108192e-06 -1.0146958e-05 1.807332e-05 1.9319428e-05 3.0762806e-07 -1.7118773e-06 -7.3684596e-08 1.3387984e-06
-5.396228e-06 -8.184138e-06 1.3856956e-05 -1.3848901e-06 -1.867819e-07 9.290633e-06 -2.5439707e-07 -6.473083e-06
-5.074998e-06 2.36171e-06 4.3886936e-07 1.6669803e-05 4.002396e-06 3.0534356e-06 -4.9211585e-06 -8.192423e-06
3.8570024e-06 3.3684162e-05 1.740047e-06 4.7472502e-05 -6.907467e-06 -2.2345885e-06 2.748158e-06 6.4885085e-06
00000000: 7f43 24b7 932c 0db5 efe0 a5b5 4ed7 6637
00000010: f0d3 76b6 fa1d 0a37 0fc2 f135 8040 b736
00000020: 9a29 b435 d9cb 5db7 f439 9c35 6ab7 f436
00000030: 40f6 7bb4 d9fd 18b6 93d7 d535 8fb3 bdb4
00000040: f5ac 8435 9586 1636 c907 4e36 9b23 c137
00000050: d4aa 49b4 aef6 0f35 a2a5 5c36 e578 18b6
00000060: 5783 01b7 ff54 8635 73a4 3a36 1e8f 5934
00000070: 8bc5 c7b5 3e77 1035 e108 c935 d58c 38b6
00000080: 8d83 2fb6 a96e 0837 5be8 1ab7 0902 7536
00000090: 7fa7 9c37 62bc 9d35 5b15 18b5 6919 39b6
000000a0: 06c4 c8b6 88ce d9b6 9087 07b7 e864 ddb4
000000b0: 7aae 85b6 d5a7 76b5 9f86 c136 135c 2cb6
000000c0: 73b9 f7b6 6687 8e36 86b6 04b6 93aa 97b7
000000d0: d8a2 2ab6 634a cc36 cb93 eab4 de5d 8537
000000e0: 9a8f 20b7 48da e636 d45c f5b3 1296 9436
000000f0: d068 c2b6 7289 8936 412b 2236 fc6d 0238
00000100: 3770 1ab6 762d d1b6 1f97 5bb7 f1ca 1fb6
00000110: 76e3 78b5 500a f736 911c 6436 cccd 93b7
00000120: a84a 8f36 850e 8eb5 2cae 6cb6 0b25 0a35
00000130: 63cf 8236 1f66 80b7 252c 0cb7 7d4f 84b6
00000140: 147b 05b6 c801 82b6 2a20 ef35 fde3 b1b7
00000150: ab88 d5b5 76cc 5d37 4f0f 0bb7 9203 71b7
00000160: 2b25 e134 a58b 52b6 2360 8936 5059 cfb6
00000170: 8d1d a4b6 3c08 5fb6 1817 86b7 016d 0436
00000180: 99a7 0db6 da3c 2ab7 299c 9737 2810 a237
00000190: 1428 a534 a8c3 e5b5 893c 9eb3 c3b0 b335
000001a0: 3f11 b5b6 9b4e 09b7 2c7b 6837 76e0 b9b5
000001b0: 388e 48b4 f7de 1b37 1194 88b4 5c33 d9b6
000001c0: e749 aab6 de7d 1e36 bf9d eb34 21d6 8b37
000001d0: 524c 8636 a0e9 4c36 6e20 a5b6 3072 09b7
000001e0: 666b 8136 1848 0d38 8f8b e935 361d 4738
000001f0: b1c6 e7b6 f0f5 15b6 ff6c 3836 ddb7 d936

cnn_backbone.13.weight f4 [128]
0.9730845 1.0294273 1.0349108 0.9630215 1.051524 1.0358894 0.9747703 1.0179642
0.9957252 0.99223286 0.98788595 1.0272546 1.0320973 0.9792706 1.0306802 0.9891416
0.95978594 1.0010644 0.99910784 1.0101422 1.0119275 0.9516354 0.97332186 0.8995201
1.0824162 1.0365487 1.0333239 1.0121729 1.0480306 0.9181383 0.9918188 1.0242741
1.0073198 1.0375799 1.1000024 1.0264452 1.0055392 1.0173882 0.964719 1.0187179
1.013592 1.0127954 1.0080507 1.0335555 1.007767 0.91306895 1.0267526 1.0433787
1.0280011 0.9750772 0.9970843 1.024279 1.0027202 1.018959 1.0217655 1.0565789
1.043677 1.053679 1.0086185 1.056445 1.0407349 1.0150342 1.0138228 1.0354995
1.0238144 1.0729604 0.99852204 1.0201089 1.0323076 1.001297 1.0553987 1.1728106
0.88780385 0.9107928 1.05134 0.9304389 1.0220914 1.069443 1.0257176 1.0141513
1.028367 1.0301055 1.0443201 0.9953931 1.0420185 1.0550424 1.0341818 1.0630805
1.0322206 1.0219065 0.99200475 0.936135 1.0607125 1.0259112 1.0691869 0.86826175
1.036255 1.0238353 1.0294073 1.0196941 0.97081345 0.96755755 1.0083337 0.9930951
0.9895658 0.907896 1.015438 0.9817012 0.87701243 0.9653317 1.010658 0.9222354
1.0510731 1.0048673 1.034231 1.093606 0.9524832 1.0264161 0.9980896 0.93173105
1.0233407 0.9959424 1.005514 1.1067569 0.99247766 1.018955 1.0284258 1.0273566
00000000: 111c 793f 46c4 833f f577 843f 9488 763f
00000010: 5798 863f 0698 843f 8c8a 793f a74c 823f
00000020: d9e7 7e3f f902 7e3f 18e6 7c3f 147d 833f
00000030: c41b 843f 7ab1 7a3f 54ed 833f 6238 7d3f
00000040: 88b4 753f e122 803f 88c5 7f3f 574c 813f
00000050: d786 813f 619e 733f 9f2b 793f f346 663f
00000060: 9d8c 8a3f a1ad 843f f543 843f e28e 813f
00000070: de25 863f 1d0b 6b3f d6e7 7d3f 6a1b 833f
00000080: dbef 803f 6bcf 843f e1cc 8c3f 8e62 833f
00000090: 82b5 803f c739 823f d3f7 763f 5965 823f
000000a0: 62bd 813f 48a3 813f ce07 813f 8c4b 843f
000000b0: 82fe 803f e3be 693f a16c 833f 6f8d 853f
000000c0: 8a95 833f a99e 793f eb40 7f3f 931b 833f
000000d0: 2359 803f 406d 823f 36c9 823f fa3d 873f
000000e0: 3597 853f f4de 863f 691a 813f 9739 873f
000000f0: cd36 853f a4ec 813f f2c4 813f 3f8b 843f
00000100: 5a0c 833f c456 893f 249f 7f3f ee92 823f
00000110: a822 843f 802a 803f 4e17 873f a81e 963f
00000120: 1d47 633f b829 693f 4f92 863f 3e31 6e3f
00000130: e4d3 823f 82e3 883f b74a 833f b6cf 813f
00000140: 88a1 833f 7fda 833f 48ac 853f 15d2 7e3f
00000150: dd60 853f a10b 873f 1260 843f 0613 883f
00000160: ce1f 843f d5cd 823f 06f4 7d3f 8ba6 6f3f
00000170: 6dc5 873f 0f51 833f 1edb 883f 6746 5e3f
00000180: 01a4 843f 090d 833f 9ec3 833f 5685 823f
00000190: 3b87 783f dab1 773f 1411 813f 7b3b 7e3f
000001a0: 2f54 7d3f df6b 683f dff9 813f c550 7b3f
000001b0: e383 603f fa1f 773f 3e5d 813f 9f17 6c3f
000001c0: 9089 863f 7e9f 803f ae61 843f 48fb 8b3f
000001d0: f0d5 733f 9a61 833f cd82 7f3f ed85 6e3f
000001e0: d4fc 823f 15f6 7e3f afb4 803f 36aa 8d3f
000001f0: 0413 7e3f 1e6d 823f 75a3 833f 6c80 833f

cnn_backbone.13.bias f4 [128]
-0.03421454 -0.002277403 -0.0009870754 -0.020874126 0.013761961 0.05729266 0.0025944447 -0.013696214
-0.024944237 -0.0046161003 -0.030203138 0.04965753 0.055235174 -0.02569745 0.0013690237 -0.028575923
-0.0242758 -0.0005628108 -0.024837146 0.025295902 0.021994995 -0.044179115 0.010552155 -0.07784565
0.027280556 0.0023483932 0.0075069135 -0.0146684535 0.019518737 -0.071444124 -0.036995403 -0.008076489
0.034525074 0.061886273 0.06697044 -0.004693436 -0.01737939 -0.003050187 -0.034133356 -0.020262714
0.033583924 -0.018797861 0.0049912813 0.045890924 -0.01936742 -0.06593351 -0.0012780362 0.015139878
-0.0017141941 -0.022732573 -0.025735408 0.03346684 0.037305694 -0.018379144 -0.012658474 0.056505714
0.008592489 0.012408951 -0.020755697 0.05857413 0.04481705 -0.01636181 -0.013778498 0.025211954
-0.0027841066 0.055290278 0.0047839624 -0.011632592 -2.5374622e-05 -0.02812017 0.020464335 0.11307757
-0.10039275 -0.09029891 0.0124828555 -0.057436205 -0.014050124 0.036998525 0.051016413 0.022694554
0.0023701268 0.0022811552 0.0031364185 0.020875605 0.008078075 0.07219001 -0.0024722433 0.08724705
0.001845721 0.048397776 0.0007917224 -0.044639446 0.073330276 0.05326307 0.091270864 -0.106699474
0.007441148 -0.00412675 0.050445016 0.023616558 -0.038721234 -0.038725145 -0.0154263545 -0.025105633
-0.034680635 -0.111380436 -0.0030502076 -0.040510748 -0.09929088 -0.057751317 -0.014964674 -0.08202871
0.05639569 -0.003666148 -0.0028231656 0.10033187 -0.067412354 -0.009149005 -0.021958591 -0.04406199
0.03153151 0.0064399964 0.002539978 0.07125651 0.01894901 -0.0149071645 0.0037770013 -0.0025144315
00000000: 8c24 0cbd 7b40 15bb c160 81ba 3700 abbc
00000010: d979 613c b5ab 6a3d 8f07 2a3b 1666 60bc
00000020: db57 ccbc a842 97bb 926c f7bc b265 4b3d
00000030: 473e 623d 7583 d2bc d070 b33a 0e18 eabc
00000040: 0bde c6bc 9889 13ba 4577 cbbc 5a39 cf3c
00000050: d92e b43c 29f5 34bd f2e2 2c3c 8a6d 9fbd
00000060: 797b df3c 80e7 193b 8efc f53b f453 70bc
00000070: c2e5 9f3c 4c51 92bd 7e88 17bd 4053 04bc
00000080: 2a6a 0d3d 767c 7d3d cc27 893d 65cb 99bb
00000090: 395f 8ebc a5e5 47bb 6bcf 0bbd fefd a5bc
000000a0: 4c8f 093d f9fd 99bc e78d a33b 1ff8 3b3d
000000b0: 6ca8 9ebc 2608 87bd c783 a7ba 400d 783c
000000c0: cfae e0ba a939 babc 10d3 d2bc 8614 093d
000000d0: dbcd 183d dc8f 96bc 7d65 4fbc 8972 673d
000000e0: 83c7 0c3c ea4e 4b3c da07 aabc 6deb 6f3d
000000f0: 1592 373d 3409 86bc 36bf 61bc 4d89 ce3c
00000100: 8f75 36bb 0f78 623d c9c2 9c3b a196 3ebc
00000110: 96db d4b7 455c e6bc d2a4 a73c 3795 e73d
00000120: b79a cdbd a3ee b8bd e484 4c3c 3a42 6bbd
00000130: 7e32 66bc c48b 173d 96f6 503d eee9 b93c
00000140: 2154 1b3b 6f7f 153b 5f8c 4d3b 5103 ab3c
00000150: e759 043c 5bd8 933d 5c05 22bb 95ae b23d
00000160: 1fec f13a bf3c 463d 978b 4f3a dad7 36bd
00000170: 2f2e 963d 602a 5a3d 38ec ba3d 4185 dabd
00000180: e0d4 f33b b039 87bb 6f9f 4e3d 8377 c13c
00000190: 289a 1ebd 429e 1ebd d2be 7cbc 54aa cdbc
000001a0: 480d 0ebd 6d1b e4bd fee5 47bb 99ee 25bd
000001b0: 0459 cbbd a58c 6cbd 642e 75bc abfe a7bd
000001c0: 2bff 663d c243 70bb dc04 39bb cc7a cd3d
000001d0: 7d0f 8abd b5e5 15bc 81e2 b3bc 587a 34bd
000001e0: 2f27 013d 9b06 d33b c275 263b efee 913d
000001f0: f43a 9b3c 2e3d 74bc 9187 773b 29c9 24bb
