models/wavenet/adress/best_model.pth (torch, 469026 bytes, 142 tensors)

base_feature_extractor.0.0.weight f4 [64, 1, 3]
0	0x3e9fc27e	0.31203073
1	0xbec45c25	-0.3835155
2	0x3df4d1a4	0.11954048
3	0xbeb25451	-0.34829953
4	0x3ecf821a	0.40528947
5	0xbe58abbd	-0.21159263
6	0x3e27ef75	0.1639994
7	0xbe30711a	-0.17230645
8	0x3e50218a	0.20325294
9	0xbcfc71c7	-0.030815972
10	0x3d78124b	0.06056432
11	0xbd2dbf46	-0.04241874
12	0x3e863754	0.26214087
13	0xba7bd3b0	-0.0009606434
14	0xbe5804b9	-0.21095552
15	0x3e83fbf9	0.25778177
16	0x3c8e8d3e	0.017401334
17	0xbe5ce21b	-0.21570627
18	0x3d318ac1	0.043345217
19	0x3cc428d7	0.023945255
20	0xbd8c7161	-0.06857563
21	0x3d23e9e7	0.04001799
22	0x3e863674	0.2621342
23	0xbce9c513	-0.028536355
24	0xbec77ced	-0.38962498
25	0x3ef76311	0.4831777
26	0xbd29e35f	-0.041476604
27	0x3d276001	0.04086304
28	0x3e936782	0.28789908
29	0xbe5e36a5	-0.21700533
30	0x3eba438b	0.36379656
31	0xbe33ec49	-0.17570604
32	0xbc6de509	-0.014519938
33	0xbe4e9b3d	-0.20176406
34	0x3e920f49	0.28527287
35	0xbe708f5f	-0.23492192
36	0x3eb72b58	0.35775256
37	0xbdd6cd4a	-0.104883745
38	0xbe751603	-0.23934178
39	0xbe3dc787	-0.18533145
40	0x3d9816fe	0.074262604
41	0x3e5820e2	0.21106294
42	0x3e177c8c	0.14793605
43	0x3ebbd289	0.36684063
44	0xbf003a3f	-0.50088876
45	0xbd377f5e	-0.0447992
46	0x3ccfd5dd	0.025370533
47	0xbe35ede2	-0.17766526
48	0x3df4570e	0.11930667
49	0xbe4225c9	-0.18959726
50	0x3e235a86	0.159525
51	0xbc775d3e	-0.015097914
52	0xbc05bb10	-0.008162275
53	0xbdefc097	-0.117066555
54	0xbd52f915	-0.051507074
55	0x3e608433	0.2192543
56	0xbdfcd5b3	-0.123454474
57	0x3e673776	0.2257975
58	0x3e107eb8	0.1411084
59	0xbea6491c	-0.32477653
60	0xbde06805	-0.1095734
61	0xbee8f6ea	-0.4550088
62	0x3f0095e8	0.5022874
63	0xbd80357b	-0.062602006
64	0x3d40b5e8	0.04704848
65	0x3e377845	0.17916973
66	0x3e0ab482	0.13545421
67	0xbea99897	-0.3312423
68	0x3e3c8156	0.18408713
69	0x3b068b0c	0.0020529656
70	0xbe8c2ed4	-0.27379477
71	0x3df281e4	0.11841181
72	0x3c6ca66e	0.014443977
73	0x3db0939e	0.08621906
74	0x3d0e02d9	0.034670684
75	0xbe0cd228	-0.13752043
76	0xbd90a5e8	-0.07062894
77	0x3db14b23	0.08656909
78	0xbef51aa1	-0.4787188
79	0x3e93de9d	0.28880778
80	0x3e01ce74	0.12676412
81	0x3de9ecbc	0.114221066
82	0x3e0a433a	0.13502207
83	0xbe3b2111	-0.18274333
84	0x3db907da	0.09034701
85	0xbddec302	-0.108770385
86	0x3e7da216	0.24768862
87	0x3d562eab	0.0522906
88	0xbdcb1259	-0.09915609
89	0x3dc147b1	0.09437502
90	0x3e2f048a	0.17091575
91	0x3d8520f4	0.06500426
92	0xbe30d9b4	-0.17270547
93	0xbf00dc78	-0.5033641
94	0xbdce729b	-0.10080453
95	0x3f051744	0.51988626
96	0x3e73e705	0.23818596
97	0xbe61ae56	-0.2203916
98	0x3e76868f	0.24074768
99	0x3ee7659b	0.45194706
100	0xbec17eb0	-0.37791967
101	0xbec2bccf	-0.38034675
102	0xbe9d0a94	-0.30672133
103	0xbd50d958	-0.050988525
104	0x3e8b4aab	0.27205405
105	0x3e0835d2	0.13301781
106	0x3e8c4891	0.27399114
107	0xbec20672	-0.37895542
108	0x3ebb5794	0.36590254
109	0x3dd0301f	0.10165428
110	0xbeecb612	-0.4623266
111	0xbf04b7a0	-0.5184269
112	0x3de6cf7a	0.11270042
113	0x3edeff64	0.43554223
114	0x3d8f9185	0.070101775
115	0x3e7ea505	0.24867637
116	0xbcb4ec3d	-0.022085303
117	0x3e382a82	0.17984965
118	0x3d85732d	0.06516109
119	0xbe45098e	-0.19241926
120	0x3da81d17	0.082086734
121	0xbde9d12f	-0.11416852
122	0x3e191ba4	0.1495195
123	0xbc9fbfa5	-0.019500563
124	0xbe0ec76e	-0.13943264
125	0x3e465df0	0.19371772
126	0x3e715b88	0.23570073
127	0xbe854ee4	-0.2603675
128	0x3ccfbdda	0.025359083
129	0x3e1bd4b1	0.15217854
130	0xbee76dc6	-0.45200938
131	0x3e952ca0	0.2913561
132	0xbe010efc	-0.12603372
133	0x3f0afe29	0.5429407
134	0xbebdf444	-0.37100422
135	0x3e5d9e6b	0.21642463
136	0xbe6d0c58	-0.2314924
137	0x3e86a4c2	0.26297575
138	0x3d8ce313	0.068792485
139	0xbcfccb2f	-0.030858604
140	0x3da3baa3	0.079945825
141	0x3ecceed3	0.40025958
142	0xbe5adba5	-0.2137285
143	0xbe2c183e	-0.16806123
144	0x3e38484d	0.1799633
145	0xbecc8269	-0.39943245
146	0x3d8f05bb	0.06983515
147	0x3e86f21b	0.26356587
148	0xbef027d5	-0.4690539
149	0x3d5a4fad	0.05329864
150	0xbbc18037	-0.005905177
151	0xbefd89e7	-0.49519274
152	0x3ee22a80	0.4417305
153	0x3e2daef0	0.16961265
154	0xbb07fcad	-0.0020749972
155	0x3d929f68	0.071593106
156	0xbddc69a2	-0.10762335
157	0x3e949b9a	0.29024965
158	0xbe8518a7	-0.2599537
159	0x3f165773	0.58727187
160	0xbe368a8b	-0.17826287
161	0xbece4aae	-0.4029135
162	0xbd6ec327	-0.05829158
163	0xbe8720fa	-0.26392347
164	0x3e994449	0.2993491
165	0x3f01f756	0.5076803
166	0xbea19415	-0.3155829
167	0xbe5588d3	-0.20852976
168	0x3e04344b	0.12910573
169	0xbe6682fe	-0.22510907
170	0x3e5aee54	0.21379977
171	0x3ea41f39	0.3205507
172	0xbef5f880	-0.48041153
173	0x3e5f2ad8	0.21793687
174	0x3c126054	0.008934099
175	0x3eab13fb	0.3341368
176	0xbd77e616	-0.06052216
177	0xbe354c8c	-0.17704982
178	0x3e2f2473	0.17103748
179	0xbd981a15	-0.0742685
180	0xbe8cd4fc	-0.27506244
181	0x3eb3792f	0.35053393
182	0xbc2de52e	-0.010613723
183	0x3f0a7f14	0.54100156
184	0xbee07f7d	-0.43847266
185	0xbdac53fb	-0.084144555
186	0xbd4a9029	-0.049453888
187	0x3de56de0	0.112025976
188	0xbd410c36	-0.047130786
189	0xbdd3f9c7	-0.103503756
190	0x3d049fe0	0.03237903
191	0xbdd70fb4	-0.10501042

base_feature_extractor.0.0.bias f4 [64]
0	0xb9047e26	-0.00012635495
1	0x35ca644a	1.5079361e-06
2	0x35d5ad04	1.5920091e-06
3	0x3693964d	4.3984387e-06
4	0xb6c446db	-5.849504e-06
5	0x375d20ec	1.3180292e-05
6	0xb711b88c	-8.685642e-06
7	0xb7ce3583	-2.4582032e-05
8	0x3a17cf3f	0.0005791075
9	0x38218499	3.8508882e-05
10	0xb6339d40	-2.676461e-06
11	0x357738dd	9.209742e-07
12	0x39058b24	0.00012735702
13	0x35b9311b	1.3797866e-06
14	0x39435a93	0.0001863039
15	0xb734168d	-1.0734087e-05
16	0xb6a2c0c4	-4.850417e-06
17	0x37b63432	2.1720396e-05
18	0x378fcc87	1.7142169e-05
19	0x36fc8951	7.526171e-06
20	0x38725e88	5.7785335e-05
21	0x369a26e0	4.5940833e-06
22	0xb7bcd51e	-2.2510587e-05
23	0x35a7745e	1.2476337e-06
24	0x38a3b78f	7.806636e-05
25	0x37aad0fd	2.0362897e-05
26	0xb9d0fc3e	-0.00039860787
27	0xb677d35f	-3.6928902e-06
28	0x354dfd12	7.6736717e-07
29	0x36a3855d	4.873304e-06
30	0x36b2c5e4	5.327851e-06
31	0x395ef4ab	0.00021262716
32	0xb6acc5df	-5.1490347e-06
33	0x370bee59	8.34054e-06
34	0xb8010d3e	-3.076833e-05
35	0x37f770b9	2.9497185e-05
36	0x394615d7	0.00018890887
37	0xb8036e99	-3.1335836e-05
38	0xb7953279	-1.7785687e-05
39	0x3618be52	2.2760546e-06
40	0xb59160c9	-1.083151e-06
41	0xb9b57d34	-0.00034616294
42	0xb69be81b	-4.6463806e-06
43	0xb7288720	-1.0045042e-05
44	0x38969403	7.180127e-05
45	0xb495bc46	-2.78904e-07
46	0x3715a805	8.920212e-06
47	0x37d525bc	2.540915e-05
48	0x3899cf05	7.334169e-05
49	0xb859aa2e	-5.1895324e-05
50	0x390586f0	0.00012734137
51	0xb8e3b247	-0.0001085741
52	0xb85d1fbb	-5.2720057e-05
53	0x3889667c	6.551758e-05
54	0x3917bb5d	0.0001447028
55	0xb719ab54	-9.159401e-06
56	0x36856995	3.9760002e-06
57	0x38646a24	5.4458287e-05
58	0xb6d45ec9	-6.329127e-06
59	0x36048cb2	1.9751428e-06
60	0x38c1d511	9.242644e-05
61	0x39d70ad0	0.00041016052
62	0x36315776	2.6425964e-06
63	0xb7cd276f	-2.4456267e-05

base_feature_extractor.0.1.weight f4 [64]
0	0x3f88e770	1.0695629
1	0x3f2cec2a	0.6754786
2	0x3f129859	0.57263714
3	0x3f2368c8	0.6383176
4	0x3f1f01dd	0.6211222
5	0x3f19fa78	0.6014781
6	0x3f26a1e2	0.65090764
7	0x3f3d6fc4	0.73998666
8	0x3f897d6b	1.07414
9	0x3f762745	0.9615367
10	0x3f1d10d7	0.6135382
11	0x3f2a7fec	0.66601443
12	0x3f64811e	0.8925952
13	0x3f0f24ca	0.5591551
14	0x3f851ee1	1.0400048
15	0x3f3c57f9	0.73571736
16	0x3f6ac39a	0.91704714
17	0x3f1b61d4	0.6069615
18	0x3f2df724	0.6795523
19	0x3f137477	0.57599586
20	0x3f85ec8e	1.0462816
21	0x3f11d4dd	0.5696543
22	0x3f356f11	0.708726
23	0x3f1ca6e7	0.6119217
24	0x3f3d1a98	0.73868704
25	0x3f3157b7	0.6927447
26	0x3f825bcc	1.0184264
27	0x3f22a2d5	0.6352971
28	0x3f1b2d0a	0.606156
29	0x3f2c4bd0	0.6730318
30	0x3f30f446	0.6912273
31	0x3f912c3a	1.1341622
32	0x3f19b162	0.6003629
33	0x3f1849e6	0.5948776
34	0x3f5a434e	0.8525895
35	0x3f362f2e	0.7116574
36	0x3f6eb992	0.9325191
37	0x3f6eec5a	0.93329394
38	0x3f396731	0.7242308
39	0x3f1b6128	0.60695124
40	0x3f130a73	0.5743782
41	0x3f30bb49	0.69035774
42	0x3f0f5c5e	0.56000316
43	0x3f413047	0.7546429
44	0x3f887d77	1.0663289
45	0x3f0cf126	0.55055463
46	0x3f1e7b67	0.6190705
47	0x3f770d36	0.96504533
48	0x3f3b6b8b	0.7321097
49	0x3f149c40	0.5805092
50	0x3f8c5a05	1.0964972
51	0x3f307380	0.6892624
52	0x3f140b51	0.5782977
53	0x3f85ce22	1.0453532
54	0x3f2bc271	0.6709357
55	0x3f1f603f	0.62256235
56	0x3f2e7055	0.68140155
57	0x3f47e0c7	0.7807736
58	0x3f407e27	0.75192493
59	0x3f1dc6f6	0.61631715
60	0x3f567943	0.8377878
61	0x3f8538f3	1.0408005
62	0x3f2334cf	0.63752455
63	0x3f42f185	0.7614978

base_feature_extractor.0.1.bias f4 [64]
0	0xbe1ffd01	-0.15623857
1	0xbeadd45b	-0.33951077
2	0xbeb0fd53	-0.3456827
3	0xbeae754f	-0.34073874
4	0xbe81cd24	-0.25351822
5	0xbeb87a0d	-0.36030617
6	0xbeae99d1	-0.34101728
7	0xbe98a387	-0.2981226
8	0xbe6257e3	-0.22103839
9	0xbe8c7efc	-0.2744063
10	0xbe7b57b4	-0.24545175
11	0xbe99141f	-0.29898164
12	0xbe9ee3c9	-0.3103316
13	0xbebe9772	-0.3722492
14	0xbe9da2af	-0.3078818
15	0xbe9f4a95	-0.3111159
16	0xbd92d49e	-0.0716946
17	0xbeb22d6b	-0.34800276
18	0xbea9184c	-0.3302635
19	0xbebd3b4c	-0.36959302
20	0x3ddc7e92	0.10766329
21	0xbec096e9	-0.37615135
22	0xbe9aa89f	-0.30206773
23	0xbebd760e	-0.3700413
24	0xbe994edd	-0.2994298
25	0xbeb5a14b	-0.3547462
26	0x3da118bd	0.078660466
27	0xbeaea37b	-0.341091
28	0xbecb4d2a	-0.3970731
29	0xbeca3821	-0.39495948
30	0xbea71140	-0.32630348
31	0x3e0b1682	0.13582805
32	0xbed9cfbe	-0.42541307
33	0x3e3bb4a0	0.18330622
34	0x3de56c58	0.112023056
35	0xbe9a3d1f	-0.30124757
36	0xbea6018b	-0.32423052
37	0xbe8ba579	-0.27274683
38	0xbe906931	-0.28205255
39	0xbeb0979c	-0.3449067
40	0xbeb8616f	-0.36011836
41	0xbe7f7a15	-0.24948914
42	0xbec09779	-0.37615564
43	0xbe8e3054	-0.27771246
44	0xbe837fce	-0.25683445
45	0xbecd54cc	-0.40103757
46	0xbebfb5e1	-0.3744345
47	0xbe95b741	-0.29241374
48	0xbe5fba17	-0.21848331
49	0xbea54f2e	-0.32286972
50	0x3d1a47f0	0.03766626
51	0xbe7a14d1	-0.24422003
52	0xbe894831	-0.2681289
53	0xbea24e75	-0.31700483
54	0xbea59f1b	-0.3234795
55	0xbe9ad998	-0.30244136
56	0xbeb6c6a3	-0.35698423
57	0xbe900791	-0.28130773
58	0xbea72f74	-0.3265339
59	0xbea3c3b8	-0.3198526
60	0xbe40f031	-0.18841626
61	0xbe9703db	-0.2949513
62	0xbec65aed	-0.38741246
63	0xbe8ee57e	-0.27909464

base_feature_extractor.0.1.running_mean f4 [64]
0	0xb7ed51e0	-2.8290728e-05
1	0x3706817f	8.017173e-06
2	0xb702dd19	-7.800082e-06
3	0x35fe6d0e	1.8956214e-06
4	0xb650c0ce	-3.1106642e-06
5	0x36cc86d0	6.095368e-06
6	0xb7660765	-1.371079e-05
7	0xb8006644	-3.061282e-05
8	0x3a074ec9	0.0005161581
9	0x37db993d	2.6178192e-05
10	0xb6640e0f	-3.398283e-06
11	0x36788956	3.703482e-06
12	0x38d2512e	0.00010028701
13	0xb525b22e	-6.1726575e-07
14	0x39a2706b	0.00030982806
15	0x349e8f64	2.9534124e-07
16	0xb7cfaa0c	-2.4755507e-05
17	0x3786d228	1.6071906e-05
18	0x372ea0c6	1.0408641e-05
19	0x36ae3e50	5.192858e-06
20	0x3742502c	1.1581968e-05
21	0xb59e7385	-1.1805538e-06
22	0xb6fa5f86	-7.461701e-06
23	0x37093f51	8.180578e-06
24	0x37a16907	1.9241603e-05
25	0x36e2d65d	6.76028e-06
26	0xba0559a4	-0.0005086905
27	0xb6902875	-4.2962442e-06
28	0xb6b2cac9	-5.3284207e-06
29	0xb6ab982e	-5.113913e-06
30	0x367366d1	3.6269669e-06
31	0x394f6fea	0.0001978275
32	0xb782a738	-1.5575075e-05
33	0x3790929f	1.7234413e-05
34	0xb783ce4f	-1.5712487e-05
35	0x377619d4	1.4668756e-05
36	0xb74f14ef	-1.2343035e-05
37	0xb7d23b62	-2.5061603e-05
38	0xb7a2f75d	-1.9427092e-05
39	0xb6424659	-2.89492e-06
40	0xb68e1151	-4.2339457e-06
41	0xb8022caa	-3.1036012e-05
42	0xb54bb540	-7.5887147e-07
43	0x370eee36	8.519322e-06
44	0x383168dc	4.2297746e-05
45	0xb6ef0cc4	-7.124241e-06
46	0x359a3fe2	1.1492486e-06
47	0x37c808bc	2.3845925e-05
48	0xb7e541f6	-2.7329643e-05
49	0xb7b5aa5d	-2.1656213e-05
50	0x3865e57e	5.4811586e-05
51	0x372868b8	1.0037962e-05
52	0xb8059d60	-3.1856238e-05
53	0x38a71c36	7.968435e-05
54	0x38812cd3	6.1595485e-05
55	0xb6be3067	-5.668076e-06
56	0xb5cf742c	-1.5456512e-06
57	0x37f25d3f	2.889207e-05
58	0xb72d94aa	-1.0346217e-05
59	0xb704313b	-7.8792755e-06
60	0xb7f32a3c	-2.8987524e-05
61	0x385090c0	4.9725873e-05
62	0x363679ef	2.7191088e-06
63	0xb655c168	-3.185205e-06

base_feature_extractor.0.1.running_var f4 [64]
0	0x36d89278	6.454353e-06
1	0x381a145a	3.6735415e-05
2	0x385ba027	5.2362822e-05
3	0x35a248ad	1.2091092e-06
4	0x3787237e	1.6109781e-05
5	0x3794ec27	1.7752942e-05
6	0x3599e3e2	1.1465711e-06
7	0x38ea5159	0.00011173142
8	0x3788b316	1.6295857e-05
9	0x37ceea93	2.4666346e-05
10	0x3854ad21	5.0705978e-05
11	0x380a4ab9	3.2971355e-05
12	0x37cb6785	2.424769e-05
13	0x37c934db	2.398568e-05
14	0x38018ce3	3.0887208e-05
15	0x3867cb05	5.526377e-05
16	0x372c8377	1.0282608e-05
17	0x37a2159c	1.9321968e-05
18	0x361e7326	2.361086e-06
19	0x37b46bd0	2.1507876e-05
20	0x3821cb06	3.857447e-05
21	0x382c8006	4.1127227e-05
22	0x3645f6bf	2.9498913e-06
23	0x381ef04c	3.789393e-05
24	0x38154503	3.558864e-05
25	0x37da6be1	2.603786e-05
26	0x38075189	3.2262444e-05
27	0x37345fee	1.0751171e-05
28	0x389a60cb	7.361321e-05
29	0x36ade9d5	5.1830234e-06
30	0x373f12e2	1.1388884e-05
31	0x38adff22	8.296805e-05
32	0x38bf0fdf	9.110546e-05
33	0x39495445	0.00019200247
34	0x3811c841	3.4757195e-05
35	0x37a2c4d9	1.940357e-05
36	0x38417ad0	4.6129164e-05
37	0x38816c9f	6.1714316e-05
38	0x39086c76	0.00013010376
39	0x37394101	1.1041994e-05
40	0x37a5ea8a	1.9778749e-05
41	0x36856552	3.975504e-06
42	0x3692dc69	4.376798e-06
43	0x36e43123	6.8006498e-06
44	0x37585057	1.2893309e-05
45	0x38b09bf4	8.4213825e-05
46	0x37a75ada	1.9950257e-05
47	0x37bf12f2	2.2777796e-05
48	0x38254445	3.9402647e-05
49	0x383bbfb5	4.4762815e-05
50	0x37deabbe	2.6544436e-05
51	0x38af68b6	8.364154e-05
52	0x3747e2f4	1.1914166e-05
53	0x388b58cf	6.6445784e-05
54	0x375da85c	1.3211826e-05
55	0x382e2f59	4.152893e-05
56	0x379efd10	1.895291e-05
57	0x36dc0c18	6.557919e-06
58	0x38fb3486	0.00011978396
59	0x37353fe6	1.0803318e-05
60	0x374de988	1.2273325e-05
61	0x3800967d	3.065773e-05
62	0x356e1557	8.869296e-07
63	0x38362587	4.342713e-05

base_feature_extractor.1.0.weight f4 [64, 64, 3]
0	0xbd0de9ee	-0.03464692
1	0x3bc8e8a6	0.0061312495
2	0x3c247f58	0.010040127
3	0xbcca8edf	-0.02472633
4	0xbcbcd18d	-0.02304914
5	0xbd182528	-0.03714481
6	0xbd10359b	-0.035207372
7	0xbcdf3028	-0.027244642
8	0xbd8b1e75	-0.067929186
9	0xbd570682	-0.05249644
10	0xbcd9cf68	-0.026588157
11	0xbd2d0f8c	-0.042251155
12	0xbcc8c04f	-0.024505762
13	0xbcceb9c6	-0.025235068
14	0xba38aca6	-0.00070447696
15	0xbd226c47	-0.039654043
16	0xbd25dc60	-0.04049337
17	0xbcf75fcc	-0.030197047
18	0x3c56f52b	0.013119976
19	0xbc1d2e67	-0.009593583
20	0xbcc472fe	-0.023980614
21	0xbc34e1c5	-0.011040156
22	0xbd38ca6e	-0.045114927
23	0xbcb21492	-0.021738324
24	0xbd3116eb	-0.043234747
25	0xbd674b15	-0.05646809
26	0xbd47defd	-0.048796643
27	0x3bfc7c5d	0.007705255
28	0xbcbc45dc	-0.02298253
29	0xba871f03	-0.0010308925
30	0xbce6dbb4	-0.028180934
31	0xbcd16cd9	-0.025564598
32	0xbcbea6d3	-0.023272907
33	0x3caadc95	0.020857135
34	0x3ca7afda	0.020469595
35	0xbc90e4a4	-0.01768715
36	0x3c8d891d	0.017277295
37	0xbce33af8	-0.02773808
38	0xbc554960	-0.013017982
39	0xbd375f48	-0.0447686
40	0xbd273101	-0.04081822
41	0xbd79deac	-0.061003372
42	0x3cf289fe	0.029606815
43	0xbcd0f46f	-0.02550718
44	0x3a6ee4cc	0.0009113073
45	0xbd1d4796	-0.038398348
46	0xbcb60e0e	-0.022223499
47	0xb92ee5b5	-0.00016679506
48	0xbcd2afbe	-0.025718566
49	0xbceaa304	-0.028642185
50	0xbcee80b9	-0.029114114
51	0xbcf402e0	-0.029786527
52	0xb98d784e	-0.0002698325
53	0x3c3bc03a	0.011459405
54	0x3d152b66	0.03641834
55	0x3ce3488d	0.027744556
56	0xbcb24d76	-0.021765452
57	0xbd5f4dde	-0.05451762
58	0xbd7c23d1	-0.061557595
59	0xbd6b5483	-0.057453644
60	0xbc2b2dfe	-0.010447977
61	0xb9e93493	-0.00044480394
62	0xbd1e86f3	-0.038702916
63	0xbd426686	-0.047461055
64	0xbca3e5e7	-0.020007087
65	0xbd083b6a	-0.033259787
66	0xbd96b835	-0.073593535
67	0xbd2c8b03	-0.04212476
68	0xbd2144c2	-0.039372213
69	0xbd45bba7	-0.048274662
70	0xbcb54116	-0.022125762
71	0xbd297178	-0.041367978
72	0x3c102d1f	0.00879982
73	0xbd33f6de	-0.043936603
74	0xbcf5c313	-0.030000245
75	0xbd9108c7	-0.07081752
76	0xbd53ad39	-0.05167887
77	0xbd21be9e	-0.039488427
78	0x3d1b5306	0.037920974
79	0x3cbab35c	0.022790603
80	0x3c2c8f9c	0.010532286
81	0xbd7f19a7	-0.062280323
82	0xbd4a9c13	-0.04946525
83	0xbd07e46b	-0.03317682
84	0xbd1af38e	-0.037829928
85	0xbd20e1ab	-0.039277714
86	0xbd16900e	-0.036758475
87	0xbd841f44	-0.06451276
88	0xbd6553cf	-0.05598813
89	0xbdacc5e4	-0.08436182
90	0xbd1caad1	-0.03824884
91	0xbd32b7bf	-0.043632265
92	0xbd24ddd5	-0.040250618
93	0xbd25ccfd	-0.040478695
94	0x3c76e3c1	0.015068949
95	0x3c8cd58d	0.017191673
96	0xbd91cbd8	-0.07118958
97	0xbd86e976	-0.06587498
98	0xbd873bc0	-0.06603193
99	0x3c33da03	0.010977271
100	0x3ce502aa	0.027955372
101	0x3b9bfbbe	0.0047602346
102	0x3d4808b1	0.048836414
103	0x3c7a7198	0.015285872
104	0x3cd18807	0.025577558
105	0xbd2e2f04	-0.042525306
106	0xbd35825b	-0.04431377
107	0xba22cedb	-0.00062106334
108	0xbccc19b4	-0.0249146
109	0xbc84f239	-0.016228782
110	0x3cf3cd23	0.029760903
111	0xbdb21d51	-0.08696998
112	0xbd5a2410	-0.053257048
113	0xbd7fc9dd	-0.06244837
114	0xbc76a1f1	-0.015053258
115	0x3c39fbc0	0.011351526
116	0x3be3afd1	0.006948449
117	0xbce9991d	-0.028515393
118	0xbcf5e245	-0.03001512
119	0xbd83c715	-0.06434456
120	0xbd854e25	-0.065090455
121	0xbdb9b9ba	-0.09068628
122	0xbd178df0	-0.037000597
123	0xbd52ab65	-0.051432986
124	0xbc8d2984	-0.01723171
125	0xbc4e4d2e	-0.012591643
126	0xbb432338	-0.002977563
127	0xbd0b8556	-0.034062706
128	0xbd7f8a15	-0.062387545
129	0xbda06287	-0.078312926
130	0xbd4106c3	-0.04712559
131	0xbd5b96a0	-0.053610444
132	0x3cbcc311	0.023042234
133	0xbd592a58	-0.053018898
134	0xbd593860	-0.05303228
135	0xbd27c80c	-0.040962264
136	0xbd9dfe79	-0.077145524
137	0xbd67820f	-0.056520518
138	0xbd75c3fc	-0.06000136
139	0xbd4b9589	-0.049703155
140	0xbd7e96ca	-0.062155522
141	0x3cf739bd	0.030178899
142	0xbcd2c5f5	-0.025729159
143	0x3bb3ec39	0.0054908064
144	0xbc9b6058	-0.018966839
145	0xbc3450ef	-0.011005624
146	0xbb4fa333	-0.0031682968
147	0xbc0036d8	-0.007825576
148	0xbd016607	-0.03159144
149	0xbcca4352	-0.024690304
150	0xbc4fc6d0	-0.012681678
151	0x3c8f2255	0.017472425
152	0x3b52179a	0.0032057525
153	0xbc5bfeaa	-0.013427416
154	0x3b69e918	0.0035691913
155	0xbd1e7ec0	-0.038695097
156	0xbceecdb7	-0.029150827
157	0xbcc1fa20	-0.02367884
158	0xbcf81f80	-0.030288458
159	0x3a31845c	0.0006771737
160	0xbc6fdedd	-0.014640537
161	0xbc8072ba	-0.015679706
162	0xbcce450a	-0.025179405
163	0xbd74cdab	-0.059766453
164	0xbd643424	-0.055713788
165	0xbbb292ab	-0.005449613
166	0x3cd24930	0.025669664
167	0x3c20b144	0.009807888
168	0xbdc88bfb	-0.09792324
169	0xbdac6232	-0.08417167
170	0xbda60a06	-0.081073806
171	0xbd9050cc	-0.07046661
172	0xbd31cf43	-0.04341055
173	0xbd84068f	-0.064465635
174	0xbd2f57cd	-0.042808343
175	0xbcb428cd	-0.021992112
176	0xbc95f692	-0.01830605
177	0xbd310fea	-0.043228067
178	0xbcfbb30d	-0.030725027
179	0xbd4d3667	-0.05010071
180	0xbd2ee68b	-0.04270033
181	0xbccc29ec	-0.024922334
182	0xbd68ac61	-0.05680502
183	0x3cfcc332	0.030854795
184	0xbcfc969a	-0.030833531
185	0xb9fc007f	-0.00048065555
186	0xbd476c5b	-0.04868732
187	0xbd20fb12	-0.03930194
188	0xbd3f5720	-0.04671395
189	0xbc460fce	-0.012088729
190	0xb9bcdba7	-0.00036021808
191	0x3d22db86	0.039760135
192	0x3bd68aaa	0.0065472918
193	0x3c5f1c19	0.013617539
194	0xbca732b5	-0.020409921
195	0xbd386140	-0.04501462
196	0xbc8bec63	-0.017080491
197	0xbd6a952d	-0.05727117
198	0xbda136a3	-0.07871749
199	0xbd8ab235	-0.067722715
200	0xbd2fb18e	-0.04289394
201	0xbafebf10	-0.0019435603
202	0xbd1ffda5	-0.039060254
203	0xbd24d900	-0.04024601
204	0xbd2eeb9e	-0.04270517
205	0xbc3ae73e	-0.0114076715
206	0xbd1ec80e	-0.038765006
207	0xbcc1fa4b	-0.02367892
208	0xbd9ee7ad	-0.077590324
209	0xbd18e4f4	-0.03732772
210	0xbbe4b2c0	-0.0069793165
211	0xbae81ae5	-0.001770821
212	0xbc0eb6ac	-0.008710545
213	0xbd64c83d	-0.055855025
214	0xbcc66774	-0.024219252
215	0xbd2eaab3	-0.04264326
216	0xbdabde19	-0.08391971
217	0xbd51fdb2	-0.051267333
218	0xbd23eb06	-0.040019058
219	0xbd9e7b9d	-0.07738421
220	0xbdd78b23	-0.10524585
221	0xbdf5e241	-0.12006045
222	0xbcecf5aa	-0.028925736
223	0xbd738da0	-0.059461236
224	0xbc9d757a	-0.019221056
225	0xbd1413f1	-0.03615183
226	0xbbf5f903	-0.007506491
227	0xbcb3cca1	-0.02194816
228	0xbd41bd05	-0.047299404
229	0xbd9b4982	-0.0758238
230	0xbdaf42a9	-0.08557636
231	0xbd917015	-0.07101456
232	0xbd37b4f7	-0.044850316
233	0xbd84c7c2	-0.06483413
234	0xbd1e3770	-0.038627088
235	0xbdd038c4	-0.10167077
236	0xbdc6fe4b	-0.09716471
237	0xbcc453ba	-0.023965705
238	0xbb9c5325	-0.004770654
239	0x3bf3caaa	0.007439931
240	0xbcefd19b	-0.029274752
241	0xbc749c71	-0.014929877
242	0xbd130f0b	-0.035903018
243	0xbcf7e5c0	-0.03026092
244	0xbd5fb279	-0.054613564
245	0xbcd3867a	-0.02582096
246	0xbca747ce	-0.020419981
247	0xbc8545d0	-0.01626864
248	0xbcdd56f7	-0.027019007
249	0xbd1bf397	-0.038074102
250	0xbdaf68b2	-0.08564891
251	0xbd9bb9c3	-0.076037906
252	0xbd534530	-0.051579654
253	0xbcffaa8a	-0.031209249
254	0xbd2f916e	-0.042863302
255	0xbdb57bcd	-0.08861504

base_feature_extractor.1.0.bias f4 [64]
0	0xb1e2f2d0	-6.6050703e-09
1	0xb2b1b40d	-2.068739e-08
2	0x3575b866	9.153795e-07
3	0xb3958835	-6.963129e-08
4	0xb4ee5ed1	-4.4399943e-07
5	0xb42440c0	-1.5297246e-07
6	0x3272f562	1.41420475e-08
7	0x338d8a73	6.591008e-08
8	0x345d0c93	2.0586803e-07
9	0x342a7a7b	1.5877042e-07
10	0x350764fc	5.043837e-07
11	0x3607dad4	2.0243942e-06
12	0x3549a383	7.5116276e-07
13	0xb41daeaf	-1.4685314e-07
14	0x355c6c27	8.211377e-07
15	0xb5978ea6	-1.1291893e-06
16	0x34e4cd14	4.2617523e-07
17	0x314fe918	3.0254963e-09
18	0x34027755	1.2150606e-07
19	0x33c546c2	9.186398e-08
20	0xb4290d94	-1.5744291e-07
21	0xb39e5d95	-7.374471e-08
22	0x3502e7eb	4.876626e-07
23	0xb59e7ed8	-1.1808834e-06
24	0x35889b81	1.0178047e-06
25	0x34a62954	3.094998e-07
26	0x34341572	1.6771608e-07
27	0xb421e30c	-1.5076893e-07
28	0x35945f2f	1.1054561e-06
29	0xb628e539	-2.5167376e-06
30	0x357fde38	9.5318273e-07
31	0xb3c6c56a	-9.256003e-08
32	0x34a77f60	3.1198852e-07
33	0xb32b947b	-3.9949082e-08
34	0x34882955	2.5362047e-07
35	0x345b0189	2.0396523e-07
36	0x3416a783	1.4030779e-07
37	0xb698b529	-4.551043e-06
38	0xb47d6822	-2.3600344e-07
39	0xb48d5c9f	-2.6330687e-07
40	0x33ff6dca	1.1894333e-07
41	0x34828e13	2.431776e-07
42	0x33a3908c	7.616572e-08
43	0xb5b0c439	-1.317013e-06
44	0x339b211a	7.223771e-08
45	0x35fb7c32	1.8737103e-06
46	0x32975582	1.7617598e-08
47	0xb3dbec97	-1.02410176e-07
48	0x34754895	2.2843808e-07
49	0x358aa311	1.032926e-06
50	0x33f33959	1.1326001e-07
51	0xb496b341	-2.8070102e-07
52	0x346f712b	2.229978e-07
53	0x35dea53e	1.6588381e-06
54	0xb2eebdc1	-2.7793137e-08
55	0x325fef47	1.3034714e-08
56	0x340f55af	1.3349084e-07
57	0xb3509c6f	-4.857105e-08
58	0x364ba151	3.0343256e-06
59	0x362e5d7e	2.598244e-06
60	0xb3c7ba7d	-9.3005816e-08
61	0x35ae887a	1.300373e-06
62	0x3424d347	1.5350552e-07
63	0xb1dbc8e6	-6.3965784e-09

base_feature_extractor.1.1.weight f4 [64]
0	0x3ef7ea7a	0.4842108
1	0x3f38b63f	0.72153085
2	0x3f48a4f7	0.78376716
3	0x3f1bac31	0.6080962
4	0x3f649995	0.8929685
5	0x3f19c623	0.6006796
6	0x3f239996	0.6390623
7	0x3f24c4a0	0.64362526
8	0x3f10c15f	0.5654506
9	0x3f3fd873	0.7493965
10	0x3f76a864	0.96350694
11	0x3f80edff	1.0072631
12	0x3f1bca42	0.60855496
13	0x3f2b858a	0.6700064
14	0x3f46c377	0.77642006
15	0x3f42af55	0.76048785
16	0x3f7c8779	0.98644215
17	0x3f0f9949	0.5609327
18	0x3f5a17a1	0.85192305
19	0x3f23e04b	0.6401412
20	0x3f58b0c4	0.8464472
21	0x3f279bba	0.65471995
22	0x3f1af6dd	0.60532933
23	0x3f5dbc33	0.86615294
24	0x3f34223d	0.70364743
25	0x3f45ccf4	0.7726586
26	0x3f7d5211	0.9895335
27	0x3f5b1ab7	0.8558764
28	0x3f6e0b00	0.92985535
29	0x3f6aadd1	0.9167147
30	0x3f615b9f	0.8803043
31	0x3f619125	0.881121
32	0x3f37d152	0.7180377
33	0x3f2a63fa	0.665588
34	0x3f1ae90b	0.60511845
35	0x3f385b42	0.7201425
36	0x3f83f0c5	1.0307852
37	0x3f82ac1d	1.0208775
38	0x3f69029f	0.91019624
39	0x3f225c77	0.6342234
40	0x3f33edf4	0.7028496
41	0x3f2f037b	0.68364686
42	0x3f2d0a21	0.6759358
43	0x3f773e72	0.9657966
44	0x3f2e0f38	0.6799197
45	0x3f682a2a	0.9068934
46	0x3f592e16	0.84835947
47	0x3ebd7d86	0.3700983
48	0x3f0b2c65	0.54364616
49	0x3f3c824e	0.7363633
50	0x3f1bfd88	0.60933733
51	0x3f14996d	0.5804661
52	0x3f1cc345	0.6123546
53	0x3f83d60c	1.0299697
54	0x3f1eb41b	0.6199357
55	0x3f31a435	0.69391185
56	0x3f0ec2c0	0.55765915
57	0x3f322beb	0.69598264
58	0x3f7ac104	0.9795077
59	0x3f6ad931	0.9173766
60	0x3f18a81e	0.59631526
61	0x3f8032f5	1.0015551
62	0x3f1bc8e7	0.6085343
63	0x3f819f3a	1.0126717

base_feature_extractor.1.1.bias f4 [64]
0	0x3dc56508	0.09638411
1	0x3e8ed0c2	0.27893645
2	0xbdcdaf48	-0.10043198
3	0x3ded01ff	0.11572646
4	0xbe38a3b3	-0.18031196
5	0x3dbf7c23	0.09349849
6	0xbe24dcea	-0.16099897
7	0xbdd03bbd	-0.10167644
8	0x3ddb0489	0.106942244
9	0xbd96a70b	-0.0735608
10	0xbd7e0e53	-0.06202538
11	0xbdebd18e	-0.11514579
12	0xbe281180	-0.16412926
13	0x3ea81a28	0.32832456
14	0xbe6cfef1	-0.23144127
15	0xbb1d25b6	-0.0023978776
16	0xbe063e96	-0.13109812
17	0x3d96c902	0.07362558
18	0xbdea7eda	-0.11449976
19	0x3e3bec95	0.18351968
20	0xbdea2516	-0.11432855
21	0x3e52ff15	0.20605119
22	0x3df26726	0.1183608
23	0xbdeb8eaf	-0.11501824
24	0xbd7107f9	-0.058845494
25	0xbe13cb73	-0.14433078
26	0xbe0e65c0	-0.13906002
27	0xbcfb7fc9	-0.030700581
28	0xbdeade4b	-0.1146818
29	0xbd8cd7bf	-0.06877088
30	0xbe30b212	-0.17255428
31	0xbe1ea28d	-0.15491696
32	0x3e9dfe26	0.30857962
33	0xbe36acd8	-0.17839372
34	0x3e9df74d	0.30852738
35	0x3e9d9991	0.30781224
36	0xbd65ad57	-0.056073513
37	0xbdd7db2d	-0.10539851
38	0xbdef504d	-0.11685238
39	0x3e81cac0	0.25349998
40	0x3eaa2b11	0.33235982
41	0x3ea0784c	0.3134178
42	0x3d952fed	0.07284532
43	0xbde10094	-0.109864384
44	0x3e9a5d70	0.30149412
45	0xbda6b062	-0.08139111
46	0xbe0b9867	-0.13632356
47	0x3c207c76	0.009795299
48	0xbe115358	-0.1419195
49	0xbe1ec5ab	-0.15505092
50	0x3de14bd6	0.11000793
51	0x3e10978d	0.14120312
52	0x3e590c5d	0.21196122
53	0xbda4675c	-0.08027527
54	0x3db0e44f	0.086372964
55	0x3e8845ba	0.26615697
56	0x3e2ac78d	0.16677685
57	0x3e9566d9	0.2918003
58	0xbdfc62ea	-0.12323554
59	0xbe2753ee	-0.1634061
60	0xbe48f6ba	-0.19625369
61	0xbdb1bbec	-0.086784214
62	0xbdbf3c0b	-0.09337624
63	0xbd5fcf90	-0.054641306

base_feature_extractor.1.1.running_mean f4 [64]
0	0xbe5bca7b	-0.21463959
1	0xbf155462	-0.5833188
2	0x3f629070	0.88501644
3	0xbeba6bbf	-0.3641033
4	0x3e7f37fe	0.24923703
5	0xbeb5837f	-0.35451886
6	0xbe975658	-0.29558063
7	0x3de2a40f	0.11066448
8	0xbf1c4969	-0.61049515
9	0x3f0719ce	0.5277375
10	0x3f1ddb45	0.61662704
11	0x3f85c55d	1.0450855
12	0x3f418b6c	0.75603366
13	0xbf3fdec9	-0.7494932
14	0x3e0dddf1	0.13854195
15	0xbe655d53	-0.22398882
16	0x3f54ecde	0.8317393
17	0xbece1602	-0.40251166
18	0x3f2c1b9b	0.6722962
19	0xbf073e0e	-0.5282906
20	0x3e68a5b9	0.22719468
21	0xbf1016eb	-0.5628497
22	0xbef95ecb	-0.48705134
23	0x3f21d2a3	0.6321203
24	0x3f1946c9	0.59873635
25	0x3f351ddf	0.70748705
26	0x3f61fd4b	0.8827712
27	0x3ed7f38a	0.42177993
28	0x3effa886	0.4993326
29	0x3f594be1	0.8488141
30	0x3f0ee5a0	0.5581913
31	0x3f3c64e2	0.73591435
32	0xbf567eba	-0.8378712
33	0x3f1e6471	0.6187201
34	0xbf34387e	-0.703987
35	0xbf2d89ab	-0.6778819
36	0x3f231374	0.6370156
37	0x3f2bfd23	0.6718313
38	0x3f95d5c3	1.170586
39	0xbf0b5430	-0.54425335
40	0xbf409c9c	-0.75238967
41	0xbf59c0ed	-0.85060006
42	0xbe80f60b	-0.25187716
43	0x3f82e75d	1.0226856
44	0xbf19c952	-0.60072815
45	0x3f2d33b2	0.67657006
46	0x3ea8e57a	0.32987577
47	0xbee72394	-0.4514433
48	0xbe9b854d	-0.30375138
49	0x3dc6127e	0.09671496
50	0xbebc72cf	-0.36806342
51	0xbf03297e	-0.5123519
52	0xbf17b6c5	-0.5926326
53	0x3f2fbf58	0.6865134
54	0xbed08193	-0.40723857
55	0xbf11986c	-0.568732
56	0xbf1b6c51	-0.6071215
57	0xbf3a8690	-0.72861576
58	0x3f361585	0.71126586
59	0x3f846f64	1.0346494
60	0x3e3099da	0.1724619
61	0x3f458154	0.77150464
62	0x3d62bb4a	0.055354394
63	0x3f086651	0.5328112

base_feature_extractor.1.1.running_var f4 [64]
0	0x3f7649b6	0.96206224
1	0x406045bb	3.504256
2	0x40b99958	5.7999687
3	0x3fe13e74	1.7597184
4	0x3f8ef82c	1.1169486
5	0x3fc4fe20	1.5390053
6	0x3fabb70a	1.3415234
7	0x3f0e0975	0.5548318
8	0x4079da0a	3.903933
9	0x400404df	2.0627973
10	0x403792e4	2.8683405
11	0x40e11b05	7.0345483
12	0x4051e35e	3.2795024
13	0x40a4f628	5.1550484
14	0x3f66a857	0.90100616
15	0x40074626	2.1136565
16	0x408e0f58	4.439373
17	0x401197ed	2.2748978
18	0x40432bb8	3.0495434
19	0x4042b273	3.0421417
20	0x400366d9	2.0531523
21	0x403b7f9b	2.9296634
22	0x40413254	3.0186968
23	0x403ad8d5	2.9194844
24	0x3ffbf443	1.9683918
25	0x405aab53	3.4167068
26	0x409e2e30	4.943138
27	0x3fa38f62	1.2778132
28	0x400a316c	2.1592665
29	0x40939bd2	4.612771
30	0x400e658a	2.2249475
31	0x4084304a	4.1308947
32	0x40b3407b	5.601621
33	0x4021654c	2.5218077
34	0x409682e9	4.7034802
35	0x40a9c7cf	5.3056407
36	0x406345ba	3.5511308
37	0x4064fb61	3.577843
38	0x410491bf	8.285583
39	0x400c8eb8	2.1962109
40	0x40a41232	5.127221
41	0x40bac1da	5.8361635
42	0x3f8b8e7b	1.0902857
43	0x40c68df4	6.2048283
44	0x404912e6	3.1417785
45	0x4069df26	3.654245
46	0x4022e591	2.5452616
47	0x3fcbbc6a	1.5916874
48	0x3f86c67b	1.0529321
49	0x3f1bf4dd	0.60920507
50	0x40111c73	2.2673614
51	0x403528b7	2.83061
52	0x40613a5b	3.5191867
53	0x4070e5a3	3.764016
54	0x3fe0cd00	1.7562561
55	0x406046a2	3.504311
56	0x4048946a	3.1340585
57	0x408eebcf	4.466285
58	0x406ff7c1	3.7494967
59	0x40d19abc	6.5501385
60	0x3ee0ec32	0.43930203
61	0x4061235c	3.5177832
62	0x3f6054cd	0.87629396
63	0x40103954	2.253499

language_head.2.weight f4 [2, 64]
0	0xbd699af8	-0.057032555
1	0xbd9b8886	-0.07594399
2	0xbd8d141e	-0.06888603
3	0x3d863038	0.06552166
4	0x3c3b2e20	0.011424571
5	0x3d200878	0.039070576
6	0xbc86d628	-0.01645954
7	0xbd9713b4	-0.07376805
8	0x3dc7bf9c	0.097533435
9	0x3dd15c00	0.10222626
10	0x3d7688dc	0.060189113
11	0x3de79ba4	0.11308983
12	0x3d776d90	0.06040722
13	0x3d74aae4	0.059733286
14	0x3da8dcb4	0.08245221
15	0xbd9070d8	-0.07052773
16	0x3c65fb50	0.014036968
17	0x3d0b6318	0.03403005
18	0xbcc06ab0	-0.023488373
19	0x3da30dc0	0.07961607
20	0x3de2516a	0.11050685
21	0x3d8f7102	0.070039764
22	0xbd85d2e6	-0.06534366
23	0x3d979ed2	0.074033394
24	0x3dd67104	0.10470775
25	0xbd48d5cc	-0.049032018
26	0x3dde8808	0.1086579
27	0xbdbe0960	-0.09279132
28	0xbd2f9d68	-0.042874724
29	0x3dcd2300	0.10016441
30	0x3de69cee	0.11260401
31	0xbd072758	-0.032996505
32	0x3d8638b6	0.065537855
33	0x3bb85ca0	0.005626276
34	0xbd903222	-0.07040812
35	0x3d909174	0.07058993
36	0x3b319340	0.0027095824
37	0x3ba1ba00	0.004935503
38	0xbdc281e4	-0.09497431
39	0xbdff7ba6	-0.12474756
40	0x3d856c0c	0.06514749
41	0x3dc46d52	0.09591164
42	0xbd0e3e38	-0.034727305
43	0x3dc13a0c	0.094349
44	0x3d9daf5c	0.07699463
45	0xbdf5080c	-0.119644254
46	0x3d0e955c	0.03481041
47	0xbde9794e	-0.1140009
48	0x3dbdd79a	0.09269638
49	0xbc40f120	-0.011776239
50	0x3daa0e24	0.08303478
51	0xbda76d98	-0.081752
52	0x3d6add64	0.05734004
53	0xbd998fe2	-0.074981466
54	0xbdda603e	-0.10662888
55	0xbdf59f86	-0.11993317
56	0x3c072c10	0.008250251
57	0xbda30580	-0.079600334
58	0xbd872522	-0.065988794
59	0x3d3336c8	0.043753415
60	0x3c868918	0.016422793
61	0xbda546bc	-0.08070132
62	0x3dd3c5d4	0.10340467
63	0xbd9d49d2	-0.07680096
64	0x3db381e0	0.08765006
65	0xbcfe55e0	-0.031046808
66	0x3c89ebb0	0.016836017
67	0xbded58c8	-0.11589199
68	0xbce708c0	-0.028202415
69	0x3cb62400	0.022233963
70	0x3d92c770	0.07166946
71	0x3dcbf8f4	0.099595934
72	0xbd7d25e0	-0.0618037
73	0x3d173d8c	0.03692393
74	0x3d82eb9e	0.06392597
75	0xbbbebe40	-0.0058210194
76	0x3bcee920	0.0063144118
77	0xbdb66638	-0.089062154
78	0x3df3d91e	0.11906646
79	0xbd60b46c	-0.054859564
80	0x3defc15e	0.11706804
81	0x3de13646	0.1099668
82	0xbc7650b0	-0.015033886
83	0x3d6f10d0	0.058365643
84	0xbceff590	-0.029291898
85	0x3d946704	0.07246211
86	0x3d0bca48	0.034128457
87	0xbcfa4ec0	-0.030555129
88	0x3cd2c920	0.02573067
89	0xbd104c44	-0.035228983
90	0xbcea7230	-0.028618902
91	0x3d8a0d84	0.06740859
92	0x3d0a521c	0.03376971
93	0xbd3216a4	-0.043478623
94	0x3de71e1a	0.11285038
95	0xbd801a06	-0.062549636
96	0xbca5ca20	-0.020237982
97	0x3d5e0c88	0.05421117
98	0x3da0071e	0.078138575
99	0xbdf51f74	-0.1196889
100	0xbcb448c0	-0.022007346
101	0x3dfbd744	0.12296918
102	0x3bcf80e0	0.006332502
103	0xbda3188a	-0.07963665
104	0x3c2bb0b0	0.010479137
105	0xbdd324a0	-0.1030972
106	0xbd80680a	-0.06269844
107	0xbd90c926	-0.07069616
108	0xbdb9bd62	-0.09069325
109	0xbdf10b1c	-0.11769697
110	0x3d81bff6	0.06335442
111	0xbd3322f4	-0.043734506
112	0xbb99cbc0	-0.0046934783
113	0xbd8415a8	-0.06449443
114	0xbc550d80	-0.013003707
115	0xbdf8de28	-0.12151748
116	0x3dbd6e78	0.09249586
117	0x3df58fbe	0.11990307
118	0x3d3a392c	0.04546468
119	0xbce67038	-0.028129682
120	0x3cb99ea0	0.022658646
121	0xbdf8fce4	-0.1215761
122	0xbbcab3c0	-0.0061859787
123	0xbdbda57c	-0.09260079
124	0xbdc1888c	-0.094498724
125	0xbb6bffc0	-0.0036010593
126	0x3d807cf2	0.062738314
127	0xbdb340f6	-0.08752625

language_head.2.bias f4 [2]
0	0x3d89d970	0.06730926
1	0x3de9001e	0.113769755

disease_feature_extractor.0.0.0.weight f4 [64, 64, 3]
0	0xbdfd2720	-0.12360978
1	0xbdf7fbe5	-0.12108592
2	0xbdc874f1	-0.0978793
3	0xbd2e9e8d	-0.042631675
4	0xbd9ee62f	-0.07758748
5	0xbd3b0d4a	-0.04566697
6	0xbd6a728e	-0.057238154
7	0xbc8ac1a7	-0.016938044
8	0xbcf438f8	-0.029812321
9	0xbd3f5191	-0.046708647
10	0xbdada699	-0.084790416
11	0xbdb3aee5	-0.08773593
12	0xbd8099c3	-0.06279328
13	0xbd28f6c9	-0.041250978
14	0xbdad6f5f	-0.08468508
15	0xbd51406f	-0.05108684
16	0xbdc4b4aa	-0.096047714
17	0xbd45e37c	-0.04831265
18	0x3d047537	0.032338347
19	0xbbb4fd12	-0.0055233324
20	0x3ab129cf	0.0013516488
21	0xbd18b168	-0.037278563
22	0xbd0af9c3	-0.033929598
23	0xbd234d57	-0.03986868
24	0xbdba9058	-0.09109563
25	0xbd8502f9	-0.064947076
26	0xbdaf16f2	-0.08549298
27	0xbc00f0e2	-0.007869931
28	0xbc0de533	-0.008660602
29	0xbcb8d3d4	-0.022561945
30	0xbccf819b	-0.025330355
31	0x3d41c773	0.04730935
32	0xbca21042	-0.019783143
33	0xbc28fae3	-0.010313722
34	0x3c43db09	0.0119540775
35	0xbd257e67	-0.04040375
36	0xbca85854	-0.02054993
37	0xbcfdf819	-0.031002091
38	0xbd68ccb6	-0.056835853
39	0xbda0faa8	-0.07860309
40	0xbd6e3e6f	-0.05816501
41	0xbd90e878	-0.0707559
42	0xbd7b78a9	-0.061394367
43	0xbcfb0a87	-0.030644668
44	0xbd45d082	-0.04829455
45	0xbd88c206	-0.06677632
46	0xbc4cbb62	-0.012495847
47	0xbcf0b87b	-0.029384842
48	0xbcf23d7c	-0.029570334
49	0xbb6c41dc	-0.0036049997
50	0xbd7d59ec	-0.061853334
51	0xbda3a41c	-0.07990286
52	0xbd648071	-0.055786554
53	0xbd6c0c0b	-0.057628673
54	0xbd35d557	-0.04439291
55	0xbd50b8a2	-0.05095733
56	0xbd3d18ea	-0.046166338
57	0xbd8b914a	-0.06814821
58	0xbd729195	-0.05922087
59	0xbd946356	-0.07245509
60	0xbd5384cc	-0.051640317
61	0xbd9d9a4a	-0.07695444
62	0xbdaac188	-0.083376944
63	0xbddbe368	-0.10736734
64	0xbd25672b	-0.04038159
65	0xbdd766d4	-0.1051766
66	0xbdaa8b1c	-0.08327314
67	0xbd6a3d65	-0.057187457
68	0xbd8fae23	-0.07015636
69	0xbc552c08	-0.013010986
70	0xbcbdb4fd	-0.023157591
71	0xbd93880c	-0.07203683
72	0xbd492d31	-0.049115364
73	0xbcf69601	-0.030100824
74	0x3c8f083c	0.017459981
75	0xbd79bddc	-0.06097208
76	0xbd8ec2ec	-0.06970772
77	0xbcf9a6bd	-0.030475015
78	0xbd1b7da1	-0.037961606
79	0x3c05c6f8	0.008165114
80	0xbc104258	-0.00880488
81	0xbc0f61e0	-0.008751363
82	0x3be85dee	0.0070912754
83	0xbc0c3872	-0.0085583795
84	0xbd019919	-0.031640146
85	0xbc8bea7a	-0.01707958
86	0xbd50662a	-0.05087868
87	0xbcbbd72a	-0.022929747
88	0xbc44f204	-0.012020592
89	0xbcf3459b	-0.029696276
90	0xbc909581	-0.017649414
91	0xbc13cef1	-0.009021507
92	0xbbc03482	-0.0058656344
93	0xbda55125	-0.08072118
94	0xbd8d0d33	-0.06887283
95	0xbd724b3c	-0.05915378
96	0xbd50f271	-0.05101246
97	0xbd9c2ff6	-0.07626335
98	0xbd09bf43	-0.033629667
99	0xbd8c3135	-0.06845323
100	0xbd94fb8a	-0.0727454
101	0xbd075747	-0.03304222
102	0xbc2b6e83	-0.01046336
103	0xbccbe2b4	-0.024888374
104	0xbd48d65d	-0.049032558
105	0xbd99f844	-0.07518056
106	0xbd170bbe	-0.036876433
107	0xbd2ee1f0	-0.04269594
108	0xbd5f2062	-0.054474242
109	0xbd864a5c	-0.06557152
110	0xbd7615d1	-0.0600794
111	0xbd9ed873	-0.07756128
112	0xbd86ede2	-0.06588341
113	0xbda43f87	-0.080199294
114	0xbdbe3690	-0.09287751
115	0xbd46b3b6	-0.04851123
116	0xbd9a5b88	-0.075369895
117	0xbd51a15c	-0.051179275
118	0xbd8d6907	-0.06904798
119	0xbdb759ee	-0.089526996
120	0xbce8fb11	-0.02844003
121	0xbd0d40b4	-0.034485534
122	0xbd833430	-0.06406438
123	0xbd1d88e3	-0.038460623
124	0xbd3b36fa	-0.045706727
125	0xbda1bd2b	-0.07897409
126	0xbd5ca1fd	-0.05386542
127	0xbd8552e1	-0.065099485
128	0xbd19df2f	-0.03756636
129	0xbd749358	-0.05971083
130	0xbcb10da4	-0.02161295
131	0xbd27a2a8	-0.040926605
132	0xbde011b3	-0.10940876
133	0xbdae2d20	-0.08504701
134	0xbda22471	-0.07917107
135	0xbd77d66f	-0.060507234
136	0xbd0115ae	-0.031514816
137	0xbcbee1b2	-0.02330098
138	0xbdf10df0	-0.117702365
139	0xbda7d745	-0.08195356
140	0xbe0ceeff	-0.13763045
141	0xbd24a1a8	-0.04019323
142	0xbd5dd5c7	-0.054158952
143	0xbd05bb02	-0.032649048
144	0xbd485fc9	-0.048919473
145	0xbcf17cb7	-0.029478414
146	0xbd1d2219	-0.038362596
147	0xbdc8733a	-0.09787603
148	0xbd98a84d	-0.07453976
149	0xbcfe8212	-0.031067882
150	0xbd900485	-0.07032112
151	0xbd563848	-0.052299768
152	0xbdbae7bf	-0.09126233
153	0xbd20d7ec	-0.03926842
154	0xbd47b36f	-0.048755106
155	0xbd32693c	-0.04355739
156	0xbd5c7af7	-0.053828206
157	0xbdb70c7e	-0.089379296
158	0xbd813c9d	-0.06310389
159	0xbd8381d6	-0.064212486
160	0xbca6165a	-0.02027433
161	0x3b312c31	0.0027034397
162	0xbcf3c5e7	-0.029757453
163	0xbd0d6b08	-0.0345259
164	0xbd44f0e7	-0.048081305
165	0xbdb4eae6	-0.08833866
166	0xbd95d1ff	-0.07315444
167	0xbd389faa	-0.045074143
168	0xbd54bb0f	-0.051936205
169	0xbd5ac778	-0.053412884
170	0xbd5e820b	-0.054323237
171	0xbd86a463	-0.06574323
172	0xbdd078aa	-0.10179265
173	0xbd8bd09c	-0.068268985
174	0xbc182eb3	-0.009288478
175	0xbc1526d5	-0.009103497
176	0xbd09361c	-0.03349887
177	0xbd1783e7	-0.036991026
178	0x3c7ae2eb	0.0153128905
179	0xbc5db000	-0.013530731
180	0xbd351edd	-0.044218887
181	0xbd380fd0	-0.044936955
182	0xbd0cfced	-0.034420896
183	0xbccda902	-0.025105003
184	0x3cab0203	0.020874983
185	0xbc5f370c	-0.013623964
186	0xbd0228a0	-0.031777024
187	0xbc01b00f	-0.007915511
188	0xbcad7fe3	-0.021179145
189	0x3c6c9eb8	0.014442138
190	0xbc43196f	-0.011907919
191	0x3d03a6ea	0.032141604
192	0xbdf50546	-0.119638965
193	0xbda2aa5c	-0.0794265
194	0xbdacc5c2	-0.08436157
195	0xbd5e05e8	-0.05420485
196	0xbdcc2cd3	-0.09969487
197	0xbdcef662	-0.101055875
198	0xbcfe5ec4	-0.031051047
199	0xbd7e7095	-0.062119085
200	0xb9869fb6	-0.00025677466
201	0xbd7ec93d	-0.062203635
202	0xbd68e909	-0.056862865
203	0xbd1bf160	-0.03807199
204	0xbd96d283	-0.07364371
205	0xbd7ba7f4	-0.06143947
206	0xbd819ac8	-0.0632835
207	0xbd9c9ef3	-0.07647505
208	0xbd45d337	-0.048297133
209	0xbd52edc2	-0.051496275
210	0xbcaea0bd	-0.02131688
211	0x3c1c15cb	0.00952668
212	0x3c0658e1	0.008199901
213	0xbb6cff04	-0.0036162743
214	0xbbdede28	-0.0068013854
215	0xbcfa18ca	-0.030529398
216	0xbd80354c	-0.062601656
217	0xbd867bd1	-0.06566585
218	0xbdb8bd45	-0.09020475
219	0xbce75c40	-0.02824223
220	0xbbdae73e	-0.0066803982
221	0x3a855abe	0.0010174138
222	0xbc6d40b5	-0.014480759
223	0x3d10013d	0.03515743
224	0x3d15075b	0.036383968
225	0xbc8d4c9c	-0.017248444
226	0xbced762c	-0.028987013
227	0xbd47aa75	-0.048746545
228	0xbd27e7be	-0.04099249
229	0xbd26a01e	-0.040680043
230	0xbd508a41	-0.0509131
231	0xbd9bbc08	-0.076042235
232	0xbda44249	-0.080204554
233	0xbdba5510	-0.09098256
234	0xbca84ff4	-0.020545937
235	0xbd300b49	-0.042979512
236	0xbda135b3	-0.078715704
237	0xbd743ddf	-0.059629317
238	0xbd1de068	-0.03854409
239	0xbcb4c15c	-0.022064857
240	0xbd346e11	-0.04405028
241	0xbcf175e4	-0.02947516
242	0xbbe74f59	-0.0070590195
243	0xbdac354a	-0.084086016
244	0xbdd2a6bb	-0.102857076
245	0xbd584cf3	-0.05280776
246	0xbd54722a	-0.051866688
247	0xbcc60908	-0.024174228
248	0xbd8d212d	-0.068910934
249	0xbd8a404d	-0.06750546
250	0xbd5ea686	-0.054358028
251	0xbdae87aa	-0.085219696
252	0xbdb618be	-0.08891438
253	0xbd36a82a	-0.044593967
254	0xbd40e285	-0.047091026
255	0xbdb09ce9	-0.08623678

disease_feature_extractor.0.0.0.bias f4 [64]
0	0xb3c43e23	-9.138264e-08
1	0xb4823711	-2.4254453e-07
2	0x33ae3563	8.1122174e-08
3	0xb4774e46	-2.3032143e-07
4	0x33567102	4.9928538e-08
5	0xb3a1d9b5	-7.5367474e-08
6	0x34080178	1.2666521e-07
7	0x33efa61d	1.11595206e-07
8	0x32a4228c	1.9107823e-08
9	0x332971e0	3.9451947e-08
10	0x344205f9	1.8069831e-07
11	0x341d4311	1.4646163e-07
12	0x33767909	5.738642e-08
13	0xb3a5dd77	-7.7236955e-08
14	0xb3cdced3	-9.5836775e-08
15	0x341ff5de	1.4897475e-07
16	0x34d8858b	4.03303e-07
17	0xb45810d3	-2.0122688e-07
18	0x31cd1fa5	5.969883e-09
19	0xb3241e98	-3.821205e-08
20	0x3450cf80	1.9446998e-07
21	0x338f4f8d	6.6734266e-08
22	0xb32bba11	-3.9983266e-08
23	0x34110a2a	1.3507875e-07
24	0xb45cb3c5	-2.0554496e-07
25	0x33248a47	3.8309988e-08
26	0x34b21c22	3.3175553e-07
27	0xb3999d70	-7.1532554e-08
28	0xb1b2045b	-5.180977e-09
29	0x34d7780a	4.013421e-07
30	0x33ecf075	1.1033345e-07
31	0xb13f1ebc	-2.7811629e-09
32	0xb4f6d223	-4.5973965e-07
33	0xb3b06b47	-8.215152e-08
34	0x32b89a48	2.1490578e-08
35	0xb3a36cb8	-7.610055e-08
36	0xb350df1d	-4.8631694e-08
37	0x3428795d	1.5690371e-07
38	0x3313eeb9	3.444322e-08
39	0xad911db8	-1.649779e-11
40	0x33a8f4cd	7.8676386e-08
41	0x337fe84f	5.9583098e-08
42	0x3366790a	5.3661132e-08
43	0xb4189f8b	-1.4214145e-07
44	0x3337b2d9	4.277067e-08
45	0x349abc18	2.8821592e-07
46	0x34f365b0	4.5336265e-07
47	0x3279263b	1.45024e-08
48	0xb3dec7d9	-1.0374033e-07
49	0x33f85a11	1.1564783e-07
50	0x3390aecd	6.7373186e-08
51	0xb1958a6e	-4.3522084e-09
52	0x332c5c63	4.0130896e-08
53	0xb351c4c2	-4.8840555e-08
54	0x32baf5f4	2.1765096e-08
55	0xb3c43805	-9.137151e-08
56	0xb43d3756	-1.7622128e-07
57	0xb3370157	-4.2609226e-08
58	0xb3daaff5	-1.01834225e-07
59	0x349f423f	2.9664258e-07
60	0x319dfe47	4.5982094e-09
61	0x32ee494f	2.7740183e-08
62	0x33d4a600	9.9022145e-08
63	0xb417366b	-1.4082768e-07

disease_feature_extractor.0.0.1.weight f4 [64]
0	0x3f294236	0.66116655
1	0x3f5f9dfa	0.8735043
2	0x3f41973e	0.756214
3	0x3f3c4803	0.7354738
4	0x3f12ce1b	0.5734574
5	0x3f37c202	0.7178041
6	0x3f5ca544	0.86189675
7	0x3f33eb2d	0.70280725
8	0x3f2357d4	0.6380589
9	0x3f253c55	0.64545184
10	0x3f7a3ae2	0.977461
11	0x3f577601	0.84164435
12	0x3f606860	0.87659264
13	0x3f413153	0.7546589
14	0x3f589704	0.8460543
15	0x3f6961a6	0.91164625
16	0x3f73332a	0.94999945
17	0x3f62acba	0.8854481
18	0x3f62f2db	0.8865182
19	0x3f4a8fd4	0.79125714
20	0x3f563ab6	0.83683336
21	0x3f511816	0.8167738
22	0x3f4048dd	0.7511118
23	0x3f550501	0.8321076
24	0x3f556601	0.8335877
25	0x3f46e4a8	0.7769265
26	0x3f49e84b	0.78870076
27	0x3f4883e5	0.78326255
28	0x3f31c351	0.69438654
29	0x3f80677b	1.003158
30	0x3f732131	0.9497252
31	0x3f2123f3	0.6294548
32	0x3f608c78	0.8771434
33	0x3f30db74	0.6908486
34	0x3f3fd362	0.7493192
35	0x3f216899	0.6305023
36	0x3f3cd51d	0.73762685
37	0x3f3ee5e2	0.74569523
38	0x3f6acbae	0.9171704
39	0x3e9ea442	0.30984694
40	0x3f37c278	0.7178111
41	0x3f5bc792	0.85851395
42	0x3f4febcf	0.8121919
43	0x3f6a9d74	0.91646504
44	0x3f1d3b8b	0.6141898
45	0x3f6c8b13	0.9239971
46	0x3f64757f	0.89241785
47	0x3f4c3c28	0.7977929
48	0x3f525ec1	0.82175833
49	0x3f2bc314	0.6709454
50	0x3f508f43	0.814686
51	0x3f355d47	0.70845455
52	0x3f45dd19	0.77290493
53	0x3f50111c	0.81276107
54	0x3f025ff1	0.50927645
55	0x3f37cc24	0.7179587
56	0x3f44b324	0.76835847
57	0x3f368e9f	0.7131137
58	0x3f75ea99	0.9606109
59	0x3f5ac94f	0.8546342
60	0x3f435020	0.76294136
61	0x3f786475	0.97028285
62	0x3f50f5c2	0.81624997
63	0x3f540067	0.82813114

disease_feature_extractor.0.0.1.bias f4 [64]
0	0x3e6b04c3	0.22951035
1	0x3e581275	0.21100791
2	0x3c0da160	0.008644432
3	0x3e35f791	0.1777022
4	0xbd93a89f	-0.07209896
5	0x3e573c2c	0.21019047
6	0xbd04ab78	-0.032390088
7	0x3e13b578	0.14424694
8	0x3d9b2187	0.07574754
9	0x3b24b139	0.0025130047
10	0xbcb0f2e3	-0.021600192
11	0xbdd0e6c3	-0.10200264
12	0x3bb79d11	0.0056034406
13	0xbe2d1008	-0.16900647
14	0x3db436c0	0.08799505
15	0xbdf3248e	-0.11872207
16	0xbe356dbe	-0.17717645
17	0xbe055a43	-0.13022713
18	0xbd5bc1f0	-0.05365175
19	0x3c0cc4c8	0.008591838
20	0x3e899c43	0.2687703
21	0x3e4db6f8	0.20089328
22	0x3e113cc9	0.14183344
23	0xbc3b19ed	-0.011419755
24	0x3c4627b2	0.012094425
25	0xbd1af861	-0.03783453
26	0xbe21df9b	-0.15807955
27	0xbbc3e39e	-0.005978062
28	0xbd0360df	-0.032074805
29	0xbaafd222	-0.0013414065
30	0xbd2abada	-0.0416821
31	0xbdb63272	-0.088963404
32	0x3e54bdb0	0.20775485
33	0xbd7a40aa	-0.061096825
34	0xbdb939f2	-0.09044255
35	0x3d9b3bd3	0.0757977
36	0xbdd8ac3e	-0.105797276
37	0x3d5ab23b	0.05339263
38	0xbde5ba8b	-0.11217221
39	0xbe3cab84	-0.18424803
40	0x3e53994e	0.2066395
41	0x3e4f9db2	0.20275
42	0x3e50d924	0.20395333
43	0xbd87c34b	-0.06629046
44	0xbdd45642	-0.10368015
45	0xbd84a8c4	-0.06477502
46	0x3e7abbe0	0.24485731
47	0x3dbe75ed	0.09299836
48	0x3e350601	0.17678072
49	0x3e0846cc	0.13308257
50	0x3e77e9fe	0.24210355
51	0x3d8cd641	0.06876803
52	0x3e772005	0.24133308
53	0xbcd063f1	-0.02543828
54	0x3dc8f243	0.09811833
55	0x3d68bd16	0.05682095
56	0x3e562855	0.20913823
57	0x3e888538	0.26664138
58	0xbbf152ad	-0.007364592
59	0xbd187af7	-0.037226643
60	0xbcfb75b2	-0.03069577
61	0xbd734da1	-0.059400205
62	0x3e121437	0.14265524
63	0x3d4e7c81	0.050411705

disease_feature_extractor.0.0.1.running_mean f4 [64]
0	0xc0d93269	-6.7874036
1	0xc0d913a3	-6.783647
2	0x40792104	3.89264
3	0xc0ecf0ab	-7.4043784
4	0x3f33aa53	0.7018177
5	0xc0b132ca	-5.53745
6	0x3f34fba6	0.70696485
7	0xc0ac6bb5	-5.388148
8	0xc03a32f5	-2.9093602
9	0x3f0f5c4e	0.5600022
10	0x404de9cb	3.2173946
11	0x4007da50	2.1226997
12	0xbed24e0f	-0.4107518
13	0x3f4315ef	0.76205343
14	0xc086def3	-4.2147155
15	0x40520e28	3.282114
16	0x4062425c	3.5353003
17	0x40e50f69	7.158131
18	0x3f091268	0.5354371
19	0xc09e72d8	-4.951519
20	0xc0ae3077	-5.443416
21	0xc0df6b5c	-6.9818554
22	0xc0f6cf7a	-7.7128267
23	0x402908d3	2.6411636
24	0xc08b7841	-4.3584294
25	0x40661fd2	3.5956922
26	0xbe3923a0	-0.18079996
27	0xc0daed2a	-6.8414507
28	0x406130db	3.518607
29	0x40758306	3.836122
30	0x406de0ab	3.7168376
31	0x4090fa10	4.530525
32	0xc10655a2	-8.395906
33	0x3ffc3a5e	1.9705312
34	0x3f9ed9e3	1.2410244
35	0xc0d3ba91	-6.616524
36	0x3f1e8038	0.61914396
37	0xbd9d8f55	-0.07693354
38	0x40333a31	2.8004267
39	0xbf8a7762	-1.0817683
40	0xc0ed531d	-7.4163957
41	0xc105bf3d	-8.359189
42	0xc0be8f4c	-5.9549923
43	0xc03394b7	-2.8059518
44	0xbee8d388	-0.45473886
45	0xbfbbb618	-1.4664946
46	0xc0b6eaa8	-5.7161446
47	0xc0c5c234	-6.1799564
48	0xc0ccef8f	-6.404243
49	0xc05dddb5	-3.466657
50	0xc0ecede6	-7.4040403
51	0xc0864acd	-4.196631
52	0xc0f709cf	-7.7199473
53	0x403e17dc	2.9702063
54	0xc089e5db	-4.3093085
55	0x408c0f5b	4.3768744
56	0xc0f22a70	-7.5676804
57	0xc0b33105	-5.599734
58	0x406728fe	3.611877
59	0xbf85bcff	-1.0448302
60	0x40090450	2.1408882
61	0x40200c42	2.5007482
62	0xc0c67fff	-6.2031245
63	0xbfb8aa6e	-1.4427011

disease_feature_extractor.0.0.1.running_var f4 [64]
0	0x43019a72	129.6033
1	0x43015592	129.33426
2	0x440d2a31	564.65924
3	0x4302abf2	130.67166
4	0x430a78bb	138.4716
5	0x42d2e0bf	105.43896
6	0x4317580c	151.34393
7	0x42d6e427	107.44561
8	0x425b5039	54.828342
9	0x435f176b	223.09148
10	0x43d7bb03	431.46103
11	0x43ad9838	347.1892
12	0x4369c53c	233.77045
13	0x430b86d9	139.52675
14	0x4312155a	146.0834
15	0x4422e407	651.5629
16	0x4441fe52	775.97375
17	0x42a1b4dc	80.85324
18	0x43cb5a52	406.70563
19	0x4339af73	185.68535
20	0x43169d61	150.61476
21	0x43171402	151.07816
22	0x430df067	141.93907
23	0x43df82a5	447.02066
24	0x42d0e4a2	104.44655
25	0x43b664c1	364.78714
26	0x431b8e06	155.55478
27	0x433df01e	189.93796
28	0x43527b46	210.48154
29	0x4400bb1c	514.9236
30	0x4436f6cd	731.85626
31	0x430d18f8	141.09753
32	0x433339f3	179.22636
33	0x439a270d	308.30508
34	0x41c4d755	24.605143
35	0x42abd39a	85.913284
36	0x43827300	260.89844
37	0x429aff8d	77.49912
38	0x4447557a	797.3356
39	0x41697ce1	14.592988
40	0x4315bcd4	149.73761
41	0x433e7849	190.46986
42	0x43236f67	163.43517
43	0x4360a729	224.65297
44	0x40718223	3.773568
45	0x4335d316	181.82455
46	0x4303205d	131.12642
47	0x42a15af8	80.67767
48	0x42fcc691	126.387825
49	0x427b6dc7	62.857204
50	0x43164226	150.25839
51	0x42731266	60.767967
52	0x43192bff	153.17186
53	0x43c5464b	394.54916
54	0x424ac4e7	50.692287
55	0x4357f31b	215.94963
56	0x43250879	165.0331
57	0x42bc11f8	94.035095
58	0x43f29942	485.19733
59	0x432e42f6	174.26157
60	0x43501902	208.09769
61	0x44183383	608.8049
62	0x42fd9311	126.78724
63	0x4307a42a	135.64127
