models/spec_cnn/all/best_model.pth (torch, 490594 bytes, 36 tensors)

cnn_backbone.0.weight f4 [16, 3, 3, 3]
0	0x3e134193	0.14380483
1	0xbdfec15f	-0.12439226
2	0x3de99a4a	0.114063814
3	0xbc8989f7	-0.01678942
4	0x3d48d742	0.04903341
5	0x3df8fdf3	0.12157812
6	0xbd1dfabb	-0.038569193
7	0x3e44e345	0.19227321
8	0x3e0a6d86	0.13518342
9	0xbdf81422	-0.12113215
10	0x3e47f442	0.1952677
11	0x3d95171d	0.07279799
12	0x3dbb5d25	0.09148625
13	0x3e11e3c7	0.14247046
14	0x3e1f1500	0.15535355
15	0xbd6f1c71	-0.058376733
16	0x3db3313f	0.08749627
17	0x3e895bfa	0.26827985
18	0x3da8a330	0.082342505
19	0xbc4cfd85	-0.012511616
20	0xbe5e1924	-0.21689278
21	0xbd0a6f1f	-0.03379738
22	0xbe0532d0	-0.13007665
23	0x3e0196b0	0.12655139
24	0xbe200b0e	-0.15629217
25	0xbc4f57ec	-0.01265524
26	0xbd932568	-0.07184869
27	0x3cd375ec	0.025813065
28	0x3e33d3e7	0.17561303
29	0x3df5cbcd	0.120017625
30	0x3dde659e	0.10859226
31	0x3e0a8dc3	0.1353064
32	0x3e63c14a	0.22241703
33	0xbd273083	-0.04081775
34	0x3b9c6f5e	0.004774018
35	0x3e422b95	0.18961938
36	0xbd9eeae0	-0.077596426
37	0x3d2a113c	0.041520342
38	0x3cf19a52	0.029492531
39	0xbe0a8498	-0.13527143
40	0x3d13842c	0.03601472
41	0x3d772327	0.06033626
42	0x3df14aea	0.11781867
43	0x3e778207	0.24170695
44	0x3e551f2a	0.2081267
45	0x3da92d78	0.082606256
46	0xbd241bfb	-0.040065747
47	0xbdd4ca79	-0.10390181
48	0xbe5efc54	-0.21775943
49	0xbe1f3e0c	-0.15551013
50	0xbddc3525	-0.10752324
51	0xbe217963	-0.15768962
52	0xbe460400	-0.19337463
53	0xbdd6e775	-0.10493366
54	0xbe004f4c	-0.1253025
55	0xbe526b92	-0.20548847
56	0xbdfe0474	-0.12403193
57	0x3d843df5	0.0645713
58	0x3e0dc9a9	0.13846458
59	0xbd5c6003	-0.0538025
60	0xbd8de3e4	-0.06928232
61	0x3d936c18	0.071983516
62	0xbdceeda7	-0.10103922
63	0xbdd75be4	-0.105155736
64	0x3dcbd65c	0.09952995
65	0xbe275d63	-0.16344218
66	0x3bcb53dd	0.0062050656
67	0x3e11e4a2	0.14247373
68	0x3d17901e	0.037002675
69	0x3d0aab45	0.03385474
70	0xbe1042b2	-0.14087942
71	0xbc0aa6c2	-0.00846261
72	0x3d378f5f	0.044814464
73	0x3db053a1	0.08609701
74	0x3e0699fb	0.13144676
75	0x3e4f69b3	0.20255165
76	0xbdda017f	-0.106448166
77	0x3d86f81e	0.06590293
78	0xbd821084	-0.06350806
79	0xbded004e	-0.11572324
80	0x3d231963	0.039819133
81	0xbe658866	-0.22415313
82	0x3cb671c0	0.022271037
83	0xbabea378	-0.0014544567
84	0xbe2985ec	-0.16554993
85	0xbbc4fdf8	-0.0060117207
86	0xbe3e5af7	-0.18589388
87	0xbdd69c92	-0.10479082
88	0xbe0b9fb9	-0.13635148
89	0xbdf44b63	-0.119284414
90	0xbdaeb69f	-0.08530926
91	0xbd919747	-0.07108932
92	0x3e493232	0.19648054
93	0x3e424ece	0.18975374
94	0x3d9faedf	0.07797026
95	0xbc1a2d3a	-0.009410197
96	0xbd83af9d	-0.0642998
97	0x3df87cc5	0.12133173
98	0x3e425921	0.18979312
99	0x3d91cba1	0.07118917
100	0x3ca179b9	0.019711362
101	0xbc884199	-0.016632842
102	0x3aadd360	0.0013261847
103	0x3e3966bb	0.18105595
104	0x3db1b37c	0.08676812
105	0x3da46223	0.080265306
106	0xbe1f353c	-0.15547651
107	0x3d85dec5	0.065366305
108	0x3d83fd34	0.06444779
109	0xbd8a9152	-0.06765999
110	0x3d423579	0.047414277
111	0x3e128def	0.14311956
112	0xbe089cef	-0.13341115
113	0x3e04f90a	0.12985626
114	0xbd785fc9	-0.060638223
115	0xbd324a56	-0.043527924
116	0x3e162c98	0.14665449
117	0x3e743b81	0.23850824
118	0x3ce5f108	0.028069034
119	0x3c6270ec	0.013820868
120	0xbdb823a4	-0.08991173
121	0xbc9274f9	-0.017878043
122	0xbd9ae5da	-0.07563372
123	0x3d46a847	0.048500326
124	0x3df5c1d7	0.11999863
125	0xbdadf08a	-0.08493145
126	0x3e51b050	0.20477414
127	0x3e1a5e0a	0.15074936
128	0xbe1c3ea0	-0.15258265
129	0xbd5e16a7	-0.05422082
130	0x3dc82a41	0.09773684
131	0x3aada4d6	0.0013247977
132	0x3c8d32a6	0.017236065
133	0xbd55971f	-0.052146073
134	0x3e48bde9	0.19603695
135	0x3c41ea37	0.011835626
136	0x3e5ef802	0.21774295
137	0xbcd2a002	-0.025711063
138	0x3df067fb	0.11738583
139	0x3e440eed	0.19146319
140	0x3c473356	0.012158236
141	0xbdda2994	-0.10652462
142	0xbe26ecc2	-0.16301253
143	0x3e26b283	0.16279034
144	0x3a895865	0.0010478614
145	0x3e16bd79	0.14720716
146	0xbe1aa290	-0.15101075
147	0x3e32aa59	0.17447795
148	0x3e050730	0.12991023
149	0x3db2295a	0.086992934
150	0x3ddadafe	0.10686301
151	0xbda09dd9	-0.07842607
152	0x3e1328e6	0.1437107
153	0xbe0a40f7	-0.13501345
154	0xbd84b419	-0.064796634
155	0x3d37da3a	0.04488585
156	0x3e47913e	0.19488999
157	0x3d870ec2	0.06594612
158	0xbe1fad00	-0.15593338
159	0x3e16952d	0.14705344
160	0xbd83b93f	-0.06431817
161	0xbd8830d8	-0.06649941
162	0xbe3b6abf	-0.18302439
163	0xbd55dc1b	-0.052211862
164	0x3e3ef6c7	0.18648826
165	0x3d592e67	0.05302277
166	0xbdd75460	-0.1051414
167	0x3dcd31fb	0.10019299
168	0xbcfc4050	-0.030792385
169	0x3e59d011	0.21270777
170	0xbe1b0327	-0.15137921
171	0xbd922b35	-0.07137147
172	0xbe630431	-0.22169568
173	0xbcd76b99	-0.026296424
174	0x3db98151	0.09057868
175	0x3e33ea9e	0.17569968
176	0x3d65d990	0.056115687
177	0x3e5704c9	0.20997919
178	0x3d948897	0.07252615
179	0x3de164ed	0.11005578
180	0x3e24d562	0.16097024
181	0x3e21d45f	0.1580367
182	0xbd8e73f6	-0.069557115
183	0x3e36db10	0.17857003
184	0x3df5f307	0.120092444
185	0xbd38b832	-0.045097537
186	0xbd8a5a0d	-0.06755457
187	0xbe197837	-0.14987265
188	0x3db58a3c	0.08864257
189	0xbe4f2751	-0.20229842
190	0x3b2be114	0.0026226686
191	0x3c719bec	0.014746647
192	0xbe4fdd54	-0.20299274
193	0xbca7e4b0	-0.020494789
194	0xbd8103c6	-0.06299548
195	0x3d26c97e	0.0407195
196	0x3d1a6b13	0.03769977
197	0xbe7f407a	-0.2492694
198	0x3e2a1361	0.16608955
199	0x3e0624f0	0.13100028
200	0x3e000a60	0.12503958
201	0xbe25fbb5	-0.162093
202	0xbdaaa6c0	-0.08332586
203	0x3c8420e1	0.01612896
204	0xbd5a1118	-0.053238958
205	0x3db028a0	0.086014986
206	0x3dfcfe45	0.123531856
207	0x3e4630bc	0.19354528
208	0xbd5d6ed4	-0.054060772
209	0x3e5b13b4	0.21394235
210	0x3df848e1	0.121232755
211	0xbe0a6c41	-0.13517858
212	0xbcb2a70d	-0.021808172
213	0xbd62f26d	-0.055406976
214	0x3e25f499	0.16206588
215	0xbd1122d6	-0.035433613
216	0xbe3f51a3	-0.18683486
217	0x3e254569	0.16139759
218	0x3df11344	0.11771253
219	0x3df843b6	0.1212229
220	0xbde5a9ec	-0.11214051
221	0xbe0c847f	-0.13722418
222	0x3d933e09	0.07189567
223	0x3e67eb58	0.2264837
224	0x3e01242f	0.12611459
225	0x3de26e3c	0.11056182
226	0x3e72c5e7	0.23708306
227	0x3e78a567	0.24281846
228	0xbd67c341	-0.056582693
229	0x3d0202c7	0.03174093
230	0x3e35501f	0.17706345
231	0xbd682dab	-0.056684177
232	0x3c0431a4	0.008068476
233	0x3e427fee	0.18994114
234	0x3cb8b200	0.022545815
235	0x3c5d1ca3	0.013495597
236	0xbdc27c06	-0.09496312
237	0xbd2e01b5	-0.042482097
238	0x3e05b39b	0.13056795
239	0xbdf9ddaa	-0.12200482
240	0xbd16df13	-0.036833834
241	0x3d3d0966	0.04615154
242	0xbe0c164f	-0.13680385
243	0x3e3fcbea	0.18730131
244	0xbdf4ac5e	-0.11946939
245	0xbd887108	-0.06662184
246	0xbd5666b6	-0.052344047
247	0xbe1734f5	-0.14766295
248	0xbe4e4b27	-0.20145856
249	0x3dd88ca9	0.10573704
250	0x3c9efd4f	0.019407896
251	0xbe5bcd4a	-0.2146503
252	0xbdef47b7	-0.116836004
253	0x3e401c97	0.18760906
254	0x3dcb77c6	0.09934954
255	0x3da4527d	0.08023546

cnn_backbone.0.bias f4 [16]
0	0x3857a395	5.1412342e-05
1	0x3858b481	5.166652e-05
2	0xb8f90585	-0.00011874273
3	0x3903d601	0.00012572856
4	0x36cfb2d0	6.1898972e-06
5	0x38b81f79	8.779666e-05
6	0xba927bac	-0.0011175773
7	0xb868a380	-5.546538e-05
8	0xb901f7c3	-0.00012394697
9	0xb8485b2a	-4.776862e-05
10	0x38f70af4	0.00011779918
11	0x3a5328a9	0.000805507
12	0xb9bddfbb	-0.0003621558
13	0x397f5e0a	0.00024353727
14	0xb9a7fa4d	-0.0003203921
15	0x385ab866	5.2146985e-05

cnn_backbone.1.weight f4 [16]
0	0x3f8022b7	1.0010594
1	0x3f7ed2db	0.9954049
2	0x3f629082	0.8850175
3	0x3f649dee	0.8930348
4	0x3f73b5f1	0.95199496
5	0x3f82f0d7	1.0229748
6	0x3f87e43c	1.0616527
7	0x3f73fae0	0.9530468
8	0x3f806640	1.0031204
9	0x3f76b072	0.96362984
10	0x3f6b0de8	0.91818094
11	0x3f8290cf	1.0200442
12	0x3f80c3aa	1.0059712
13	0x3f89d8ed	1.0769325
14	0x3f8c8425	1.0977827
15	0x3f72d02d	0.948489

cnn_backbone.1.bias f4 [16]
0	0x3c3a5a42	0.011374058
1	0xbe45acf2	-0.19304255
2	0xbda9c9b2	-0.082904235
3	0xbd0066c4	-0.031348005
4	0x3db03bc2	0.08605148
5	0xbcaf8558	-0.021425888
6	0xbd81e0b3	-0.06341686
7	0x3d3c5bd2	0.045986004
8	0xbd22376f	-0.039603647
9	0xbd07fae1	-0.03319824
10	0xbdf071ef	-0.11740481
11	0xbd2d0f15	-0.04225071
12	0xbd84e2a3	-0.0648854
13	0x3cf1b59d	0.029505545
14	0xbdaccebe	-0.084378704
15	0xbd2ff5e5	-0.042959113

cnn_backbone.1.running_mean f4 [16]
0	0x3d66c71e	0.056342237
1	0xbd1bcccc	-0.038037106
2	0xbba12a13	-0.0049183457
3	0xbd87c447	-0.06629234
4	0x3e1608a6	0.14651737
5	0x3dd85c75	0.1056451
6	0x3decf343	0.11569836
7	0xbc213407	-0.009839064
8	0x3d8aca09	0.067768164
9	0xbdb32e21	-0.08749033
10	0xbe0034a3	-0.1252008
11	0xbb5bf6c8	-0.003356384
12	0x3e86f071	0.26355317
13	0x3da47ae1	0.0803125
14	0xbdc9065e	-0.098156676
15	0xbe4d0665	-0.2002197

cnn_backbone.1.running_var f4 [16]
0	0x3c296828	0.010339774
1	0x3c19d065	0.009388064
2	0x3ac720bf	0.0015192254
3	0x3c287c56	0.01028355
4	0x3c6523bd	0.013985571
5	0x3c4ae59b	0.012383844
6	0x3c07b6ae	0.0082833
7	0x3b3908e6	0.0028234064
8	0x3c1077a9	0.008817592
9	0x3c3f5808	0.011678703
10	0x3c0ce6e4	0.0085999705
11	0x3bce6a6f	0.006299309
12	0x3d260b4a	0.04053811
13	0x3bf07b00	0.0073388815
14	0x3c0163ac	0.007897299
15	0x3cffd7fb	0.031230917

cnn_backbone.4.weight f4 [32, 16, 3, 3]
0	0x3cd78c8d	0.026312137
1	0x3e00c4d2	0.12575081
2	0x3e09e72f	0.13467096
3	0xbd87dc7f	-0.06633853
4	0xbd4958b4	-0.04915686
5	0x3c43ae3d	0.011943397
6	0xbcb52fe2	-0.022117559
7	0xbcb7b242	-0.022423867
8	0x3d707332	0.05870361
9	0xbd1d93ea	-0.03847114
10	0x3da0069f	0.07813763
11	0x3c9f60a9	0.01945527
12	0xbdbd0281	-0.09228993
13	0x3c57c5da	0.01316973
14	0x3d8ac8a9	0.06776554
15	0x3baff270	0.005369477
16	0xbd2e081e	-0.04248821
17	0xbd70e48f	-0.05881172
18	0xbc70623a	-0.014671857
19	0x3d440835	0.04785939
20	0xbdf8a6f0	-0.12141216
21	0xbd9cc304	-0.07654384
22	0xbda5f76b	-0.08103832
23	0xbceb935a	-0.028756786
24	0xbbf4f795	-0.007475803
25	0xbcce5381	-0.025186302
26	0xbcd334d0	-0.025782019
27	0xbcf38be7	-0.029729797
28	0xbd27ba66	-0.040949248
29	0xbd9afdf7	-0.07567971
30	0x3bac7a3d	0.0052635954
31	0xbd733cef	-0.059384283
32	0xbc36ab56	-0.011149248
33	0xbd4b28c0	-0.04959941
34	0xbcd394ea	-0.025827844
35	0xbda31f05	-0.07964901
36	0x3dbbb9d3	0.091663025
37	0x3c0f8aa7	0.008761085
38	0xbbd464d8	-0.006481748
39	0x3d88ed36	0.066858694
40	0xbb3bd629	-0.0028661585
41	0xbc08b324	-0.008343492
42	0x3c4529f8	0.012033932
43	0xbb7765c9	-0.0037749878
44	0xbcaafe0a	-0.020873088
45	0x3d8260ed	0.063661434
46	0x3de820bb	0.11334368
47	0x3d7c6920	0.061623693
48	0xbd21c0ea	-0.039490618
49	0x3cdb4a49	0.02676882
50	0x3dad0fa1	0.084502466
51	0x3d2f122a	0.042741932
52	0xbd6db553	-0.058034252
53	0x3d9a94f3	0.07547941
54	0x3db12550	0.08649695
55	0x3e39feab	0.18163554
56	0xbcdd48e0	-0.027012289
57	0xbd4bdc4a	-0.04977063
58	0xbd3aa727	-0.045569565
59	0xbdb9702f	-0.090546004
60	0x3da36b60	0.079794645
61	0x3d95444a	0.07288416
62	0x3defe3b1	0.117133506
63	0xbdf39c0d	-0.11894999
64	0xbbc391c3	-0.005968304
65	0xbd82f8be	-0.063951
66	0xbca2a1b9	-0.019852506
67	0xbd2dabd4	-0.042400196
68	0xbccff0c0	-0.025383353
69	0xbe09c008	-0.1345216
70	0xbc61f2a2	-0.013790758
71	0x3d856604	0.065135986
72	0x3d822e11	0.06356443
73	0x3c2776d7	0.010221205
74	0x3d90db3d	0.070730664
75	0xbd8c493c	-0.06849906
76	0xbdcde0dc	-0.10052654
77	0x3d942e4f	0.07235395
78	0xbd89502b	-0.06704744
79	0xbcd94aee	-0.026524987
80	0xbc9e41b5	-0.01931844
81	0xbdb2c794	-0.08729473
82	0xbd0577f5	-0.032585103
83	0xbd88aa2a	-0.06673081
84	0xbcadc298	-0.021210954
85	0xbd9979b6	-0.07493918
86	0xbc3b4352	-0.011429625
87	0xbd52b820	-0.051445127
88	0xbdb59114	-0.08865562
89	0xbe037901	-0.12839128
90	0x3e0264b2	0.12733725
91	0x3cf13615	0.029444734
92	0x3d30a128	0.04312244
93	0xbd84ad9d	-0.064784266
94	0xbd329f07	-0.04360869
95	0xbd9debb7	-0.07710975
96	0xbd81e35c	-0.063421935
97	0x3d814b08	0.06313139
98	0x3ddc67f8	0.10762018
99	0x3e0af5e7	0.13570367
100	0xbc11fae2	-0.008909913
101	0x3dff5a9e	0.12468456
102	0xbe0556c8	-0.13021386
103	0xbcfc7151	-0.030815752
104	0x3d13fba2	0.036128648
105	0x3ce245c5	0.02762116
106	0x3c67b11b	0.014141346
107	0x3d91ef11	0.071256764
108	0x3d9281bf	0.07153653
109	0x3da93950	0.082628846
110	0x3d0514f0	0.03249067
111	0x3dc1dfb6	0.094664976
112	0x3c209688	0.009801514
113	0x3d72b36c	0.05925314
114	0x3cb13da0	0.02163583
115	0x3d4c8523	0.049931657
116	0x3cf8a93a	0.030354131
117	0x3da0be3f	0.078487866
118	0x3d03f837	0.032219138
119	0x3d2a3d8b	0.0415626
120	0x3c97548e	0.018472936
121	0x3d545cef	0.05184644
122	0x3dfede51	0.12444747
123	0x3d0a5de2	0.03378094
124	0xbdd898f7	-0.10576051
125	0xbd8a637c	-0.067572564
126	0x3d947819	0.07249469
127	0x3dab7d40	0.08373499
128	0xbd01d7b8	-0.031699866
129	0x3d326da6	0.0435616
130	0x3dcd50f2	0.10025205
131	0x3d4d89cc	0.05018024
132	0x3d54fd1e	0.051999204
133	0x3e643a56	0.22287878
134	0x3e1e37a7	0.15450917
135	0x3c94e77c	0.018176787
136	0xbd82024c	-0.06348094
137	0x39fe88dc	0.00048548623
138	0xbdab5c0b	-0.08367165
139	0x3d9d4053	0.076782845
140	0xbd8e1910	-0.06938374
141	0x3cd1f5b7	0.025629861
142	0x3c843d55	0.016142527
143	0xbc6d5885	-0.014486437
144	0xbc3867fa	-0.011255259
145	0x3cf83b68	0.030301765
146	0xbd2b65e0	-0.041845202
147	0xbda5afcb	-0.080901705
148	0xbd18f934	-0.037347034
149	0x3d4edcb5	0.05050345
150	0xbd27be15	-0.04095276
151	0x3b759a7c	0.0037476113
152	0xbd7ea6f1	-0.062170926
153	0x3dab9b10	0.08379185
154	0x3d847bd4	0.06468931
155	0x3d4b5231	0.04963893
156	0xbc7cb955	-0.015425046
157	0xbd362bb0	-0.044475257
158	0x3cf7a1d6	0.030228537
159	0xbd02c795	-0.031928618
160	0x3d9c9472	0.07645501
161	0xbd74902c	-0.059707806
162	0x3d696093	0.056976866
163	0x3de4ed18	0.111780345
164	0x3d87120d	0.0659524
165	0x3d3e5893	0.04647119
166	0xbd30bad5	-0.043146927
167	0x3dd256a3	0.10270431
168	0x3c653487	0.013989574
169	0xbd158821	-0.036506776
170	0x3de51008	0.11184698
171	0x3c7d1eca	0.015449235
172	0x3d16baf0	0.03679937
173	0x3dee62e4	0.11639956
174	0xbbb359f6	-0.0054733707
175	0xbc598da6	-0.0132784005
176	0x3d6c593c	0.057702288
177	0x3d168a25	0.03675284
178	0x3d7561aa	0.059907593
179	0xbcc0c61e	-0.02353197
180	0xbd3f467b	-0.046698075
181	0xbda10ca4	-0.07863739
182	0xbdb8e076	-0.090271875
183	0xbdf4c293	-0.119511746
184	0x3beab48f	0.0071626375
185	0xbd0fc8d9	-0.035103653
186	0xbdd0ce82	-0.10195638
187	0x3d14ccff	0.036328312
188	0xbc6fadd9	-0.014628851
189	0xbc84fdf7	-0.016234381
190	0xbd919238	-0.07107967
191	0xbc9a5663	-0.01884002
192	0x3d2c27e2	0.042030223
193	0x3cfed6fd	0.031108374
194	0xbdc6b47e	-0.09702395
195	0x3cb0d18c	0.021584295
196	0xbce9a932	-0.028523061
197	0xbbf59f8e	-0.007495827
198	0x3d2e3f83	0.04254104
199	0x3d42112a	0.04737965
200	0xbdd51003	-0.104034446
201	0x3d451ced	0.04812329
202	0xbdb93794	-0.09043804
203	0xbd15e74b	-0.03659753
204	0xbdcdfad1	-0.10057605
205	0xbd8acf55	-0.06777827
206	0xbd9afa8b	-0.075673185
207	0x3d08848b	0.033329528
208	0x3d04d408	0.03242877
209	0x3d4cd0ad	0.050003696
210	0x3dfcae8a	0.12337978
211	0x3dbc0eda	0.0918252
212	0x3db7de7f	0.08977985
213	0x3d9ab8d5	0.07554785
214	0x3ddbe868	0.10737687
215	0x3d2f60c4	0.042816892
216	0x3bc9e732	0.006161594
217	0x3c04f5bc	0.008115228
218	0xbdb4dbd2	-0.0883099
219	0xbd9a2cca	-0.07528074
220	0xbad53af0	-0.0016268175
221	0xbd5ad988	-0.05343011
222	0xbd208c61	-0.039196376
223	0xbd353da5	-0.044248242
224	0xbce2022e	-0.02758893
225	0x3d7bc9ec	0.061471865
226	0x3a204a94	0.00061146286
227	0x3dc11f96	0.09429853
228	0x3d985ad1	0.07439197
229	0xbd0338cc	-0.032036588
230	0xbcd87adf	-0.026425777
231	0xbd5dd907	-0.05416205
232	0xbc6f6027	-0.014610327
233	0x3bfb0308	0.0076602735
234	0x3b5df050	0.0033865161
235	0xbcaa7cf2	-0.020811532
236	0xbd3494d8	-0.04408726
237	0xbcece670	-0.028918475
238	0xbd0fc3d2	-0.03509886
239	0x3d8dfed1	0.06933368
240	0xbd367356	-0.044543587
241	0xbda21e5b	-0.07915946
242	0x3c16cf07	0.009204633
243	0x3b6e6703	0.0036377318
244	0x3d8ff80e	0.070297346
245	0x3d57bb37	0.052668776
246	0x3d9ace4f	0.075588815
247	0xbd68642e	-0.056736164
248	0x3d4c91e2	0.049943812
249	0x3d3cbdeb	0.046079557
250	0xbd602a15	-0.054727633
251	0x3d50fb46	0.051020883
252	0xbbd40920	-0.0064708143
253	0xbd94aac3	-0.07259133
254	0xbce7a53b	-0.02827703
255	0xbdd077f6	-0.10179131

cnn_backbone.4.bias f4 [32]
0	0xb78977ef	-1.6387521e-05
1	0xb2568331	-1.2486269e-08
2	0xb81c538a	-3.72711e-05
3	0xb751a0d1	-1.2494814e-05
4	0x36a75e09	4.987935e-06
5	0xb51197a1	-5.423736e-07
6	0xb9548a67	-0.00020269454
7	0xb7234321	-9.731187e-06
8	0xb4dd9d82	-4.127906e-07
9	0x362925bc	2.5204927e-06
10	0x379d4097	1.8745935e-05
11	0xb7e83260	-2.7680013e-05
12	0xb6759370	-3.6593665e-06
13	0xb74e037d	-1.2279369e-05
14	0xb70a4680	-8.2418555e-06
15	0x38407b91	4.5891447e-05
16	0x380bdaa9	3.3343826e-05
17	0x37ead239	2.7992866e-05
18	0xb6c3fbca	-5.840765e-06
19	0x36be500e	5.671761e-06
20	0xb4e11d6b	-4.193092e-07
21	0x340fce18	1.3392889e-07
22	0x368b1767	4.145247e-06
23	0xb815189b	-3.5547284e-05
24	0x363b9214	2.79502e-06
25	0x37d4fc28	2.5389789e-05
26	0xb6d2d674	-6.2834533e-06
27	0x3725ce16	9.8827495e-06
28	0x374e1684	1.2283799e-05
29	0x38deaf12	0.00010618394
30	0xb75c3a86	-1.3126648e-05
31	0xb78b617e	-1.661549e-05

cnn_backbone.5.weight f4 [32]
0	0x3f81b02c	1.0131888
1	0x3f3d80a9	0.74024445
2	0x3f756424	0.9585593
3	0x3f7af043	0.9802286
4	0x3f7cd2b7	0.98759025
5	0x3f635d96	0.88814676
6	0x3f80835d	1.0040089
7	0x3f550579	0.83211476
8	0x3f5e81fa	0.8691708
9	0x3f57d1ce	0.8430451
10	0x3f7df718	0.9920516
11	0x3f66e05d	0.901861
12	0x3f757328	0.9587884
13	0x3f81bdc2	1.0136034
14	0x3f82a41d	1.0206333
15	0x3f6b5d25	0.91939
16	0x3f7d2d97	0.9889769
17	0x3f80300b	1.0014662
18	0x3f836c2a	1.0267384
19	0x3f89038e	1.070421
20	0x3f7aafd6	0.97924554
21	0x3f5020d3	0.81300086
22	0x3f7bec61	0.9840756
23	0x3f9825dc	1.1886554
24	0x3f6aeff8	0.91772413
25	0x3f7f9656	0.9983877
26	0x3f85a73a	1.0441658
27	0x3f76eac9	0.96452004
28	0x3f644846	0.8917278
29	0x3f7c9edc	0.986799
30	0x3f6dabe1	0.9284039
31	0x3f7af255	0.9802602

cnn_backbone.5.bias f4 [32]
0	0xbdeb1bf8	-0.11479944
1	0xbe75706b	-0.23968665
2	0xbd5be4e9	-0.053685103
3	0xbde13048	-0.10995537
4	0xbd3001d0	-0.04297048
5	0x3d4908ef	0.049080785
6	0xbdbf0955	-0.09327952
7	0xbe375a41	-0.17905523
8	0xbe52df61	-0.20593025
9	0xbe2ab67e	-0.16671178
10	0xbdf60000	-0.12011719
11	0xbe0f475c	-0.13992065
12	0x3d74d27a	0.05977104
13	0xbdeb3f3b	-0.1148667
14	0xbd6b2c30	-0.057415187
15	0xbdfdddf0	-0.12395847
16	0xbe024b66	-0.12724075
17	0xbdfeda80	-0.12444019
18	0x3c4a3631	0.012342022
19	0x3e12372f	0.14278863
20	0xbe134f58	-0.14385736
21	0xbdc9bf59	-0.0985095
22	0xbdbb1854	-0.091354996
23	0xbcf5a7a2	-0.02998716
24	0xbdb01258	-0.08597249
25	0xbd81745f	-0.06321024
26	0xbd74b3ae	-0.05974167
27	0xbdc4a9c5	-0.096026935
28	0xbdb8f907	-0.09031873
29	0xbc3d224d	-0.0115438225
30	0xbddbe52a	-0.10737069
31	0xbdeefa07	-0.11668783

cnn_backbone.5.running_mean f4 [32]
0	0x3f04ec53	0.519231
1	0xbe499d10	-0.19688821
2	0x3f58d195	0.84694797
3	0x3f1e7774	0.6190102
4	0x400bda39	2.1851943
5	0xc005d21d	-2.0909493
6	0x3edaf514	0.42765105
7	0x3f6a7d6f	0.91597646
8	0x3ffd6d2f	1.9798945
9	0xbf410198	-0.75393057
10	0x3f354d46	0.70821035
11	0x3fa8b3b9	1.3179847
12	0xbfc5a418	-1.5440702
13	0x3f7ca55a	0.98689806
14	0x3e7f1082	0.24908641
15	0x3fa00e23	1.2504314
16	0xbf098a0f	-0.53726286
17	0x3e69dc11	0.22837855
18	0xbf79559b	-0.9739625
19	0xc0048f83	-2.0712593
20	0x3fbe4ddb	1.486751
21	0x3fc12245	1.5088583
22	0xbdb7d66f	-0.08976447
23	0x3f7b70a5	0.98218757
24	0x3f081d47	0.53169674
25	0x3f953cb5	1.1659151
26	0xbfd3a1f4	-1.6533799
27	0x3db5884c	0.08863887
28	0x3fc8cbf4	1.5687242
29	0x400aaaaa	2.1666665
30	0x3f2e2bb5	0.6803544
31	0x3f83c381	1.0294038

cnn_backbone.5.running_var f4 [32]
0	0x3ffe17b5	1.9850985
1	0x3fe4d6a9	1.7878009
2	0x3fe1314d	1.759317
3	0x40077f3e	2.1171412
4	0x412e6520	10.899689
5	0x413a0684	11.626591
6	0x3fc3e204	1.530335
7	0x402ba758	2.6820889
8	0x40db8825	6.860369
9	0x405d5060	3.4580307
10	0x4001392b	2.0191143
11	0x3fe585f1	1.7931501
12	0x41226e86	10.151983
13	0x40010182	2.015717
14	0x3ef54532	0.47904354
15	0x400a3d29	2.159983
16	0x3f08a514	0.5337689
17	0x40181d22	2.3767781
18	0x40992d82	4.786805
19	0x417ebaa8	15.92057
20	0x4027c887	2.6216142
21	0x4095f108	4.6856728
22	0x4002944a	2.0403008
23	0x4091d13c	4.5567913
24	0x4080b523	4.0221114
25	0x400674c8	2.1008778
26	0x40ef5302	7.478883
27	0x3fdf0fc8	1.7426691
28	0x400e523a	2.2237687
29	0x40b5fb47	5.6869235
30	0x404e1d2b	3.2205303
31	0x4031a7e7	2.775873

cnn_backbone.8.weight f4 [64, 32, 3, 3]
0	0x3d8fab6e	0.070151195
1	0x3de32e49	0.110928126
2	0x3e10ce7b	0.14141266
3	0xbd060a5b	-0.03272472
4	0x3cd661fb	0.026169768
5	0x3dd0a733	0.10188141
6	0xbc293034	-0.010326434
7	0x3d76b379	0.060229752
8	0x3deb19f3	0.11479559
9	0x3bae603d	0.005321531
10	0xbacca041	-0.0015611724
11	0x3d2d9654	0.042379692
12	0xbd6b6804	-0.057472244
13	0x3d2eebe7	0.042705443
14	0x3d7ac41d	0.061222184
15	0xbd2af038	-0.041732997
16	0xbd2289b4	-0.039682105
17	0xbc434d12	-0.01192023
18	0x3deb08d3	0.114762925
19	0x3daa54e2	0.08316971
20	0x3ddd627c	0.108098
21	0xbc3743e3	-0.011185619
22	0x3dd298b0	0.10283029
23	0x3de2dacb	0.11076888
24	0x3d6d174c	0.057883546
25	0x3d92f0aa	0.07174809
26	0x3da2e13f	0.079531185
27	0x3da2b0b4	0.0794386
28	0x3d72703e	0.059189074
29	0x3d30fc2d	0.043209244
30	0xbcfca23d	-0.03083908
31	0x3d83d08b	0.06436261
32	0x3c9c9ba8	0.019117191
33	0x3d38ea53	0.045145344
34	0x3beec9e8	0.0072872527
35	0x3d1dbcac	0.03851001
36	0xbdbbd489	-0.09171397
37	0xbd1b3f77	-0.03790232
38	0x3b609b8c	0.00342724
39	0xbdf688b3	-0.12037792
40	0xbd2d0f41	-0.042250875
41	0x3ca8358e	0.02053335
42	0xbd476db7	-0.048688617
43	0xbc3cfb47	-0.011534519
44	0xbd5b376c	-0.05351965
45	0xbbaa92d0	-0.0052054897
46	0xbd68016a	-0.056641974
47	0x3c0a43a8	0.008438982
48	0xba66dcbc	-0.00088066957
49	0x3d131cd5	0.03591617
50	0xbcc30ccb	-0.023809811
51	0x3d5f580e	0.054527335
52	0x3d00e729	0.03147045
53	0x3d3e3489	0.04643682
54	0x3d01f52c	0.031727955
55	0xbc155afd	-0.009115932
56	0x3bf7e1dd	0.007564767
57	0xbd7999db	-0.060937744
58	0xb9515b7f	-0.00019965878
59	0xbd19fa0e	-0.037591986
60	0x3ab582bf	0.001384817
61	0x3d4a8628	0.049444348
62	0x3dbee1a3	0.093203805
63	0x3c123958	0.008924805
64	0x3db539a1	0.088488825
65	0x3da17961	0.07884479
66	0xbc99286a	-0.018696029
67	0x3c62254d	0.0138028385
68	0x3d0e3881	0.034721855
69	0xbc630120	-0.013855249
70	0xbb99ba36	-0.0046913875
71	0x3b014b44	0.00197287
72	0x3ce38296	0.02777223
73	0xbad276fc	-0.0016057189
74	0x3d2f6c9a	0.04282818
75	0xbccdf94f	-0.025143294
76	0xbc99fcfe	-0.018797394
77	0x3beb5250	0.0071814433
78	0xbdef561c	-0.11686346
79	0xbd6caa54	-0.057779625
80	0xbd1d2834	-0.03836842
81	0x3ace113e	0.0015721691
82	0xbc8eb34d	-0.017419482
83	0x3d3beb1c	0.045878515
84	0xbc5d4cb2	-0.013507055
85	0xbc863061	-0.01638049
86	0xbbf89e04	-0.0075871963
87	0xbd8b4234	-0.067997366
88	0xbc1052a5	-0.0088087665
89	0xbd6157a6	-0.05501523
90	0x3b95f1f0	0.0045759603
91	0x3dc5a9ed	0.096515514
92	0x3d2463f0	0.04013437
93	0x3d56b5d2	0.05241949
94	0x3d5c232e	0.053744487
95	0x3c6823c5	0.014168684
96	0xbcdb6c2b	-0.026784977
97	0x3da97f23	0.082762025
98	0x3d2dfbf9	0.042476628
99	0x3d826ba7	0.06368189
100	0xbce99d4e	-0.028517392
101	0x3d2c8192	0.042115755
102	0xbd32f04c	-0.043686196
103	0x3c96acaf	0.018392889
104	0xbc741e71	-0.014899836
105	0xbd83ec40	-0.064415455
106	0x3bdfab23	0.006825821
107	0x3d947e80	0.072506905
108	0xbcbf5353	-0.023355162
109	0xbcc48d8d	-0.023993278
110	0x3c528e12	0.012851255
111	0xbc8961de	-0.0167703
112	0xbd2f12e6	-0.042742632
113	0x3c2e5f9e	0.010642914
114	0x3d4ec6a5	0.05048241
115	0x3d9ee4dc	0.07758495
116	0x3d5b5b5b	0.05355392
117	0x3db07ae7	0.08617192
118	0x3d105161	0.03523386
119	0x3dfc6e4e	0.123257264
120	0xbd171365	-0.03688373
121	0xbb4d4a5d	-0.0031324842
122	0x3ddc527d	0.10757921
123	0xbd9c94e6	-0.076455876
124	0x3cc57d1a	0.024107505
125	0x3c15a425	0.009133373
126	0xbd34fc1e	-0.04418575
127	0xbd6c2445	-0.057651777
128	0xbdbb85b6	-0.09156363
129	0xbcd18c1f	-0.02557951
130	0xbd796a80	-0.060892582
131	0x3c44c444	0.012009684
132	0xbcd6568c	-0.026164316
133	0x3c927d70	0.017882079
134	0xbd36897e	-0.044564717
135	0xbce5432e	-0.027986135
136	0x3dafb47a	0.08579345
137	0x3d8017d3	0.06254544
138	0xbd14c363	-0.036319148
139	0x3cae5994	0.021282949
140	0x3d521ebd	0.051298846
141	0xbc22aa3e	-0.009928284
142	0xbc343c04	-0.011000637
143	0x3c8a933d	0.016915912
144	0xbc00bbab	-0.0078572435
145	0xbccc5a61	-0.02494544
146	0x3baa1018	0.005189907
147	0xbc7d57d2	-0.0154628325
148	0xbd4dbe56	-0.050230347
149	0xbd282553	-0.04105122
150	0xbc6ba256	-0.014381966
151	0xbd1b6369	-0.0379366
152	0xbcfb854d	-0.030703211
153	0x3c183f72	0.00929247
154	0x3d1293be	0.03578543
155	0x3d5cc770	0.053901136
156	0x3d6c9b0b	0.057765048
157	0xbd402140	-0.04690671
158	0x3d8ca086	0.06866555
159	0xbb6beec1	-0.0036000463
160	0xbd5da58a	-0.05411295
161	0x3d6076d8	0.05480084
162	0xbd9624e8	-0.07331258
163	0xbd104b59	-0.035228107
164	0x3d01d411	0.031696383
165	0xbcad4ff0	-0.021156281
166	0x3d09c5cb	0.033635896
167	0xbca29537	-0.019846542
168	0x3d4c38d2	0.049858876
169	0x3d7fdfa8	0.062469155
170	0x3da0c9c3	0.07850983
171	0xbc71d93d	-0.014761266
172	0x3c9b4036	0.018951517
173	0x3ca288ed	0.019840682
174	0x3d89d6d9	0.06730432
175	0xbc8a6f2a	-0.01689871
176	0xbd1e940f	-0.03871542
177	0xbcb8eaa4	-0.022572823
178	0x3d1309f6	0.03589817
179	0xbc75d13d	-0.0150035
180	0xbbed976d	-0.0072507174
181	0x3cc7f4d0	0.024408728
182	0x3ded5e56	0.11590259
183	0xbda40434	-0.08008614
184	0x3d117e58	0.03552088
185	0x3b404d29	0.0029342866
186	0xbd9d4c9c	-0.07680628
187	0x3c2d5a63	0.010580632
188	0xbbd1e19f	-0.00640507
189	0x3d2ba5fd	0.041906346
190	0x3c91c2a0	0.017793
191	0x3d10a9b9	0.03531811
192	0x3d70078d	0.05860095
193	0x3c8d2a8f	0.017232208
194	0x3d9fa2af	0.07794701
195	0xbc9268e3	-0.01787228
196	0x3d304f94	0.04304464
197	0x3dbe1753	0.092817925
198	0x3db1e523	0.086862825
199	0x3cf4c2c5	0.02987803
200	0x3d057281	0.032579903
201	0xbd286fad	-0.041122127
202	0x3d76fdc2	0.060300596
203	0x3dc428f8	0.09578127
204	0x3b3c5254	0.0028735595
205	0x3d20b46a	0.039234556
206	0x3dcb20b7	0.09918349
207	0xbd677a02	-0.05651284
208	0x3bfb960d	0.0076777996
209	0x3ce4e7e7	0.02794261
210	0xbc9b2839	-0.018940078
211	0xbd57fe33	-0.052732658
212	0x3d363eaf	0.044493373
213	0xbdda3880	-0.10655308
214	0xbc85f8c4	-0.016353972
215	0x3cc446c5	0.023959527
216	0x3da4c1c1	0.08044768
217	0x3da00815	0.078140415
218	0x3cf397a2	0.02973539
219	0xbbadc13c	-0.0053025763
220	0x3d35f3b4	0.044421867
221	0x3daf9f8e	0.085753545
222	0x3c94543b	0.01810657
223	0x3c2288a7	0.009920276
224	0x3c993465	0.018701741
225	0xbbe10100	-0.0068665743
226	0x3d7e62bd	0.062105883
227	0x3cd787da	0.026309896
228	0x3cc95a6a	0.024579246
229	0xbbbc5b85	-0.0057482147
230	0x3ca9fffa	0.020751942
231	0xbd9a5252	-0.075352326
232	0xbd97f6aa	-0.07420094
233	0xbcfe4036	-0.031036478
234	0x3c599e8b	0.0132824285
235	0x39e00de8	0.0004273497
236	0xbbdedc0f	-0.0068011354
237	0xbc2431b0	-0.010021612
238	0xbb219e1d	-0.0024660893
239	0x3d1fbb57	0.03899702
240	0xbd1b1602	-0.037862785
241	0x3c4edf2b	0.01262645
242	0x3caf3db4	0.021391727
243	0xbbd1d40e	-0.0064034527
244	0x3dc7bd95	0.09752957
245	0x3ce64134	0.028107263
246	0x3d8163fe	0.063179
247	0x3d740030	0.05957049
248	0x3d272495	0.04080637
249	0x3d4cb82e	0.049980335
250	0xbcff26d8	-0.031146452
251	0x3ce0da76	0.02744792
252	0x3bf1e456	0.007381956
253	0x3d704c06	0.05866625
254	0x3dfb59b7	0.12272971
255	0x3d8da135	0.069155134

cnn_backbone.8.bias f4 [64]
0	0x37113c89	8.656768e-06
1	0x37db98d9	2.617801e-05
2	0x360a4065	2.0601085e-06
3	0xb62abb11	-2.544086e-06
4	0x369d56c6	4.6890664e-06
5	0xb780cdae	-1.5354566e-05
6	0xb76a5f74	-1.3969711e-05
7	0xb7756394	-1.4626323e-05
8	0xb5987242	-1.1358136e-06
9	0xb769a02f	-1.3925178e-05
10	0xb7936f83	-1.7575692e-05
11	0xb5ff3f00	-1.9017316e-06
12	0x36833a1a	3.910868e-06
13	0x35f8f23b	1.8547938e-06
14	0x35910f73	1.0807838e-06
15	0x33566c5a	4.9924303e-08
16	0xb72c815b	-1.0282117e-05
17	0xb781f751	-1.5493164e-05
18	0x36e5aad1	6.8446175e-06
19	0x35e742b6	1.7230257e-06
20	0xb5f2503c	-1.8053756e-06
21	0xb64eb8be	-3.0803926e-06
22	0x369efef6	4.7384483e-06
23	0xb78294f9	-1.5566578e-05
24	0x365d191e	3.2946186e-06
25	0xb6be7128	-5.6756144e-06
26	0xb50d4364	-5.262466e-07
27	0xb69665cc	-4.482199e-06
28	0x36db47df	6.5350755e-06
29	0xb6ae980c	-5.2033047e-06
30	0xb4ad8422	-3.23199e-07
31	0x388a5898	6.596855e-05
32	0xb62f330f	-2.6106752e-06
33	0x38145ddd	3.5373367e-05
34	0x371e9a97	9.453527e-06
35	0x36bc3c3e	5.6098497e-06
36	0x35849cac	9.880364e-07
37	0xb60ec764	-2.127571e-06
38	0xb553609b	-7.8744205e-07
39	0xb76c93aa	-1.4101077e-05
40	0x364d3e0b	3.0583494e-06
41	0xb58cec4b	-1.0499583e-06
42	0xb652e6b0	-3.1426716e-06
43	0xb5a84d76	-1.253952e-06
44	0x366da8cd	3.5414007e-06
45	0x37068413	8.017773e-06
46	0xb6a6a9b8	-4.9669434e-06
47	0xb7047199	-7.894262e-06
48	0xb575a6c5	-9.1512294e-07
49	0x3673af5f	3.63119e-06
50	0xb623bda2	-2.4399274e-06
51	0xb5bb6a54	-1.3963531e-06
52	0x368ac1e4	4.1352923e-06
53	0x36d0ee32	6.2266126e-06
54	0x36e7a32a	6.9033313e-06
55	0x348cd860	2.6234466e-07
56	0x377e8021	1.5169412e-05
57	0xb7375157	-1.0926588e-05
58	0xb696bb4e	-4.4921535e-06
59	0x34ac528a	3.2097552e-07
60	0x35a20ae9	1.2073116e-06
61	0xb4ee6387	-4.440337e-07
62	0xb6802d74	-3.8199887e-06
63	0xb72c1c93	-1.0258652e-05

cnn_backbone.9.weight f4 [64]
0	0x3f76b113	0.96363944
1	0x3f829b93	1.0203727
2	0x3f70ae8a	0.94016325
3	0x3f70dd97	0.9408812
4	0x3f6784d8	0.9043708
5	0x3f812919	1.0090667
6	0x3f83cd25	1.029698
7	0x3f8a29d0	1.079401
8	0x3f60e4b3	0.8784897
9	0x3f767d97	0.96285385
10	0x3f80325b	1.0015367
11	0x3f678e4f	0.9045152
12	0x3f657a65	0.89639884
13	0x3f6b3cf1	0.91889864
14	0x3f76a835	0.96350414
15	0x3f4a8e20	0.79123116
16	0x3f778e96	0.96701944
17	0x3f83607e	1.0263822
18	0x3f67697e	0.90395343
19	0x3f5f38e2	0.8719617
20	0x3f79c244	0.9756205
21	0x3f6a0250	0.9140978
22	0x3f70d0d3	0.9406864
23	0x3f776f9b	0.9665467
24	0x3f77b3b0	0.96758556
25	0x3f620f6c	0.8830478
26	0x3f64ca73	0.89371413
27	0x3f6b0fc6	0.91820943
28	0x3f692771	0.9107581
29	0x3f7af5d2	0.9803134
30	0x3f572b79	0.8405071
31	0x3f883231	1.0640317
32	0x3f7cf3d3	0.98809546
33	0x3f786dd1	0.97042567
34	0x3f61cbaa	0.8820139
35	0x3f88b994	1.0681634
36	0x3f744077	0.95410866
37	0x3f5a0165	0.8515838
38	0x3f55703d	0.8337439
39	0x3f7e49c3	0.993313
40	0x3f565a8d	0.8373192
41	0x3f88a17f	1.0674285
42	0x3f84ee0b	1.0385145
43	0x3f60499c	0.8761232
44	0x3f6a7374	0.9158242
45	0x3f6fb9e8	0.93643045
46	0x3f67388e	0.9032067
47	0x3f764ae4	0.96208024
48	0x3f671cf8	0.9027858
49	0x3f617c98	0.8808074
50	0x3f7e2c9e	0.9928683
51	0x3f6cc028	0.9248071
52	0x3f91606d	1.1357552
53	0x3f6f69b9	0.93520695
54	0x3f61d0e3	0.8820936
55	0x3f66b701	0.9012299
56	0x3f802ae2	1.0013087
57	0x3f70bb30	0.94035625
58	0x3f751fce	0.95751655
59	0x3f71bf84	0.94432855
60	0x3f4d1105	0.80104095
61	0x3f5ff702	0.8748628
62	0x3f6a65b0	0.9156141
63	0x3f8f2312	1.1182578

cnn_backbone.9.bias f4 [64]
0	0xbdecdebc	-0.11565921
1	0xbd32c0e3	-0.043640982
2	0xbd6df36e	-0.05809348
3	0xbdb0b3be	-0.08628033
4	0xbde45518	-0.11149043
5	0xbdd5a66c	-0.10432133
6	0xbcf0889d	-0.029362017
7	0xbb386351	-0.002813537
8	0xbd9da24a	-0.0769697
9	0xbdb48fcc	-0.088164896
10	0xbd49d6a1	-0.04927695
11	0xbdbb7ec4	-0.09155038
12	0xbdcc7e7c	-0.099850625
13	0xbd96ddc2	-0.07366516
14	0xbdce04f4	-0.100595385
15	0xbd09af9d	-0.033614744
16	0xbd0b6a12	-0.034036703
17	0xbd41e5cb	-0.04733829
18	0xbd8e3e9e	-0.06945537
19	0xbe121933	-0.14267425
20	0xbdd1e167	-0.1024807
21	0xbdfcfaca	-0.12352522
22	0xbdca7e97	-0.09887426
23	0xbdbfd793	-0.093672894
24	0xbc902c29	-0.017599182
25	0xbde8a34f	-0.11359274
26	0xbcb1ef9a	-0.021720696
27	0xbde75df9	-0.11297221
28	0xbdb48616	-0.08814637
29	0xbda26f20	-0.07931352
30	0xbd05a80d	-0.03263097
31	0xbd4e3986	-0.050347827
32	0xb97e10bd	-0.00024229563
33	0xbd9b91c6	-0.075961635
34	0xbdba2314	-0.09088722
35	0xbb872d4a	-0.004125272
36	0xbd17b15f	-0.03703439
37	0xbe0f340c	-0.13984698
38	0xbdacd8a4	-0.084397584
39	0xbc7953af	-0.015217706
40	0xbe03f495	-0.1288627
41	0xbdd90594	-0.10596767
42	0xbd67ae3b	-0.056562643
43	0xbdb957b1	-0.09049929
44	0x39922a5d	0.00027878853
45	0xbd3d33d7	-0.046192016
46	0xbdea5d12	-0.11443533
47	0xbdc03a35	-0.09386102
48	0xbdfa4674	-0.12220469
49	0xbdbbc134	-0.0916771
50	0xbdb77bff	-0.08959197
51	0xbca00f7f	-0.01953864
52	0xbc6d8cc7	-0.014498896
53	0xbdb296b0	-0.087201476
54	0xbe03773b	-0.12838452
55	0xbdc24568	-0.094858944
56	0xbd62f8d8	-0.055413097
57	0xbdd1c696	-0.102429554
58	0xbdafcca4	-0.08583954
59	0xbb6b2d02	-0.003588498
60	0xbe27dfc7	-0.16393958
61	0x3cbc5b15	0.02299265
62	0xbd99729b	-0.074925624
63	0xbd8adcd8	-0.06780404

cnn_backbone.9.running_mean f4 [64]
0	0x3fc82c07	1.5638436
1	0xbef25dcf	-0.47337195
2	0x3e98799e	0.29780287
3	0x3f9e4ec6	1.236779
4	0xbf620703	-0.8829195
5	0x3e1fefac	0.15618771
6	0x3e5a0465	0.21290739
7	0xbf47b274	-0.7800667
8	0x3f9e6da0	1.2377205
9	0x3ffd85af	1.9806422
10	0xbf93f224	-1.155827
11	0x3fb1e4fa	1.3898003
12	0x3fc8c353	1.5684608
13	0xbf15a89b	-0.58460397
14	0x3fbe7431	1.4879209
15	0xc0171ec8	-2.3612537
16	0xbfc2a68c	-1.5207076
17	0x3f8a7696	1.081744
18	0x3d5498c1	0.05190349
19	0x4036193f	2.845291
20	0x3fa48e58	1.285594
21	0x3f8fbbd9	1.1229202
22	0x3fd0166f	1.6256846
23	0x3fa5dc8a	1.2957928
24	0xc01a6ece	-2.413013
25	0x3f93ca3e	1.1546094
26	0x400593f9	2.0871565
27	0x3f676a2e	0.9039639
28	0x3f97c61e	1.1857336
29	0x3fcb05f7	1.5861195
30	0xc0283c3f	-2.6286771
31	0xbf596db9	-0.8493305
32	0xbf687bde	-0.90814006
33	0x3fc091dc	1.5044513
34	0x3faaea05	1.3352667
35	0xbfff8dc0	-1.9965134
36	0xbfa71404	-1.3052983
37	0x3ffad433	1.9596008
38	0xbff41d73	-1.9071487
39	0x3cdae721	0.026721539
40	0x3fa6909b	1.301288
41	0xbe6377f1	-0.22213723
42	0xc01061dd	-2.255973
43	0x3faa773c	1.3317637
44	0x40108de8	2.2586613
45	0x3fb5fb82	1.4217379
46	0x3fa2633e	1.2686536
47	0x3fb8988a	1.4421551
48	0x3f873510	1.0563068
49	0x3f84b7eb	1.0368627
50	0x3f964349	1.1739284
51	0xbfa26db7	-1.2689732
52	0xbfa8fa73	-1.3201431
53	0x3fdce770	1.7258129
54	0x3fb47d14	1.4100671
55	0x3f99a656	1.2003887
56	0xbee35d21	-0.4440699
57	0x3fa8c2ab	1.3184408
58	0x3f68ee51	0.9098864
59	0xbfc7d05a	-1.5610459
60	0x3f113743	0.5672495
61	0xc03be68a	-2.935946
62	0x3f0b6289	0.5444723
63	0xc06c447e	-3.6916804

cnn_backbone.9.running_var f4 [64]
0	0x40f80576	7.7506666
1	0x40a2ba29	5.0852246
2	0x41065b4f	8.397292
3	0x40c21ea1	6.066239
4	0x410e8c37	8.909232
5	0x4107c6d7	8.486045
6	0x410d5107	8.832282
7	0x409734bc	4.7251873
8	0x407b6b76	3.928434
9	0x4134b728	11.294716
10	0x40226d40	2.537918
11	0x40a2fc32	5.0932856
12	0x410dcfb7	8.863212
13	0x40c2ede9	6.091542
14	0x40e5db83	7.183046
15	0x4137ee1b	11.495631
16	0x40f3aeab	7.615072
17	0x40b31cd0	5.597267
18	0x41209f01	10.038819
19	0x420c6a0f	35.103573
20	0x40fbca86	7.868472
21	0x412fe5a6	10.9935665
22	0x411864aa	9.524576
23	0x40cf70f7	6.4825397
24	0x41aa6ed4	21.304115
25	0x40bd1002	5.908204
26	0x421385b0	36.880554
27	0x40d1ecef	6.5601726
28	0x4112e6ec	9.181377
29	0x410b06aa	8.689127
30	0x418737cc	16.902245
31	0x41004958	8.017906
32	0x4161d872	14.115343
33	0x40c79f73	6.238214
34	0x40329bd2	2.7907605
35	0x40ce4f35	6.447169
36	0x418ad365	17.35322
37	0x4198bd5a	19.092457
38	0x40ed1d40	7.4098206
39	0x40ee049f	7.438064
40	0x412cb17f	10.793334
41	0x40d2b5f8	6.584713
42	0x41b421c3	22.516485
43	0x40b1de86	5.5584135
44	0x40df423b	6.976835
45	0x40b3ec51	5.622597
46	0x40ba63b4	5.824671
47	0x40e3204b	7.097692
48	0x40aaa63e	5.332793
49	0x40c82e03	6.2556167
50	0x40dbabbd	6.864714
51	0x417cd0e0	15.800995
52	0x401c82dd	2.4454873
53	0x410ebd49	8.921212
54	0x40cb1ef0	6.3475266
55	0x40edbdc4	7.4294147
56	0x411c8beb	9.78416
57	0x4122cd95	10.175191
58	0x4096553e	4.6979055
59	0x419b8ac6	19.44276
60	0x4093f1e5	4.623278
61	0x41bc6321	23.548403
62	0x4078a2f5	3.884946
63	0x414182ff	12.094481

cnn_backbone.12.weight f4 [128, 64, 3, 3]
0	0x3d0e4ddf	0.034742232
1	0x3ceeb289	0.029137867
2	0x3d988bab	0.074485146
3	0x3d4a7f19	0.049437616
4	0x3c273044	0.0102043785
5	0xbb23953e	-0.0024960781
6	0x3d98b64f	0.074566476
7	0x3c5ecf47	0.013599223
8	0x3dafa46c	0.08576283
9	0x3b3313af	0.0027324965
10	0xba318bff	-0.0006772875
11	0xbc72e95c	-0.014826145
12	0xbca2698c	-0.01982572
13	0xbcf083ed	-0.029359782
14	0xba600f53	-0.00085472054
15	0x3cbf38d9	0.023342537
16	0x3b40e824	0.0029435242
17	0xbc743090	-0.014904156
18	0x3d016d1a	0.031598188
19	0x3b7ba2d5	0.0038396616
20	0x3d701fff	0.058624264
21	0xbc930952	-0.01794878
22	0xbd534d2f	-0.05158728
23	0xbc910322	-0.01770169
24	0xbbbe27ef	-0.0058031003
25	0xbc2f61b2	-0.010704445
26	0x3d0799bf	0.033105608
27	0x3d8b5072	0.06802453
28	0x3d379875	0.04482313
29	0x3d2ac7b1	0.041694347
30	0x3bea8b2b	0.0071577034
31	0x3bdffd44	0.0068356115
32	0x3cb447d3	0.022006905
33	0x3d39ef07	0.04539397
34	0x3ba5fa6c	0.005065253
35	0x3d3c01cf	0.045900162
36	0xbce128d8	-0.027485296
37	0xbcf03429	-0.029321747
38	0x3c85f56e	0.016352382
39	0x3ce4907d	0.027900929
40	0x3c1c8724	0.009553704
41	0xbc01f5eb	-0.007932167
42	0xbcbefd8f	-0.023314266
43	0x3cd177e3	0.025569862
44	0xbcfa8ab8	-0.030583724
45	0x3d4fdb89	0.050746474
46	0xbc8fda5e	-0.01756018
47	0xbcc8f596	-0.024531167
48	0xbd22c348	-0.039737016
49	0xbd171e40	-0.036894083
50	0xbd9afbbc	-0.07567546
51	0xbd5bafde	-0.053634517
52	0xbd3975e4	-0.045278445
53	0xbd1495fb	-0.036275845
54	0xbbeb5e71	-0.007182889
55	0x3d2bec63	0.041973483
56	0xbc871a71	-0.0164921
57	0x3c0ca7f6	0.008584967
58	0xbba7cbca	-0.005120729
59	0xbcdf54b3	-0.027262067
60	0x3c655a1d	0.013998535
61	0xbd20aeec	-0.03922932
62	0xbcc307ad	-0.023807371
63	0x3c70c58d	0.014695537
64	0xbc8c1e5e	-0.017104324
65	0x3c8dac0e	0.017293956
66	0xbd991121	-0.0747397
67	0xbcc0bb32	-0.023526762
68	0xbd875938	-0.06608814
69	0xbccdb4ff	-0.02511072
70	0x3baceae4	0.0052770246
71	0xbbcccea7	-0.006250221
72	0x3c898743	0.01678813
73	0x3ce87a32	0.02837858
74	0x3d304902	0.043038376
75	0x3c7064e2	0.01467249
76	0x3bde6252	0.006786623
77	0x3c001d20	0.007819444
78	0x3c5fd8dd	0.013662544
79	0x3cd70d59	0.026251482
80	0x3d173537	0.036915984
81	0x3d4cb647	0.04997852
82	0x3d7facd8	0.062420696
83	0x3dc254ea	0.09488852
84	0xbcce5d0d	-0.025190854
85	0xbcfbf645	-0.030757079
86	0x3ac12877	0.0014736791
87	0x3d20182a	0.039085545
88	0x3d60c1fd	0.0548725
89	0x3d6f37ba	0.058402754
90	0x3d793ae8	0.060847193
91	0x3d0e9c69	0.034817133
92	0x3d17e078	0.037079304
93	0xbced58cf	-0.028973011
94	0x3bc76ea8	0.0060861893
95	0xba96ffda	-0.0011520342
96	0xbc88e5db	-0.016711166
97	0x3ceb7c30	0.02874574
98	0x3d13aedf	0.036055442
99	0x3d712cb2	0.058880515
100	0x3bf4938b	0.0074638776
101	0x3d432658	0.04764399
102	0xbd02904d	-0.031875897
103	0xbc8ebc66	-0.01742382
104	0x3ce759c8	0.028241053
105	0x3d139973	0.036035012
106	0xbcd59e8f	-0.026076583
107	0x3be803b8	0.0070805214
108	0x3d2e6474	0.04257627
109	0x3da5faa4	0.081044465
110	0x3dce68b8	0.10078567
111	0xbd1053ed	-0.035236288
112	0xbccdec41	-0.025137069
113	0xbbf896ee	-0.0075863516
114	0xbc1d3c8a	-0.009596953
115	0xbc034c83	-0.008013847
116	0x3b5eb0f1	0.0033979977
117	0x3cdd9bcb	0.027051827
118	0x3bc41e7a	0.0059850784
119	0xbc5dd105	-0.013538604
120	0xba93076a	-0.001121742
121	0x3d1f5592	0.038899966
122	0xbc909bf5	-0.017652491
123	0x3bcd583f	0.0062666233
124	0xbbfdf84b	-0.007750546
125	0xbd1f9ef9	-0.038969968
126	0x3de67277	0.11252301
127	0x3d537eab	0.051634472
128	0x3e03c222	0.12867025
129	0x3ccc0824	0.024906226
130	0x3c25dacd	0.010122967
131	0x3cc8c5b9	0.024508344
132	0x3c65f7c3	0.014036122
133	0x3d571a99	0.0525156
134	0x3d1385e3	0.036016356
135	0xbb613e52	-0.0034369421
136	0x3cc913e5	0.02454562
137	0xbcd559d0	-0.026043802
138	0x3c42143f	0.011845647
139	0x3c98dcae	0.018659916
140	0xbac388d1	-0.0014918094
141	0xba2e28d9	-0.000664366
142	0xbd11de36	-0.035612307
143	0x3bccdbe2	0.006251798
144	0xbbffd069	-0.007806827
145	0x3bae2b82	0.005315245
146	0xbba82d79	-0.005132374
147	0xbc087eca	-0.00833101
148	0x3c75196a	0.0149596725
149	0xbab25d95	-0.0013608212
150	0xbaf3b274	-0.0018592612
151	0x3d3ce5e5	0.046117682
152	0x3d43f086	0.047836803
153	0x3d453fb6	0.048156463
154	0x3d0e0f46	0.034682535
155	0x3d54c196	0.05194243
156	0x3d06fbc0	0.03295493
157	0x3d260360	0.040530562
158	0x3d1506ee	0.03638356
159	0x3d89f048	0.06735283
160	0xb7271f3f	-9.961251e-06
161	0x3d7d7eed	0.061888624
162	0x3d95db4f	0.073172204
163	0x3d1ec14e	0.03875857
164	0x3d1bca43	0.03803469
165	0xbc165da9	-0.009177604
166	0xbd2e71d1	-0.042589013
167	0x3d058baa	0.032603897
168	0xbb9ce7fc	-0.004788397
169	0x3d4aaf4f	0.049483594
170	0xbc683216	-0.014172098
171	0x3d2d66e7	0.042334463
172	0xbc21aa24	-0.009867225
173	0xbbd16fdd	-0.006391509
174	0x3b37e204	0.00280583
175	0x3c537cb7	0.012908152
176	0xbcc7d148	-0.024391785
177	0x3cfdfe94	0.031005181
178	0xbc2fa1e4	-0.01071975
179	0x3d42fc05	0.047603626
180	0x3e10531c	0.14094204
181	0x3dbc7e2f	0.09203755
182	0x3e2985a6	0.16554889
183	0x3d0b747a	0.034046628
184	0x3c1659c7	0.009176678
185	0x3b25081e	0.002518184
186	0x3d8caefb	0.068693124
187	0x3d03215e	0.032014243
188	0x3ce8d61a	0.028422404
189	0xbc8116ba	-0.015757907
190	0xbc8152e9	-0.015786605
191	0x3d79edaf	0.06101769
192	0xbd10785c	-0.035271034
193	0xbd1f8f35	-0.038954932
194	0x3c7c60d8	0.015403949
195	0x3c86c4d4	0.016451277
196	0x3b3de91e	0.002897806
197	0x3d2d8e23	0.04237188
198	0x3d760031	0.060058776
199	0x3d882397	0.06647413
200	0x3deb542f	0.11490666
201	0xbca55f1c	-0.020186953
202	0xba672cbf	-0.00088186184
203	0xbc872869	-0.016498761
204	0x3b6fe0cd	0.0036602498
205	0x3cd02d84	0.025412329
206	0x3c613782	0.013746144
207	0x3dbd0e49	0.0923124
208	0x3d9dcf41	0.07705546
209	0x3d9399bd	0.072070576
210	0x3c25d7e3	0.010122272
211	0x3d40efd7	0.04710373
212	0x3ca16298	0.019700333
213	0x3daf0edf	0.08547758
214	0x3d93eba2	0.07222678
215	0x3d0fb2a3	0.03508247
216	0xbcaf22d9	-0.021378921
217	0x3c8632a0	0.016381562
218	0xbcc251ef	-0.02372071
219	0xbc52c608	-0.012864597
220	0x3ba4c360	0.0050281733
221	0xbd25c048	-0.040466577
222	0x3b612049	0.003435152
223	0xbcb501bb	-0.022095552
224	0xbd6cacd7	-0.05778202
225	0x3d387b30	0.045039356
226	0x3d38762a	0.045034565
227	0x3daeb90a	0.08531387
228	0xbcf56766	-0.02995653
229	0x3c9cf3fa	0.019159306
230	0xbc672ec2	-0.014110269
231	0x3d20dfd7	0.03927597
232	0x3d0e216a	0.034699835
233	0x3d022e89	0.03178266
234	0x3c81bd12	0.015837226
235	0xbc71d523	-0.014760288
236	0xbb1b5b40	-0.0023705512
237	0x3cf00451	0.029298933
238	0x3cf176d1	0.029475601
239	0x3ca93b34	0.020658113
240	0x3ce18000	0.027526855
241	0x3ca599c1	0.020214917
242	0x3c25c940	0.0101187825
243	0x3dc50033	0.096191786
244	0x3cf97a3e	0.030453797
245	0x3d958048	0.07299858
246	0x3cf4f4da	0.02990191
247	0xbc771d84	-0.015082721
248	0xbc83d644	-0.01609338
249	0x3d5fa55c	0.05460106
250	0x3b37f7a7	0.0028071196
251	0x3d1f821a	0.038942434
252	0x3dd31839	0.103073545
253	0x3d81a2e1	0.06329895
254	0x3d56bb3c	0.052424654
255	0x3a2c11de	0.0006563942

cnn_backbone.12.bias f4 [128]
0	0x34ce4bba	3.8425588e-07
1	0x362fcf44	2.6197677e-06
2	0x35fad9af	1.8689806e-06
3	0xb57f3eb9	-9.5086176e-07
4	0x37729614	1.4459267e-05
5	0x36063799	1.9999918e-06
6	0x362b98de	2.5569966e-06
7	0x3485e9c8	2.494328e-07
8	0x37a80b69	2.0032474e-05
9	0x379b87ca	1.8540672e-05
10	0x36ec74d1	7.0469473e-06
11	0x36f6b9fb	7.3530223e-06
12	0x350ed39b	5.320705e-07
13	0x355d8203	8.251811e-07
14	0x36c94b18	5.999009e-06
15	0x36d95ae5	6.4776855e-06
16	0xb57073dc	-8.9575565e-07
17	0xb68bd8a8	-4.167745e-06
18	0x36f4fc9d	7.3011747e-06
19	0xb718edf8	-9.115312e-06
20	0x36102de4	2.1484384e-06
21	0x36bbda46	5.5984447e-06
22	0x351313df	5.4790684e-07
23	0xb3f2508c	-1.12836545e-07
24	0xb722889e	-9.687761e-06
25	0x366c7791	3.5236337e-06
26	0xb579e62b	-9.3094667e-07
27	0xb696635b	-4.481915e-06
28	0xb6047d6c	-1.9742538e-06
29	0xb75bfb51	-1.3111931e-05
30	0x362d7c1f	2.5851257e-06
31	0xb690cc18	-4.315294e-06
32	0x3692150a	4.3535883e-06
33	0x37929261	1.747272e-05
34	0x376be70c	1.4060886e-05
35	0xb6147493	-2.2121574e-06
36	0xb7010bd6	-7.691755e-06
37	0x34a9a204	3.1596585e-07
38	0x36343f42	2.685891e-06
39	0x3687af61	4.0437303e-06
40	0x35ac4331	1.2834554e-06
41	0x3560ae49	8.370012e-07
42	0x38046591	3.1565844e-05
43	0xb5d6278d	-1.5955753e-06
44	0x374957f5	1.2001013e-05
45	0xb65e71dc	-3.3146853e-06
46	0xb6250aca	-2.4593196e-06
47	0x370d0743	8.405946e-06
48	0x378bd9d8	1.6671533e-05
49	0x371bfd5e	9.297712e-06
50	0x35ce8722	1.5387525e-06
51	0xb4dda3df	-4.128369e-07
52	0xb52056fd	-5.973123e-07
53	0x3550732d	7.765364e-07
54	0xb5a5a350	-1.2340988e-06
55	0x3704c774	7.914252e-06
56	0xb5308c0e	-6.5768916e-07
57	0xb79ef4c9	-1.8949055e-05
58	0x35824e3f	9.708527e-07
59	0xb68b84bd	-4.1579756e-06
60	0x36b22ef4	5.3102794e-06
61	0xb63f6a94	-2.8523255e-06
62	0x32f55429	2.8560025e-08
63	0x37c02d52	2.2909288e-05
64	0xb59229ef	-1.0890052e-06
65	0xb6d90e25	-6.4687506e-06
66	0x36a1a7fa	4.817729e-06
67	0xb689a175	-4.1017142e-06
68	0xb3f403f5	-1.1362855e-07
69	0x353eeddc	7.1126647e-07
70	0x3646d65d	2.9629075e-06
71	0x3652a4a3	3.138827e-06
72	0xb59a9b8c	-1.1519164e-06
73	0x36c0d9ee	5.7474163e-06
74	0xb6093518	-2.0445495e-06
75	0xb47f50bc	-2.3778097e-07
76	0xb5ffec8f	-1.9067828e-06
77	0xb6177302	-2.2567697e-06
78	0x37615d90	1.3432829e-05
79	0xb7a0f445	-1.9187233e-05
80	0x35bcb74c	1.4060438e-06
81	0x37da6616	2.6035163e-05
82	0xb6314f6f	-2.6421292e-06
83	0xb63943ec	-2.7606684e-06
84	0xb629a502	-2.527901e-06
85	0x37e31777	2.7071435e-05
86	0xb5830565	-9.761831e-07
87	0xb4ec651a	-4.4031987e-07
88	0xb642cad2	-2.902631e-06
89	0xb5c10c11	-1.4383132e-06
90	0x378449b2	1.5769943e-05
91	0xb4cabebb	-3.7764207e-07
92	0xb6a5db0a	-4.9428827e-06
93	0x36d53cd6	6.354977e-06
94	0xb4ac7fbd	-3.2130438e-07
95	0xb61976ba	-2.2867885e-06
96	0x35c0a37b	1.4352694e-06
97	0xb4b7ee02	-3.425958e-07
98	0xb604e988	-1.9805466e-06
99	0x352064a8	5.975112e-07
100	0x368100a6	3.844575e-06
101	0xb68ee08f	-4.258072e-06
102	0xb61ca078	-2.3339217e-06
103	0x3724e8f4	9.8294e-06
104	0xb72c1c4d	-1.0258588e-05
105	0xb7312434	-1.0558451e-05
106	0xb6dbc4d5	-6.549623e-06
107	0x34af7b84	3.268616e-07
108	0xb43177ee	-1.652804e-07
109	0xb5ef3b39	-1.7824124e-06
110	0x3697c957	4.5235897e-06
111	0xb4ae4a52	-3.24641e-07
112	0xb5593d1a	-8.0927714e-07
113	0xb696793d	-4.4844624e-06
114	0xb5951ab0	-1.1109132e-06
115	0xb598d275	-1.1386134e-06
116	0x36643f51	3.4011503e-06
117	0x369ef063	4.7367516e-06
118	0xb6144ea5	-2.2099496e-06
119	0x37279af7	9.990056e-06
120	0x3485f7ad	2.4953388e-07
121	0x3670c081	3.587484e-06
122	0xb672f9c4	-3.6206193e-06
123	0x3708c729	8.152602e-06
124	0xb6257529	-2.4655112e-06
125	0xb612f48d	-2.1898043e-06
126	0x35e9ad33	1.741026e-06
127	0x364ebb90	3.0805568e-06

cnn_backbone.13.weight f4 [128]
0	0x3f7feb6f	0.9996862
1	0x3f81a227	1.012761
2	0x3f7e99fa	0.994537
3	0x3f7f42d0	0.9971132
4	0x3f814c45	1.0101401
5	0x3f6eb85b	0.93250054
6	0x3f7b3381	0.98125464
7	0x3f7c26e4	0.9849684
8	0x3f7bba72	0.9833137
9	0x3f6bd5af	0.9212293
10	0x3f7232a3	0.94608516
11	0x3f69fbae	0.9139966
12	0x3f651be2	0.8949567
13	0x3f7f5cd7	0.9975104
14	0x3f6618ba	0.8988148
15	0x3f72a992	0.94789994
16	0x3f740163	0.95314616
17	0x3f83ea86	1.0305946
18	0x3f7b24d6	0.9810308
19	0x3f72f4e2	0.9490491
20	0x3f799f46	0.97508657
21	0x3f705fd7	0.9389624
22	0x3f7acfaf	0.9797315
23	0x3f831410	1.0240498
24	0x3f7f400d	0.9970711
25	0x3f688e15	0.908418
26	0x3f770bd6	0.96502435
27	0x3f6dc7a7	0.9288277
28	0x3f730e85	0.9494403
29	0x3f6b21bd	0.91848356
30	0x3f7829e0	0.96938896
31	0x3f6ce453	0.92535895
32	0x3f77f4b4	0.9685776
33	0x3f733ef5	0.9501794
34	0x3f7d3fa6	0.98925245
35	0x3f742b7d	0.9537886
36	0x3f80b382	1.0054781
37	0x3f63947b	0.8889844
38	0x3f7a37b8	0.9774127
39	0x3f74a9a7	0.9557137
40	0x3f807afb	1.0037531
41	0x3f81eb0b	1.0149854
42	0x3f82f77c	1.0231776
43	0x3f7e8ef4	0.9943688
44	0x3f80873f	1.0041274
45	0x3f82f335	1.0230471
46	0x3f811013	1.008303
47	0x3f81de19	1.0145904
48	0x3f81df4c	1.014627
49	0x3f7f449a	0.9971405
50	0x3f850e1e	1.0394933
51	0x3f6fe387	0.93706554
52	0x3f77e00f	0.9682626
53	0x3f74fa3e	0.9569434
54	0x3f7135a4	0.94222474
55	0x3f7640de	0.9619273
56	0x3f80e323	1.0069317
57	0x3f808d74	1.0043168
58	0x3f5f020a	0.87112486
59	0x3f788089	0.9707113
60	0x3f824899	1.0178405
61	0x3f7ffeb9	0.9999805
62	0x3f7ae900	0.9801178
63	0x3f8aaf12	1.0834677
64	0x3f71606e	0.94287765
65	0x3f81490a	1.0100415
66	0x3f81084b	1.0080656
67	0x3f8281b4	1.0195832
68	0x3f7d3666	0.9891113
69	0x3f7deb6c	0.9918735
70	0x3f6c35d5	0.9226964
71	0x3f840573	1.0314163
72	0x3f7b7943	0.98231906
73	0x3f7a999e	0.9789065
74	0x3f6d6bcc	0.9274261
75	0x3f77fbc5	0.96868545
76	0x3f792ae0	0.9733105
77	0x3f7d801a	0.9902359
78	0x3f7a4c51	0.977727
79	0x3f801e9d	1.0009342
80	0x3f7bb2f0	0.9831991
81	0x3f7a5869	0.97791153
82	0x3f84f39c	1.0386844
83	0x3f79e9b8	0.9762225
84	0x3f730615	0.94931155
85	0x3f83a0a4	1.0283399
86	0x3f7db318	0.991014
87	0x3f813598	1.009448
88	0x3f7937ec	0.97350955
89	0x3f54a7be	0.83068454
90	0x3f80abdd	1.0052449
91	0x3f622585	0.883385
92	0x3f786f81	0.9704514
93	0x3f7d61df	0.98977464
94	0x3f74a9e9	0.9557176
95	0x3f725fe3	0.9467756
96	0x3f7dca93	0.9913723
97	0x3f68e0cb	0.90968007
98	0x3f6c2b09	0.92253166
99	0x3f7a0559	0.9766441
100	0x3f79efdd	0.9763163
101	0x3f806912	1.0032065
102	0x3f6ed563	0.9329435
103	0x3f8c4272	1.0957778
104	0x3f8442c0	1.033287
105	0x3f7a2c5b	0.9772393
106	0x3f6e4279	0.9307018
107	0x3f79fed9	0.9765449
108	0x3f7855e8	0.9700608
109	0x3f7a686d	0.9781559
110	0x3f71a575	0.9439309
111	0x3f642163	0.89113444
112	0x3f72e4c1	0.948803
113	0x3f7088f0	0.9395895
114	0x3f7e2f89	0.9929128
115	0x3f7ccc00	0.9874878
116	0x3f816b65	1.0110899
117	0x3f71f550	0.9451494
118	0x3f5d4b61	0.86443144
119	0x3f7e847f	0.99420923
120	0x3f7f6fec	0.99780154
121	0x3f8235bc	1.0172648
122	0x3f713f5e	0.94237316
123	0x3f77aa31	0.96744066
124	0x3f813bd9	1.0096389
125	0x3f6b7212	0.9197093
126	0x3f687481	0.9080277
127	0x3f7318c5	0.9495967
