models/spec_cnn/adress_spec/best_model.pth (torch, 490594 bytes, 36 tensors)

cnn_backbone.0.weight f4 [16, 3, 3, 3]
000000 ff 66 e9 bb eb 0a 1e be 3b 86 61 be c1 da 2e be
       -0.007122874 -0.15433852 -0.22023861 -0.17075635
000010 17 90 6b 3c 6a 20 1f be 61 41 78 bd 89 ef 0e be
       0.014377615 -0.15539709 -0.060609225 -0.13958563
000020 7c f8 c5 bd 1d ea 06 be 62 69 0e be fb 06 83 3c
       -0.09666535 -0.13175245 -0.13907388 0.01599454
000030 53 30 61 bd e0 a7 a7 3d 99 14 d9 bd 75 12 17 be
       -0.054977726 0.081863165 -0.10599632 -0.14753135
000040 d1 49 70 bd c7 b4 0e be 21 c1 bf bd 42 8c 73 be
       -0.058664147 -0.13936149 -0.09363008 -0.23783973
000050 4e 7d 2d 3d b6 67 2a be 86 4f 19 3d b7 91 b2 3c
       0.042355828 -0.16641125 0.037429355 0.021797998
000060 47 a1 c6 3d 47 eb 4f be 5d 34 94 3d d1 4d 2f bd
       0.0969873 -0.20304595 0.0723655 -0.04279882
000070 31 65 00 3e 44 04 69 3e 22 e2 03 3d c3 f1 96 3d
       0.12538601 0.22755533 0.03219808 0.07370331
000080 db a5 3d 3c 2d a1 89 bd 2d 8e 45 3e 88 41 e8 bd
       0.011575188 -0.06720195 0.19292517 -0.11340624
000090 92 17 97 3d 21 6c ec 3d 77 0b e0 3d 27 3d 96 bd
       0.073775426 0.115440615 0.10939687 -0.07335883
0000a0 d3 4f 13 be 95 41 a6 bc b1 51 b0 3d 9a bb 3d be
       -0.1438592 -0.020294944 0.086093314 -0.18528596
0000b0 c4 f8 aa bd 26 c9 f9 bd 56 82 b8 bc bb 65 03 be
       -0.083482295 -0.12196569 -0.022523087 -0.12831776
0000c0 5f 3e a8 bd a1 da 7e bd 03 90 74 be 12 34 35 3e
       -0.08215021 -0.06222022 -0.23883061 0.17695644
0000d0 e3 b6 3c 3e 5a ee 77 bd 49 b2 b7 bd 4a 79 1b be
       0.18429141 -0.060530044 -0.08969552 -0.15182987
0000e0 66 c0 82 be 96 45 87 be 9b f2 b7 3c 51 13 38 be
       -0.25537413 -0.26420277 0.02245455 -0.17976119
0000f0 3e ee 5c be 15 b4 b5 bd b4 71 0c be d7 3a 75 bd
       -0.21575257 -0.088722385 -0.1371525 -0.059870567
000100 3c 43 99 3b 3f 20 76 bd 18 97 91 bd 82 14 a2 bd
       0.0046772044 -0.060089346 -0.07108897 -0.07914068
000110 64 b9 2d be e3 19 15 3e d0 07 9c bd 48 e1 1b 3d
       -0.16965252 0.14560656 -0.076186776 0.03805664
000120 25 29 f4 bd 86 d1 1f bd 15 57 ec 3d 6c 06 e7 3c
       -0.1192191 -0.039018176 0.11540047 0.028201304
000130 47 88 58 be b8 4f 7a 3c ce 06 ef 3d 4c f2 8d bb
       -0.21145736 0.0152777955 0.1167122 -0.0043318626
000140 36 34 90 3d 0e f0 5b 3e 21 c5 1d bc 4e e0 45 3d
       0.070412084 0.21478292 -0.009629519 0.048309617
000150 ae 49 db bd 38 76 8f bc 00 0a 1a 3e 0e ab 02 3e
       -0.10707413 -0.017512426 0.15042877 0.12760565
000160 6d c7 ca bd fb bf 18 be 59 c7 10 be 2d ef 62 be
       -0.09901319 -0.14916985 -0.14138545 -0.22161551
000170 df c1 42 be 5a e7 95 bd 61 ea 97 3d 2c bd c8 bc
       -0.19019268 -0.073195174 0.07417751 -0.024504267
000180 1f 84 4c be a3 72 76 be c1 8d 41 3b a6 49 f0 bd
       -0.19972275 -0.24067168 0.0029533955 -0.11732797
000190 b9 d1 2e bd 99 ea 75 3d 95 cf a3 bd 19 72 4c bd
       -0.042680476 0.060038183 -0.079985775 -0.0499135
0001a0 e9 06 52 bd 56 0f 18 bd 55 72 09 be 49 4d 6f be
       -0.05127612 -0.037124 -0.1342252 -0.23369326
0001b0 a5 1d 14 be 8b a0 d2 bd 1d 82 58 3e 52 c3 9f bd
       -0.14464433 -0.102845274 0.21143384 -0.07800926
0001c0 cd 61 fa bd c4 59 ba 3d aa 1c 84 3d 04 10 e6 3d
       -0.12225685 0.09099153 0.0645078 0.112335235
0001d0 4d c1 43 3e ba ef c7 3d 00 84 5b be e8 d3 eb 3c
       0.19116707 0.09762521 -0.21437073 0.028787568
0001e0 98 f8 de 3d 90 1b 15 bd cc 98 a6 bd d8 bc 2c 3e
       0.10887259 -0.03640324 -0.081346124 0.16868913
0001f0 f1 30 c8 bd 93 cd b9 bd 61 e5 50 be 0f 22 80 bc
       -0.0977496 -0.09072413 -0.20400001 -0.01564124
000200 33 57 8a 3d c7 5d d2 3c ec 0e c8 3c 2d f8 25 be
       0.06754913 0.025679482 0.024421178 -0.16207953
000210 4c a1 32 be 57 42 94 3c b0 60 3a 3e cb 3d 90 3d
       -0.17444342 0.01809804 0.18200946 0.07043036
000220 77 bc 13 be df 23 91 bd f1 e1 2e be 2d fb 00 be
       -0.14427362 -0.0708692 -0.17078377 -0.12595816
000230 d3 3d 1c bc 2e 67 c8 3d 82 87 16 3e d6 ea 54 be
       -0.009536224 0.09785305 0.1470013 -0.20792708
000240 fb a0 c0 3d 84 44 2e be 8e ab 02 3d f2 14 0b 3e
       0.094057046 -0.17018324 0.03190189 0.13582209
000250 20 2a e8 bc 58 1d 10 3e 7f 3b 2a be 17 7e af bd
       -0.0283404 0.14073694 -0.16624258 -0.085689716
000260 f3 7f b2 3d 00 f0 8f bd 5d 7e b6 bd 39 52 01 be
       0.087158106 -0.07028198 -0.08910821 -0.12629022
000270 c5 2f d4 3d e4 5b 64 3d db 82 a6 3c 61 d7 f9 bd
       0.10360674 0.055751696 0.020326069 -0.121992834
000280 a9 1d 31 be f2 29 41 bc 15 35 15 bc bb 5f 18 be
       -0.1729647 -0.011789786 -0.009106894 -0.14880268
000290 5e 81 be bd e3 14 95 3d 1c f2 52 bd 27 c7 84 bd
       -0.093020186 0.072793745 -0.051500425 -0.06483298
0002a0 e8 32 9b bd 50 29 77 be 5d 0b 89 be 66 12 86 bd
       -0.07578069 -0.24136853 -0.26766482 -0.06546478
0002b0 e2 02 9e bd a8 89 9b 3d 1d 86 d5 bc 50 eb 77 bd
       -0.077153936 0.07594615 -0.026064927 -0.060527146
0002c0 13 64 39 3e 37 c4 cc 3d 40 93 15 3e 79 8a aa bd
       0.18104582 0.099983625 0.14606953 -0.08327193
0002d0 c4 0f c1 bd bb 63 48 3d c9 ac 0d be 8e 6a 0c be
       -0.09426835 0.048923235 -0.13835444 -0.13712522
0002e0 e9 18 14 bd a8 9e bf bd 9a 28 11 be 6f 86 c6 3d
       -0.03615657 -0.09356433 -0.14175645 0.0969361
0002f0 99 15 06 3e 8e 36 fa 3b c0 63 7c bd f4 15 54 be
       0.13094176 0.007635898 -0.061618567 -0.207115
000300 ac a8 d6 bd d2 fc 6d 3c 5e 49 78 3d fe 76 79 bd
       -0.1048139 0.014525609 0.060616843 -0.060904495
000310 e5 4d f1 bd 4a 7f 92 3d 41 99 4f be b3 87 8d 3d
       -0.11782435 0.07153185 -0.20273305 0.06910648
000320 3f 3e 03 be 83 d4 65 bd 35 9f c8 bd a5 e7 11 bd
       -0.12816714 -0.05611087 -0.09795991 -0.035621304
000330 06 fb ed bd 6c a8 9b 3d 0e df 87 bd 81 e8 0d 3e
       -0.116201445 0.07600483 -0.06634341 0.13858224
000340 ac cf 2d 3e 04 a7 e6 bd bf f7 24 be d6 d0 0a 3e
       0.16973752 -0.112623245 -0.16110133 0.13556227
000350 d0 6f 08 3e 7a 85 2c be a3 13 1f bd 4a e7 56 be
       0.13323903 -0.16847792 -0.038837086 -0.20986667
000360 a1 bf 1c be b8 c4 2d 3d 6b 3e fd 3d fb 94 f3 3c
       -0.15307476 0.042423934 0.12365421 0.029734125
000370 09 ca 4c bd 7d 5f 74 3e c7 b1 cc 3c aa 2a e2 bd
       -0.049997363 0.23864551 0.024987115 -0.11043294
000380 c9 4b 3a 3d 77 b7 97 3d 38 36 ca 3d 3f 06 30 bd
       0.04548243 0.0740804 0.09873623 -0.042974707
000390 74 0d a5 3d 1e 74 83 bd c1 8b 93 bd 38 46 a1 bd
       0.080592066 -0.06418632 -0.0720439 -0.07874721
0003a0 8d 44 57 3e ef 71 71 3e c8 f9 19 3e 1c 7c ac 3d
       0.21022244 0.23578618 0.1503669 0.084221095
0003b0 4e 67 f7 3d 8f 32 84 bd e8 10 2b be 49 0c 63 3d
       0.12080251 -0.06454956 -0.16705668 0.055431638
0003c0 76 96 10 be 28 1a 40 be 13 e8 c3 bd 6c f6 6e 3c
       -0.14119896 -0.18759978 -0.09565749 0.014585119
0003d0 ad cf d2 3d 93 d3 bd bd c9 30 0c be 45 13 04 3d
       0.10293517 -0.0926887 -0.13690485 0.03224494
0003e0 19 8a 05 be 92 d0 18 be 1c d6 da 3d 63 8c 63 bd
       -0.13040961 -0.14923313 0.10685369 -0.055553805
0003f0 14 b5 28 3e 75 71 52 3e 85 29 65 3d 82 dd 60 3d
       0.16475326 0.20551093 0.0559478 0.054898746

cnn_backbone.0.bias f4 [16]
000000 ca 0a 18 b7 dc 9c 8d bb 8d 3e 2c 3a be 21 20 38
       -9.062418e-06 -0.0043216776 0.00065706 3.8178398e-05
000010 3e 61 d1 39 95 6f e2 b8 c8 da fd 38 2c d3 24 39
       0.00039936038 -0.000107973035 0.00012104731 0.00015718926
000020 8a e8 ab 3a 4a 78 2b ba 31 78 11 b9 eb d2 60 3a
       0.0013115567 -0.0006541057 -0.00013873052 0.0008576351
000030 06 f9 2c b8 be 0e b6 39 ce 8f 54 b7 7c cb 23 3a
       -4.1239917e-05 0.0003472473 -1.2669667e-05 0.0006248278

cnn_backbone.1.weight f4 [16]
000000 db 0d 83 3f f4 27 8a 3f df 47 82 3f 8d 26 83 3f
       1.0238603 1.0793443 1.0178183 1.024614
000010 e6 74 85 3f e0 8a 84 3f f5 86 7f 3f 61 9a 7c 3f
       1.04263 1.0354881 0.99815303 0.98673064
000020 f7 c2 72 3f 4b e1 6e 3f 91 fc 69 3f 8a f3 69 3f
       0.9482874 0.9331252 0.9140101 0.91387236
000030 d5 fe 82 3f 5d 2a 81 3f c2 03 65 3f 6d 86 8a 3f
       1.0234019 1.0091053 0.8945886 1.0822273

cnn_backbone.1.bias f4 [16]
000000 90 e9 b2 3b 63 a8 e1 3c 75 c1 56 bd 68 4a 76 bb
       0.0054599717 0.027546113 -0.05243059 -0.003758097
000010 26 4f bd 3c 46 0a 60 3c ca cb ac 3b 7c d9 8a 3c
       0.02310903 0.013674324 0.005273317 0.016949408
000020 c0 e3 4a 3b c0 93 90 3c ba 4e 6d bd 8a f9 01 be
       0.0030958503 0.017648578 -0.057936408 -0.12692848
000030 2b a0 94 bc 5d 2a 84 bc eb f5 f5 bd ac 37 37 3d
       -0.01814278 -0.016133482 -0.12009796 0.044730827

cnn_backbone.1.running_mean f4 [16]
000000 de e7 3a be d9 c6 ab bc 1f 18 14 be 06 86 fc bd
       -0.18252513 -0.020968841 -0.14462326 -0.123302504
000010 c5 37 a4 bc 5a d2 cd bd 44 04 08 be 6c cf 98 bd
       -0.020046124 -0.10049887 -0.13282877 -0.074614376
000020 22 ee 82 bb a5 b3 45 bd 76 e1 92 bd 32 ad d2 bd
       -0.003995673 -0.048267026 -0.071719095 -0.10286941
000030 50 00 40 be f9 de b7 bd 77 e5 66 3d 69 c3 83 3d
       -0.18750119 -0.089780755 0.05637118 0.06433756

cnn_backbone.1.running_var f4 [16]
000000 df cd 67 3d f4 dc 60 3a c5 3a 43 3d 93 64 86 3c
       0.05659282 0.00085778465 0.04766347 0.01640538
000010 3b af a3 3a f4 2f 6a 3c 70 22 f6 3c ab 5f 23 3c
       0.0012488136 0.0142936595 0.030045718 0.0099715395
000020 26 85 a8 3a 94 7b 61 3b 17 43 51 3c ee 75 37 3c
       0.0012857064 0.0034405934 0.012772343 0.01119755
000030 5b 4b 89 3d 73 a6 2f 3c 4b 49 c9 3b 04 6e 8f 3b
       0.06703826 0.010720837 0.0061427704 0.0043771286

cnn_backbone.4.weight f4 [32, 16, 3, 3]
000000 aa 99 a8 bc 9d c2 c7 3d b5 9e 5b bd 7f 38 9c bc
       -0.020581085 0.097539164 -0.05361815 -0.019069908
000010 44 81 61 bd 7d b9 0b bc 39 22 e2 3c 82 2f ba 3d
       -0.055054918 -0.008528111 0.02760421 0.09091093
000020 73 8a c8 3c 01 d3 0d 3e 58 56 ab 3d 7b 6d be 3d
       0.02448008 0.13850023 0.08366078 0.092982255
000030 67 8a 04 3e 26 d7 13 3e 05 b7 11 3c cc 15 08 3e
       0.12943421 0.14437541 0.008893733 0.13289565
000040 70 8b e6 3d 4d c4 e4 ba 3d c5 18 bd c0 96 3c bd
       0.11257064 -0.0017453522 -0.037297476 -0.046042204
000050 2f 84 0b 3d c2 80 6f bd 9e 47 81 3d 57 b5 53 3d
       0.034061607 -0.058472402 0.06312488 0.05168661
000060 23 a5 8e bd b1 2a 1e 3d 59 12 a1 3b ab 47 5b 3d
       -0.06965091 0.038614932 0.0049155173 0.053535145
000070 30 94 a3 3d cf c5 62 bd 53 93 b1 3d 98 c3 ba 3d
       0.07987249 -0.055364426 0.08670678 0.09119338
000080 7b f4 5f 3d 04 c5 97 bd d1 db 8d bc c0 7e 51 bc
       0.054676514 -0.074106246 -0.01731673 -0.012786567
000090 ac 2e 0f 3c fd af c6 3d 9b e7 cb 3d ac 51 bb 3d
       0.008739155 0.09701536 0.099562846 0.09146437
0000a0 3a ce a8 3b e9 16 cb 3d 14 16 61 3d 42 0b 5a bd
       0.0051515372 0.09916479 0.054952696 -0.053233393
0000b0 fc 9d 17 bd f6 42 c4 bc b1 32 ab 3d 4d 36 80 bd
       -0.0370159 -0.02395771 0.08359278 -0.06260357
0000c0 70 99 6c bd 73 31 91 3d 90 a1 79 3d 62 2f a4 3d
       -0.057763517 0.0708951 0.060945094 0.0801685
0000d0 7b f4 42 bd ae 19 38 bd 61 6f 2c 3d f3 d6 a8 3d
       -0.047596436 -0.044946365 0.042098407 0.08244123
0000e0 03 01 66 3d 18 53 30 3c 62 87 23 3d c8 53 b1 3d
       0.05615331 0.010761999 0.039924033 0.08658558
0000f0 31 db 81 bd 49 bb 17 bd 13 bb 5c 3d 89 c0 90 39
       -0.063406356 -0.037043843 0.053889345 0.0002760927
000100 13 4c 2c bc 70 c7 09 3e 7a fa 9d 3d bb 18 6c 3d
       -0.010516184 0.13454986 0.0771379 0.057640772
000110 8b 97 3f 3d db a9 18 3d 09 2b d1 3d 82 7a 35 3c
       0.046775382 0.03727136 0.102132864 0.011076571
000120 dd 98 8a 3d 18 d0 9e 3d 65 51 87 bc fe b4 10 3e
       0.067674376 0.077545345 -0.016518304 0.14131543
000130 05 08 65 bc da 4a 3f 3c 0d b4 ef ba 06 9f 82 bd
       -0.013978963 0.011675561 -0.0018287912 -0.063779876
000140 36 00 b0 bd 33 b3 2e 3d 75 76 cc 3c 86 92 bb bd
       -0.0859379 0.042651366 0.024958828 -0.091588065
000150 5b fe 76 bd 08 0f af 3d 40 7d 93 3c f4 e0 ca 3c
       -0.060301166 0.08547789 0.01800406 0.02476547
000160 b1 54 59 bd f6 e9 48 bd e3 e8 eb 3b db 55 00 bc
       -0.053059284 -0.049051248 0.007199393 -0.00783297
000170 2d fe 62 bd 93 f9 bd 3c 71 52 6f 3c 51 ab ca bb
       -0.055418182 0.023190295 0.014607058 -0.0061849733
000180 29 7e c1 3c fe a3 fc bc 40 71 c8 3c 79 b2 88 3d
       0.023619728 -0.030839916 0.024468064 0.06674666
000190 67 bc ac ba d4 c3 4a bd 17 9f 8a 3d ae cb 55 3d
       -0.0013178707 -0.049503163 0.06768625 0.052196197
0001a0 1c fc 6c bc d9 08 ac 3d df 71 b7 bc f1 df 87 3d
       -0.014464404 0.08400125 -0.022393165 0.0663451
0001b0 ca 16 3f 3d 04 04 35 bd 68 68 99 3d 7a 85 91 bd
       0.046652593 -0.044193283 0.07490617 -0.07105537
0001c0 e5 44 02 bd 79 ad e4 3b da 28 7f bd a1 37 ab 3d
       -0.031803984 0.0069786874 -0.06229482 0.0836022
0001d0 1d c5 45 bc 14 ed 7f 3d 6f 21 66 bc 86 a5 bf 3d
       -0.012070921 0.062481955 -0.014046057 0.09357743
0001e0 31 fb 14 3c 4a d0 5a bc b0 83 8c 3d 9f 89 88 3d
       0.009093092 -0.013355324 0.06861055 0.06666874
0001f0 38 31 de 3d 1f 3e 66 ba 14 b9 af bd 6d 1a 96 bc
       0.108492315 -0.00087830605 -0.08580223 -0.018323148
000200 4c e2 b8 bc 00 ff 92 bb 7c ac 50 3c df 68 96 bd
       -0.022568844 -0.004485965 0.012736436 -0.07344221
000210 7c e2 a3 3b 78 ba d6 3c b2 cb a0 bd d9 da c0 3c
       0.0050013643 0.026211962 -0.07851352 0.023541855
000220 63 5b fd bc fc cf 37 3d 6a 46 9f bd dc f4 e8 bd
       -0.030927366 0.044876084 -0.07777102 -0.11374828
000230 85 d2 63 bd d6 1d 7c bc e2 71 a1 3a a1 e8 81 bd
       -0.05562069 -0.015387973 0.0012317265 -0.063431986
000240 1b fc b4 3d fa cf a0 3c 76 fa d7 3d 87 1a 44 3d
       0.08837148 0.019630421 0.105458185 0.04787686
000250 8c 8d 8d bc 52 16 7c 3c 44 c0 46 bc 12 67 b7 3d
       -0.017279409 0.015386181 -0.012130801 0.08955206
000260 f3 8e 91 39 b0 51 ff 3d 94 86 20 3e c6 f5 bc 3d
       0.0002776306 0.124667525 0.15676337 0.09226565
000270 21 00 2a 3e 96 11 8d 3d a3 74 b0 3d a1 9a 9e 3d
       0.16601612 0.0688812 0.08615997 0.07744337
000280 b3 2e 01 3e d4 ad 00 3e 0c 4c 20 3d 16 55 87 3c
       0.1261547 0.1256631 0.039135024 0.016520064
000290 69 ab 94 3d 48 1b e7 3d ea 37 94 3d df d7 78 3c
       0.072592564 0.112845 0.07237227 0.015188186
0002a0 f9 5e 23 bd 5e 75 8d 3d c2 db dc 3a b1 70 02 3e
       -0.039885495 0.06907152 0.0016850161 0.12738301
0002b0 b8 1a 0f 3e 26 20 fd 3d 06 c9 de 3d 41 03 db 3d
       0.13975036 0.123596475 0.10878186 0.1069398
0002c0 4a a9 5a 3d 86 aa 52 3b 79 f9 0c 3e 2e 7e e5 3c
       0.053384103 0.0032145097 0.13767041 0.028014269
0002d0 1d 24 a1 bd 28 7f 3c 3d 13 45 f4 3c 84 9d 5c bc
       -0.07868216 0.046019703 0.029818093 -0.013465289
0002e0 9b e6 66 bc 90 60 d1 bd ac 90 2b bd 0f 8d 89 3d
       -0.014093067 -0.10223496 -0.041886017 0.06716358
0002f0 a4 57 8e bb bd 01 57 3d 2c 6d d7 3c ac 58 ef 3c
       -0.0043439437 0.052491892 0.026297174 0.029217087
000300 fc bc b6 3d 5d 45 2c 3d fe ec c8 3d 18 ba ec 3c
       0.08922765 0.042058337 0.09810828 0.02889733
000310 a4 8b 95 3d d6 c4 a5 3d b4 51 88 3d 22 5b e5 3d
       0.07302025 0.08094184 0.06656209 0.11199023
000320 ef ff ed 3d 2e 39 05 3e 17 fd 01 3e 91 b0 3b 3d
       0.11621081 0.13010094 0.12694202 0.045822684
000330 8f 25 ad bc d0 ac 90 3d d1 77 65 3d cc 4d 9c bd
       -0.021136073 0.07064211 0.05602247 -0.07632026
000340 8e 40 0e bd da 1b 3c bd cf 48 82 bb 4c 90 db bc
       -0.034729533 -0.045925 -0.0039759646 -0.026802205
000350 7b 81 a7 bd 54 d5 b9 bd 78 c3 73 bd c6 8b ae bd
       -0.08178993 -0.09073892 -0.059512585 -0.085227534
000360 ff b2 49 3d 43 0a 2e 3d c6 08 5a 3d 02 8b 5d bd
       0.04924297 0.042490255 0.053231023 -0.054087646
000370 a3 71 a5 bc 63 00 96 bc ee 60 bd bd fb b6 0f 3c
       -0.020195788 -0.018310731 -0.092470035 0.008771653
000380 89 04 56 bc a3 6a a5 bd 90 98 c8 bd 21 58 05 3d
       -0.013062605 -0.0807698 -0.09794724 0.03255475
000390 e7 6d 12 3d 3e b3 92 3b 81 6c 20 3d e6 de 5d bd
       0.035749342 0.0044769337 0.039165977 -0.05416765
0003a0 7d ed 0b bd 6f 63 1d 3b a1 45 0a 3c 98 0c 88 3b
       -0.034162033 0.0024015566 0.008439452 0.004151892
0003b0 a9 6c fb bc e6 43 39 3d d4 3f c2 bc d2 af 27 3d
       -0.030691462 0.04523077 -0.023712076 0.04093916
0003c0 6e df cc 3d 13 88 1f bb 4a d7 49 3c 78 88 07 3d
       0.10003553 -0.002434258 0.012319395 0.03308913
0003d0 7b e3 51 bd 96 4c cd bc 07 2d 7e 3d ae 0a 55 bd
       -0.051242333 -0.025060933 0.06205466 -0.052012138
0003e0 4e 1b 94 bd 49 22 5e bd 75 60 15 bd 6c 94 44 bd
       -0.072317705 -0.054231916 -0.03646894 -0.04799311
0003f0 08 d2 f8 bb 9d a8 93 3d a9 53 60 3d 32 e0 b1 3b
       -0.007593397 0.07209895 0.054767285 0.0054283375

cnn_backbone.4.bias f4 [32]
000000 fc 57 df 37 b0 73 03 b6 4a 4c 71 37 f7 d3 b9 b5
       2.6624642e-05 -1.958786e-06 1.4382482e-05 -1.3845264e-06
000010 28 aa 0a b7 c0 70 58 b6 41 ec a9 36 ba a9 28 38
       -8.265059e-06 -3.2252137e-06 5.064096e-06 4.021239e-05
000020 f8 7a f8 b7 00 2b 46 37 62 6b 8f b7 44 2e 83 b6
       -2.9621166e-05 1.1811731e-05 -1.7096932e-05 -3.9094903e-06
000030 f2 fa 5b b6 80 84 78 37 0a 90 11 38 cd ce 95 b8
       -3.2779612e-06 1.4812802e-05 3.470484e-05 -7.143393e-05
000040 18 2e 34 b7 a2 b9 14 b6 00 27 a9 36 59 5c 9e b6
       -1.0739568e-05 -2.216177e-06 5.0411327e-06 -4.7195176e-06
000050 59 13 fe 36 16 f8 e2 39 96 51 05 b7 fb 7d 6b b7
       7.5720423e-06 0.00043290918 -7.9464135e-06 -1.4036424e-05
000060 49 49 f0 37 f7 91 c3 b7 b1 8d 5b 38 77 45 62 37
       2.8644356e-05 -2.3313782e-05 5.234563e-05 1.3486823e-05
000070 d9 40 75 37 70 a9 08 37 7e d6 57 b6 6f b6 e6 b6
       1.46182365e-05 8.145682e-06 -3.2162347e-06 -6.875772e-06

cnn_backbone.5.weight f4 [32]
000000 27 06 75 3f 67 90 74 3f b4 55 70 3f ab ca 7a 3f
       0.9571251 0.9553284 0.9388077 0.97965497
000010 c7 a9 84 3f 28 e7 72 3f e0 fc 70 3f 23 3f 87 3f
       1.0364312 0.94883966 0.94135857 1.0566143
000020 9b 99 5b 3f a7 99 76 3f ba 77 84 3f 3b 3a 74 3f
       0.8578126 0.96328205 1.0349038 0.9540135
000030 07 1e 72 3f 0d f4 64 3f d4 2d 88 3f 13 56 83 3f
       0.9457707 0.8943489 1.0638986 1.0260643
000040 09 3e 8a 3f 66 df 6a 3f 7c 91 6c 3f 63 26 70 3f
       1.0800182 0.9174713 0.9240949 0.93808573
000050 37 3f 77 3f 49 39 81 3f 56 67 6a 3f f5 c1 81 3f
       0.96580833 1.0095607 0.9156393 1.0137316
000060 7a 20 6c 3f 22 99 7b 3f ed 77 7b 3f 71 ea 85 3f
       0.92237055 0.9828054 0.9822987 1.0462171
000070 c5 26 82 3f 6b 06 81 3f a5 fe 74 3f a8 9e 7d 3f
       1.0168082 1.0080084 0.95701057 0.99070215

cnn_backbone.5.bias f4 [32]
000000 b5 85 55 bc d8 23 c6 bc 03 69 f6 bc dd 46 e7 bd
       -0.0130323665 -0.024187014 -0.03007937 -0.11292813
000010 3c 31 7e bd b1 18 3d 3c 94 b2 4a 3d 4a f6 12 bd
       -0.062058672 0.011541531 0.04948671 -0.03587941
000020 69 ad c3 bd f7 42 6a 3d 0d d8 df bb 24 fd c1 bc
       -0.0955456 0.05719277 -0.006831175 -0.023680277
000030 50 f1 ba bc c7 6a c1 bd 63 b0 8b bc b6 4a e2 3d
       -0.022820145 -0.09444194 -0.017051881 0.11049406
000040 80 7c 8d bc 55 a7 c6 bd da ce 41 bd 6b 59 21 3d
       -0.01727128 -0.09699885 -0.04731641 0.039391916
000050 e2 4c 58 bd 78 dd 83 3d 06 8e 2c 3d 61 f4 33 bd
       -0.052807696 0.06438726 0.04212763 -0.04393423
000060 da 0e 94 bd 13 ec f1 bd 25 55 1b bc dc ea 61 3c
       -0.07229395 -0.11812606 -0.009480749 0.013788905
000070 8d eb 0e bd 5e e7 52 3d 36 74 2b bd 1d bb e8 bc
       -0.034892607 0.05149018 -0.041858874 -0.028409535

cnn_backbone.5.running_mean f4 [32]
000000 5f 20 8d 3f a6 f3 8e 3f 5a ed 90 bc 4a 38 1e bf
       1.1025504 1.1168106 -0.017691303 -0.6180464
000010 97 4b 26 bf 21 45 25 3f d1 02 9d bf a9 35 a7 3d
       -0.6495909 0.6455861 -1.2266484 0.08164532
000020 d2 cb 1c bf 91 b6 08 c0 48 11 95 be 97 d6 02 c0
       -0.61248505 -2.136143 -0.29114747 -2.0443475
000030 b5 34 0a 3f 54 ff e9 3e 29 05 c3 3f 9c e2 2d bf
       0.53986675 0.45702612 1.523595 -0.67923903
000040 82 13 0b bf 42 40 9a 3e 99 1b 8d 3e ca ca c5 bf
       -0.5432664 0.3012715 0.27560118 -1.5452511
000050 f3 79 0e 3e 8a 1f 3f bf e3 51 15 3f 1d dc aa 3f
       0.13913707 -0.746575 0.58328074 1.3348423
000060 3c 87 1e bf fa da 80 bf f1 ab 34 3f ea 89 84 3f
       -0.619251 -1.0066826 0.7057486 1.0354588
000070 66 88 aa 3f 51 dd e3 3e 0c 37 b6 3f 31 3e c2 3f
       1.3322875 0.4450479 1.4235549 1.5175229

cnn_backbone.5.running_var f4 [32]
000000 15 cc 81 3f 23 ce ec 3f f6 cf 0d 40 fd 83 25 3f
       1.0140406 1.8500408 2.215818 0.64654523
000010 6e 66 1a 40 98 7f 14 40 e4 78 f6 3f 41 e0 12 40
       2.4125018 2.3202877 1.9255643 2.2949374
000020 eb 8e ec 3f 42 9c 5b 40 5e 85 ee 3f 5e d6 2e 40
       1.8481115 3.4314122 1.863445 2.731834
000030 68 75 d5 3f 2d 31 71 3f b9 ff 98 3f 1c e9 48 3f
       1.6676455 0.9421566 1.195304 0.78480697
000040 31 05 00 40 76 55 b6 3f 06 73 03 40 3f 48 e7 3f
       2.0003169 1.4244831 2.0538955 1.8068923
000050 50 7a 17 40 10 15 29 3e 9a ff 24 40 35 e2 27 3f
       2.3668404 0.16511941 2.5781007 0.6557954
000060 ac 58 09 40 53 2d f9 3f 62 ed 84 3f 61 b0 b7 3f
       2.146037 1.9466957 1.0384943 1.4350702
000070 02 67 af 3f 1d a4 1e 3f 90 be 17 40 e4 48 3e 40
       1.370331 0.61969167 2.371006 2.973199

cnn_backbone.8.weight f4 [64, 32, 3, 3]
000000 92 0c 9a 3b 2a de 6a 3d 11 0d 85 3c 7b 74 15 bd
       0.0047012055 0.05734078 0.016241582 -0.036488038
000010 9d 2b 58 3c 41 dc 31 bd 78 a8 e7 3c 37 47 2d bd
       0.013193992 -0.04342294 0.028278574 -0.042304244
000020 3e 12 5b 3d d9 86 32 bd f5 86 c6 3b 60 32 84 bd
       0.053484194 -0.043585632 0.0060585686 -0.06454921
000030 f4 d5 93 bd 23 5c 61 bc 33 58 45 3b 21 67 31 bd
       -0.07218543 -0.013754877 0.0030112385 -0.043311242
000040 4b a8 d2 bd c3 8f 86 bd 65 f4 85 bd 6b 95 f9 bb
       -0.102860056 -0.06570389 -0.06540755 -0.007616689
000050 40 c6 0c bc f9 10 a8 3c 8c 43 17 3d 95 ea 29 bd
       -0.008592188 0.020515906 0.036929652 -0.04148348
000060 c7 ce f3 3c c5 0c d1 3c ac 8a 93 39 fe cb 2e bd
       0.029761685 0.025518784 0.00028141344 -0.04267501
000070 f9 f7 b1 bc e8 60 41 3d 05 e5 49 3d 1c ca 23 3d
       -0.021724688 0.047211558 0.049290676 0.03998767
000080 38 b8 c1 3b 45 d7 30 3a 7c 03 32 bc 46 2f c1 3b
       0.005911853 0.0006745945 -0.010865089 0.005895528
000090 ea 2b e2 bc 57 5a 9f bc 64 b6 f2 3c 03 dc 77 bd
       -0.02760883 -0.019452257 0.029627986 -0.060512554
0000a0 82 f8 bb 3b 55 74 0d 3d cf 92 86 bd 62 b5 31 bd
       0.0057364115 0.03453477 -0.0657097 -0.04338587
0000b0 18 2d 90 bc c5 3e 6a 3c 67 52 64 3d 92 9b 52 3c
       -0.017599627 0.014297192 0.055742647 0.012854474
0000c0 fc 35 21 3d fe 33 40 3d 90 66 31 3d 7b e1 6a bd
       0.039358124 0.046924584 0.0433107 -0.05734394
0000d0 e4 3e 1d bd 0b 29 bf bb a9 dc 1d 3d 9f ef 03 3d
       -0.038390055 -0.00583375 0.038540516 0.032210942
0000e0 29 24 ae 3d 7a 0b 81 3d fd 8d 6a bc 1a 1c b5 bc
       0.08502991 0.06301017 -0.014316079 -0.022108126
0000f0 81 9c 1a 3d d2 6e 0b 3d 0c a0 8d 3d 69 27 58 bc
       0.03774691 0.034041233 0.06915292 -0.01319299
000100 9a d6 30 bc 0e be e7 bb 14 7f d2 3b ef e4 22 b9
       -0.0107933525 -0.007072217 0.0064238403 -0.00015534808
000110 5f 54 16 bd 09 45 7b bd 28 d5 98 3c 96 1f 9d bc
       -0.036701556 -0.061345134 0.018656328 -0.0191801
000120 32 e1 66 bd a6 b9 84 bc fc b5 2d 3d 27 f8 22 bd
       -0.056367107 -0.016201805 0.042409882 -0.039787438
000130 71 1f 89 bc e7 cc e6 3c ee f0 35 3d 12 42 5a ba
       -0.016738625 0.028173877 0.04441922 -0.0008325885
000140 5d 66 e7 bc 60 1c 10 ba 37 f1 9c ba fc 03 9f 3c
       -0.028247053 -0.0005497392 -0.0011973743 0.01941108
000150 48 06 11 bd 2f 82 54 3d ed f1 41 3c ea 1f bf bc
       -0.03540638 0.051881965 0.011837465 -0.023330647
000160 a2 27 47 3d 69 97 45 3c e7 e5 45 bd 02 69 d0 bd
       0.04862178 0.012060025 -0.048314955 -0.10176279
000170 55 d0 ba bd 71 6f fd bd 4c 8d eb bd 11 50 65 bd
       -0.091217674 -0.123747714 -0.115015596 -0.05598456
000180 fc a8 04 bd db 18 fe bd 0a ff 86 bd 20 45 14 bd
       -0.03238772 -0.124070846 -0.065916136 -0.036198735
000190 b3 0d f2 bc 6d fc 9d bc 45 22 27 bd 75 c0 12 bd
       -0.029547548 -0.019285405 -0.040804166 -0.035828073
0001a0 be 31 ae bc 42 0e 0d bb bf e8 56 3d 6b 89 0a 3d
       -0.021263953 -0.002152339 0.052468058 0.03382246
0001b0 c9 8f 8d 3a a3 84 b7 bb af bb 6d bc f8 f6 45 bd
       0.0010800298 -0.0056005283 -0.014510079 -0.04833123
0001c0 e7 04 36 3d 55 a8 41 3d f5 4e 76 bd b1 8b 78 bd
       0.04443827 0.047279675 -0.060133893 -0.060680095
0001d0 86 9b 88 bd 84 05 c5 bc 14 11 54 bc 11 a9 0c bd
       -0.06670289 -0.024050482 -0.012943525 -0.03434092
0001e0 70 cd fd 3b 8c 75 b5 bc a5 67 37 bd ec cd 89 bd
       0.0077454373 -0.022150777 -0.044776578 -0.067287296
0001f0 9f 94 10 3d 86 a9 6e 3d ab 50 28 3d 27 4c be bc
       0.035297986 0.05826714 0.041092556 -0.023229672
000200 cf a9 8a 3d b0 4a 50 3d 93 7a bf bc 84 e1 74 3d
       0.0677067 0.050852478 -0.023373878 0.05978538
000210 1a 67 18 bd 2e 1b ec bc 0b e1 22 3d 16 ef ed bb
       -0.0372077 -0.028821554 0.0397654 -0.0072611673
000220 a2 30 aa bc 5b da 08 bd 7a ee c5 3b 61 ae 5c 3d
       -0.020775143 -0.033411365 0.0060403915 0.05387724
000230 c2 ae f1 3c 4d 97 db bc b1 d8 17 bd 14 ed 80 bc
       0.029502276 -0.026805544 -0.037071887 -0.015738048
000240 23 91 bd bb 8d c5 18 bd 05 47 5e bd 52 18 41 3d
       -0.005785124 -0.037297774 -0.05426695 0.047142334
000250 2f bf a4 3c 79 35 19 3c 9e 94 e0 bc 27 4e a7 bd
       0.020110695 0.009351128 -0.027414616 -0.08169203
000260 3b 3b 09 bd fe 06 42 3d b0 95 d5 bc f1 5c 48 3d
       -0.033503752 0.04736995 -0.026072353 0.04891676
000270 73 d3 c7 3b 73 4e 21 bd bd d6 96 bb 41 dc c5 3c
       0.0060982048 -0.039381456 -0.0046032355 0.024152877
000280 ea e7 96 bd a1 92 2e bc 82 39 e7 bd 39 76 70 bd
       -0.07368453 -0.010655076 -0.112902656 -0.058706496
000290 34 72 96 bd b8 83 39 bc 67 5c d1 bd fa 67 12 bd
       -0.07346001 -0.011322908 -0.102227025 -0.03574369
0002a0 60 76 c8 bd 55 3a 4e bc 84 9e 0e bd 36 38 63 b9
       -0.09788203 -0.01258715 -0.03481914 -0.00021669347
0002b0 3e 28 04 3d 84 15 88 3d 7e 22 38 3d 23 ac 58 bd
       0.03226494 0.06644729 0.04495477 -0.052898537
0002c0 6d e4 1c bc 8e 8e 95 3d 73 6d d8 3c 05 c5 c0 3c
       -0.009575945 0.07302581 0.026419377 0.023531446
0002d0 cc 0e e5 bc 33 4a 55 bd 52 14 49 bd fb c3 14 bd
       -0.027961157 -0.052072715 -0.049091645 -0.036319714
0002e0 62 da f3 3b 78 b2 56 bd 5f 95 5e bd cc 60 15 bd
       0.0074418047 -0.052416295 -0.05434167 -0.036469266
0002f0 da b9 89 bd fd 47 d8 3d a9 79 99 3d ee 6b 1a 3d
       -0.067249015 0.10560606 0.07493908 0.037700586
000300 27 85 01 bc b2 d3 b2 3c 57 7a 77 3d 9c 64 46 3d
       -0.007905281 0.02182946 0.060419407 0.048435792
000310 f3 43 02 3d 45 76 ee bc b1 cd d6 bd 89 94 73 bd
       0.031803083 -0.02910913 -0.10488451 -0.059467826
000320 be 66 6e bd ad 05 23 3b f1 63 01 bd ba ca 8b bd
       -0.05820345 0.002487521 -0.031589452 -0.068257764
000330 a2 dd 6a bd c0 d7 53 bd 42 d2 b0 bd b9 7f 24 bc
       -0.05734027 -0.051719427 -0.086338535 -0.010040217
000340 e4 b8 99 3c e0 d7 11 3d ab e0 79 3d 7f 11 e4 3c
       0.01876492 0.035606265 0.061005276 0.027840374
000350 31 1d 2f bd c1 29 8d 3d cc 54 87 3d 08 cb 2a bc
       -0.04275245 0.068927296 0.066079706 -0.010424383
000360 ad 37 28 bd f5 77 df 3c 1e 1b 56 bd 55 9b e0 bb
       -0.04106872 0.02727888 -0.052271955 -0.0068544545
000370 c0 b0 17 bc f2 89 02 3c 89 fd 33 bc 78 06 27 3d
       -0.009258449 0.007967459 -0.01098574 0.040777653
000380 b5 1d d0 3c 33 76 67 bd 23 de 9f 3c 64 83 7a bc
       0.02540479 -0.056509208 0.019515103 -0.015290115
000390 95 5f 16 bd d4 6a ad 3b 3e fd 64 bb ec e0 22 bd
       -0.036712248 0.005292276 -0.0034940983 -0.039765283
0003a0 22 86 5e bd 6b 0c cf bc 2e 90 91 bc 9a 9d 02 3c
       -0.054327138 -0.025274476 -0.017768946 0.007972145
0003b0 bb f4 66 3c 6d 29 2f bc e3 e0 dc 3c c8 ed 98 bd
       0.014096434 -0.010691029 0.026962703 -0.07467228
0003c0 9a 61 a1 bd 0f 1e c2 bc 10 1c c9 bd fd 3c 8d 3d
       -0.07879944 -0.023695974 -0.098198056 0.06896398
0003d0 c8 a9 ea 3a bc 17 07 bd 67 e6 43 3d 4f 59 d8 3b
       0.0017903382 -0.03298162 0.04782715 0.0066024433
0003e0 19 f3 a7 3c 7f 34 05 3d 89 7a fa bc fa c4 88 3c
       0.02050166 0.032520767 -0.030576007 0.016695488
0003f0 d6 a3 c8 3c 4c 5a 0b 3c 5a 3a cd 3c a1 35 c1 bc
       0.024492186 0.008505415 0.025052238 -0.023585143

cnn_backbone.8.bias f4 [64]
000000 05 65 c5 35 98 6f db 35 89 a1 f9 b6 66 c6 1b b5
       1.4707044e-06 1.634925e-06 -7.4395834e-06 -5.803071e-07
000010 fc f8 b3 36 a1 07 6a b5 9f 06 eb b5 aa e4 91 36
       5.3636013e-06 -8.7182895e-07 -1.7510791e-06 4.3479567e-06
000020 0c fc 83 35 c0 da 18 b5 fe 0f 21 35 bf 35 0e 37
       9.833616e-07 -5.6942736e-07 6.0000446e-07 8.476373e-06
000030 89 83 ca b7 2f 43 ea 36 0c b6 39 b7 a5 75 1f 36
       -2.4141527e-05 6.9815646e-06 -1.1069245e-05 2.3761324e-06
000040 90 58 8a b7 30 13 77 35 89 4c 4b 36 a5 77 80 37
       -1.6492122e-05 9.204259e-07 3.0293907e-06 1.5314503e-05
000050 d3 e5 8a 37 86 61 d3 b4 65 8e 91 35 c5 aa 85 b4
       1.6557902e-05 -3.937277e-07 1.0844784e-06 -2.4897432e-07
000060 39 e0 b7 36 b0 0c d8 b5 8c 40 e0 34 5c 8b 52 b6
       5.479928e-06 -1.6096947e-06 4.1770215e-07 -3.1373556e-06
000070 21 85 c7 34 14 9d 1a b7 33 04 ed 35 f9 6a 58 b6
       3.7163502e-07 -9.215688e-06 1.7659098e-06 -3.2248774e-06
000080 16 0a 42 37 b7 f7 ab b4 6a 81 9b 36 51 37 54 36
       1.1565649e-05 -3.2031468e-07 4.6344257e-06 3.162266e-06
000090 e3 b7 76 b5 ba 93 76 b5 51 8f 3c b6 5a 6f 61 36
       -9.190973e-07 -9.185711e-07 -2.8097604e-06 3.3592428e-06
0000a0 53 b3 0f 36 98 85 8b b7 fe f5 fb 35 ec 3d 08 b4
       2.141304e-06 -1.66323e-05 1.877255e-06 -1.2688514e-07
0000b0 c7 66 f2 36 8a af 15 b6 f9 9d 0e 36 d9 f1 72 34
       7.224127e-06 -2.2304907e-06 2.12516e-06 2.262599e-07
0000c0 7c 5e 2c b7 ee 63 3b 36 ae 18 85 b6 26 a9 d8 b4
       -1.0273998e-05 2.7923338e-06 -3.966582e-06 -4.0356207e-07
0000d0 49 b3 b0 36 53 d7 ca b5 6c 29 e6 35 17 39 7b 33
       5.2660803e-06 -1.511284e-06 1.7148391e-06 5.8492414e-08
0000e0 c0 7e a9 b6 46 f7 bd b5 46 a6 82 b7 95 82 d3 34
       -5.051348e-06 -1.4153563e-06 -1.5574635e-05 3.9396824e-07
0000f0 ce a5 72 36 39 f6 05 34 c7 3e 85 b5 58 f4 b6 36
       3.615732e-06 1.2476166e-07 -9.927543e-07 5.452468e-06

cnn_backbone.9.weight f4 [64]
000000 84 58 76 3f 06 e6 71 3f ba 71 77 3f 98 b5 63 3f
       0.96228814 0.9449161 0.9665791 0.88948965
000010 74 4f 71 3f 31 cd 7b 3f cb 88 7e 3f 4d d3 69 3f
       0.9426186 0.9835997 0.9942748 0.91338044
000020 f5 83 71 3f 25 ad 6f 3f c0 4a 77 3f 04 56 7d 3f
       0.94341975 0.9362357 0.96598434 0.98959374
000030 d0 e0 80 3f 14 96 80 3f dd e2 75 3f 2d 26 69 3f
       1.0068607 1.00458 0.9604929 0.91073877
000040 64 6a 6f 3f 23 b3 73 3f cb 91 81 3f 8e 9d 7e 3f
       0.93521714 0.95195216 1.0122617 0.9945916
000050 97 b3 83 3f d3 b1 83 3f a9 b5 65 3f d7 19 62 3f
       1.0289181 1.0288643 0.89730316 0.8832068
000060 6a e0 82 3f 9f 3d 6b 3f cf 1e 77 3f 2e 9e 77 3f
       1.0224736 0.918909 0.96531385 0.9672574
000070 0b 4d 84 3f 81 66 77 3f 79 21 73 3f 67 52 84 3f
       1.0336012 0.96640784 0.9497295 1.0337647
000080 c7 60 83 3f 43 07 64 3f 1e 18 7c 3f 5b a6 71 3f
       1.0263909 0.8907358 0.984743 0.94394463
000090 02 4b 66 3f af 89 6d 3f d7 f8 6e 3f 5b 6f 5c 3f
       0.899582 0.92788213 0.9334845 0.86107415
0000a0 38 71 81 3f 84 a7 82 3f 68 24 79 3f da 23 7c 3f
       1.0112677 1.0207372 0.97321177 0.98492205
0000b0 c6 c3 75 3f 29 d0 80 3f e2 6e 84 3f 92 35 7c 3f
       0.9600185 1.0063525 1.0346339 0.9851924
0000c0 41 fb 7c 3f 0d fb 82 3f e3 5d 80 3f ae 5c 7b 3f
       0.98820883 1.0232865 1.0028652 0.9818829
0000d0 5c aa 8a 3f 8e 5c 6e 3f 8a da 86 3f 01 f5 64 3f
       1.083324 0.9310998 1.0535443 0.89436346
0000e0 f6 ba 77 3f b2 f7 7e 3f 6b db 72 3f 13 91 71 3f
       0.96769655 0.99596703 0.94866055 0.9436199
0000f0 96 87 7c 3f ce cc 67 3f cd 02 5d 3f 4b 05 7c 3f
       0.9864439 0.9054688 0.863324 0.98445576

cnn_backbone.9.bias f4 [64]
000000 04 23 2a ba af 0a 4b bd 99 a9 21 bc 96 af be bd
       -0.0006490203 -0.049570736 -0.009867095 -0.09310834
000010 40 8b 41 bd 47 07 b3 bd 67 9d cc bd ee 43 42 bd
       -0.04725194 -0.087416224 -0.099909596 -0.047428064
000020 55 5a e7 bb c1 c5 c6 bd f2 8e 88 bd 2b 0f c1 bd
       -0.007060329 -0.09705687 -0.0666789 -0.09426721
000030 82 22 3c 3b 4f dd d5 bc 2b bd 83 bd dd 9a cc bd
       0.0028707092 -0.026106505 -0.06432565 -0.09990475
000040 84 7a e4 3c a3 90 b5 bd 86 7a f7 bd c3 92 99 bc
       0.027890451 -0.08865478 -0.12083916 -0.01874674
000050 e1 f7 85 bd e8 ce 84 bd 38 73 a5 bd 94 cc 9d bd
       -0.0654142 -0.06484777 -0.08078617 -0.07705036
000060 a1 32 3c bd 4c a0 59 ba 8f 23 ac bc 6e 8b 73 bd
       -0.04594672 -0.0008301779 -0.02101305 -0.059459142
000070 60 a8 e2 bc 40 14 c7 bd 4e 33 94 bd ae 60 0b bd
       -0.027668178 -0.09720659 -0.07236348 -0.034027748
000080 d8 22 81 bd ba 50 9f bc 1e c7 88 bd ea c4 01 3d
       -0.06305474 -0.019447673 -0.066786036 0.031681933
000090 33 12 c1 bd 22 d8 12 bd 23 d0 be bd ed 38 f1 bd
       -0.09427299 -0.03585065 -0.09317043 -0.11778436
0000a0 26 03 86 bd e6 ba 69 bd 1b 7b a4 bd d3 54 fe bd
       -0.06543569 -0.057063006 -0.08031293 -0.12418523
0000b0 68 e7 3b bd 69 17 56 3b db 65 3a bd 26 fa 82 bd
       -0.045874983 0.0032667762 -0.045507293 -0.06395368
0000c0 80 48 ec bc 33 55 72 bd 65 9c c5 bd 78 63 c0 bd
       -0.028843164 -0.059163284 -0.096489705 -0.09393972
0000d0 b4 32 72 bc ef 72 bb bd 33 fd 8f bb 10 c1 77 bd
       -0.014782596 -0.09152781 -0.0043941974 -0.060486853
0000e0 e5 b5 eb bd e3 fc 9c bd 61 cd 72 bd 1b 0e 9a bd
       -0.11509303 -0.07665422 -0.059277896 -0.07522222
0000f0 44 f1 35 bd c0 cc 79 bd a3 f3 8f bd 2a 79 d1 bc
       -0.044419542 -0.06098628 -0.07028892 -0.02557047

cnn_backbone.9.running_mean f4 [64]
000000 e1 54 58 bf d1 89 01 bf 68 9a 9e bf b6 af 38 3f
       -0.84504515 -0.50600916 -1.2390871 0.72143114
000010 ee 9d 29 40 cf 88 0c 3f de 2d b3 3f 16 5c 08 c0
       2.6502643 0.54896253 1.3998373 -2.1306205
000020 8f 9d 25 40 44 ed e3 3f 81 13 bd 3f 81 15 99 3f
       2.5877416 1.7806783 1.4771577 1.1959687
000030 67 34 5c 3d a5 8b cb 3f 21 a8 0b bf 2f 0e 53 bf
       0.053760912 1.5901991 -0.5455342 -0.8244352
000040 c9 9a 78 bf 03 d0 73 3f dc 64 80 3f 0c 98 51 3f
       -0.97111183 0.95239276 1.003078 0.8187263
000050 1a 5d 9e bf 30 9c 35 3f 26 dd 6b 3e f1 94 ec bf
       -1.2372162 0.7094145 0.2303358 -1.8482953
000060 ae 06 3b 3f 9d 0e 96 3f 26 d1 d8 bf db bb db 3f
       0.7305707 1.172321 -1.6938827 1.7166704
000070 94 be bf bf b3 02 b8 3f e2 d4 36 bf 2d 2a 7f 3f
       -1.4980035 1.4375824 -0.71418583 0.9967373
000080 8b 97 da bf d9 30 7f bf f2 75 d8 bf 20 ea b0 3f
       -1.7077497 -0.9968391 -1.6910994 1.3821449
000090 87 7a 4b 3f db dd 81 bd a2 f4 0f 40 25 09 4b 3f
       0.79483837 -0.06341144 2.2493062 0.7931083
0000a0 23 31 83 bf ee 90 c3 bf 4b 86 24 40 d5 e3 eb 3f
       -1.024937 -1.5278604 2.5706966 1.8428904
0000b0 85 a0 d1 be 08 82 a6 bf 4a 97 35 bf 06 bd da 3e
       -0.4094278 -1.3008432 -0.70933974 0.42722338
0000c0 d8 6b 88 3d d4 5c d3 3f b4 26 f4 3f 0b 16 42 40
       0.066611946 1.6512704 1.9074311 3.0325954
0000d0 31 19 c0 3f 7e 40 63 3f 46 62 c6 3f c7 a2 54 c0
       1.5007688 0.8877028 1.5498741 -3.3224351
0000e0 c5 4a a5 3f 21 43 ce 3f f7 34 5c 3f 3b 62 ec 3f
       1.2913443 1.6114236 0.8601832 1.8467478
0000f0 5d 9b 4a bf b3 ab ed 3f 9c 71 54 bd d9 ed be bf
       -0.79143316 1.8568023 -0.05186616 -1.4916335

cnn_backbone.9.running_var f4 [64]
000000 90 ab 09 40 0d df 30 40 0d 2f 24 40 88 33 da 3f
       2.1510963 2.763614 2.5653718 1.7046976
000010 28 43 9e 40 c6 aa 94 40 ef 61 28 40 90 ce 4e 40
       4.945698 4.6458464 2.6309774 3.2313576
000020 fc 3f a2 40 54 4c 33 40 60 58 f1 3f 4e 4a dc 3f
       5.0703106 2.8015337 1.8855095 1.7210176
000030 27 b8 07 3f 2e ca 89 40 9c b2 02 40 6a 20 d7 40
       0.5301537 4.30593 2.0421515 6.722707
000040 0b fe 06 40 49 20 5b 40 06 9c 80 40 a8 51 86 3f
       2.1092556 3.4238455 4.019046 1.049367
000050 e5 08 89 40 f5 a3 af 40 4b c8 0e 40 06 81 56 40
       4.2823358 5.4887643 2.230975 3.351625
000060 4e b5 77 40 9d 5e ad 40 eb ff 07 40 92 23 52 40
       3.870441 5.4177995 2.124995 3.283421
000070 37 41 65 40 55 d1 d1 3f fb 23 8b 40 e4 f2 4d 40
       3.5821054 1.6392008 4.348142 3.2179499
000080 b4 53 81 3f 1d dc b9 40 96 6d d5 40 fc 20 ad 40
       1.0103669 5.8081193 6.669627 5.4102764
000090 f2 57 e7 3f 3c d7 fc 3f d9 0a 89 40 89 6b 1d 40
       1.8073714 1.9753184 4.282574 2.4596884
0000a0 90 08 80 40 21 31 88 40 3f 90 97 40 ed e9 ec 40
       4.001045 4.255997 4.736358 7.4035554
0000b0 66 ab 86 40 6a 80 05 40 2a 4f 44 40 74 36 08 40
       4.2084227 2.0859628 3.0673318 2.1283236
0000c0 c7 1d 0b 40 b4 8a 36 40 58 8a 42 40 ff d6 ec 40
       2.1736925 2.8522158 3.0396938 7.4012446
0000d0 25 7c b4 40 0c 78 b9 3f d8 11 c0 40 3f 50 65 40
       5.6401544 1.448976 6.002178 3.5830228
0000e0 e5 1a 13 40 bc 2e 1b 40 09 51 a1 3f d2 c6 43 40
       2.2985165 2.4247274 1.2602855 3.05901
0000f0 64 cc 7d 40 5e 10 fe 3f f4 ed a8 3f d4 1b 4c 40
       3.9656 1.9848745 1.3197618 3.1891985

cnn_backbone.12.weight f4 [128, 64, 3, 3]
000000 3e c4 cc 3b bb 3a 83 3c 0d cc e1 3c 2a 4f 31 3d
       0.00624898 0.016019216 0.02756312 0.043288387
000010 55 e1 70 bc 9a a2 f8 3b 05 83 84 3c 22 12 11 3d
       -0.014702161 0.007587743 0.016175756 0.035417683
000020 9d 5a d9 3b e3 b4 21 3c 78 92 5f ba eb 9a 76 3c
       0.0066331164 0.009869787 -0.00085286004 0.015051584
000030 a4 0d d6 3c da 01 0a bc 61 cf 9a 3b 23 75 c0 bc
       0.026129551 -0.008423293 0.0047244285 -0.023493355
000040 a3 7a 03 3c 8a e2 b6 bc c3 e6 16 3b ed d2 b2 bc
       0.008024844 -0.02232482 0.0023025728 -0.021829093
000050 8f e5 dd 3c 93 9f 64 3b 7e 20 8b bc 82 45 80 3b
       0.027087001 0.0034885153 -0.016983267 0.003914536
000060 1f 84 00 bd 1f c1 34 bc 4f e3 2a 3c 61 ec 5e bd
       -0.031376 -0.011032372 0.010430171 -0.054424647
000070 49 f1 90 bc 15 0d b5 bc a5 e6 b5 bb e7 ce 52 bd
       -0.017693179 -0.022100965 -0.0055511766 -0.05146685
000080 3d 4d 92 bd bf 81 76 bc 02 c8 3f bd 36 07 5c bd
       -0.07143638 -0.015045582 -0.0468216 -0.053717814
000090 67 b8 83 bd ae 70 83 bc 4a 5e 9e bd e0 01 17 bd
       -0.06431656 -0.01604494 -0.07732828 -0.036867023
0000a0 a4 66 16 bd 43 6d 79 bd fb 8d de bc a4 1b d8 bc
       -0.03671898 -0.060895216 -0.027167311 -0.026380368
0000b0 00 7c e0 bc 2f 7c 40 3d 8a a5 5c 3d 5a d8 4b 3d
       -0.027402878 0.04699343 0.053868808 0.049766876
0000c0 93 55 df 3c ca 73 5b 3c 49 0f 15 3d a0 d5 2f 3d
       0.027262485 0.0133943055 0.03639153 0.042928338
0000d0 6e 2f 79 3d 42 a7 2f 3d 97 1e 8e 3c de b4 5a 3b
       0.060836248 0.04288412 0.01734857 0.0033371965
0000e0 d6 32 3d 3d f5 f6 3f 3d f0 92 4a 3d fd 4f 43 3c
       0.04619106 0.046866376 0.049456537 0.011920926
0000f0 7a 8d ce 3b 0c f9 a4 bb e8 8e 8c bb 5b e3 88 bc
       0.0063034864 -0.0050345715 -0.0042894967 -0.016709974
000100 28 a7 84 ba 8a b5 2d 3d e6 cb f1 bc de 64 2b bc
       -0.0010120617 0.042409457 -0.029516172 -0.01046106
000110 49 a9 a2 3c bc 38 b2 3b 3e 44 45 bc 43 32 7f bc
       0.019856112 0.005438892 -0.012040196 -0.015575948
000120 c0 22 06 3d 43 0a 25 3c 90 8b 4c 3d 97 9e 61 3d
       0.032747984 0.010073247 0.049937785 0.055082884
000130 f2 6b 2a 3d f4 b8 7a 3d 2d 83 52 3d f5 4a 9c ba
       0.04160685 0.06121154 0.05139463 -0.0011924194
000140 c8 0a 9a 3c f3 69 c8 3b 5a 7f 1e 3d 6a 70 29 bc
       0.018803969 0.0061161458 0.03869567 -0.010341743
000150 e4 25 4e 3d 3f 4f 49 3c 7b fa 3e 3d b2 92 ae 3c
       0.050329104 0.01228696 0.046625596 0.021310184
000160 4e 07 cf 3b e1 d8 88 3c 34 5a 9e 3c 31 ed 1e bb
       0.0063180095 0.016704978 0.019330122 -0.0024250264
000170 0b 11 e7 3c 8a de 93 3c 21 7c 4d 3b 36 8b d9 3c
       0.028206369 0.01805045 0.0031354504 0.026555639
000180 32 20 15 3d e8 c0 0b bb de f3 61 3d 86 f4 59 3c
       0.036407657 -0.0021324698 0.05516421 0.013302928
000190 d8 b6 dc 3c 76 7e 22 3b ff e6 0a 3d a5 53 59 bc
       0.026942655 0.0024794615 0.0339117 -0.013264571
0001a0 6a 6f 60 bb 46 13 18 3d 68 82 18 3c 9f c1 5a 3d
       -0.0034246095 0.037127756 0.009308435 0.053407308
0001b0 e8 b2 c1 bc 53 c6 39 bd 0e 35 8c 3c 60 2c 2b 3b
       -0.02364488 -0.045355152 0.017115142 0.002611898
0001c0 a5 2d 6f bc e5 2a 6d bd b7 53 d0 bc 86 2d 30 bd
       -0.014598285 -0.057902236 -0.025430543 -0.043012165
0001d0 e8 b7 90 bb f5 9a 92 3c 21 61 47 3c 43 38 b3 bc
       -0.0044164546 0.017896155 0.012169153 -0.021877414
0001e0 71 77 ec b9 39 10 37 3d 49 ea 47 bc f0 a5 c3 3c
       -0.00045102419 0.044693206 -0.012201854 0.023882836
0001f0 b3 d1 65 ba 5c 08 b4 3c 3b 50 0c bd 22 2a 02 bd
       -0.00087669044 0.021976642 -0.0342562 -0.031778462
000200 55 50 e1 bc aa ab 19 bd 07 bd 35 bd cb 82 1c bc
       -0.027504126 -0.037517227 -0.044369724 -0.009552668
000210 74 3a a0 bc 3d a2 39 bd 64 10 c7 bb 3d 0d 05 ba
       -0.019559123 -0.045320738 -0.006074952 -0.000507552
000220 bd e1 9b bc e4 76 bd bc 06 57 27 bd 33 6b 46 bc
       -0.019028539 -0.02312798 -0.040854476 -0.012110519
000230 49 6b 51 bd 0a 2b 8d bc 16 ee 1b bc 17 5b 2c bd
       -0.051127706 -0.017232437 -0.009517213 -0.042079058
000240 53 4e 74 3b 59 0c 0c 3d 5a 3c e8 3c 76 4c 5e 3d
       0.003727813 0.034191463 0.02834909 0.054272138
000250 75 e6 92 3c 3a 4f 8c 3d 94 e5 50 3d 7c f3 38 3d
       0.017932156 0.06851049 0.051000193 0.04515408
000260 af f4 2e 3d 7b 55 9f 3b 0b 47 18 3d 2d 14 b8 3c
       0.042713817 0.004862485 0.037177127 0.022470558
000270 e9 5a 01 3d 9a c8 6e 3d 8b 40 0f 3d ba 21 82 3d
       0.03158084 0.058296777 0.034973662 0.06354089
000280 a4 14 79 3d 53 71 41 3d c7 69 85 3d 39 bf 57 3d
       0.0608107 0.047227215 0.06514316 0.0526726
000290 21 a5 6c 3d b1 68 83 3c 05 cb 7f 3d 66 75 89 3d
       0.057774667 0.016041132 0.062449474 0.06711845
0002a0 be 1b 8c 3c 58 0d a0 3d 6d 1b 4c 3c c2 84 7f 3c
       0.017103072 0.07815045 0.012457711 0.015595617
0002b0 00 40 b2 3c 14 5f 43 3c 51 ba cc 3c 12 8e e9 3c
       0.021759033 0.011924524 0.024991186 0.028510127
0002c0 bf 77 aa 3b 8a 1d 33 bc c7 36 2a 3b 1f 49 e7 3c
       0.005202263 -0.010932336 0.0025972591 0.028233109
0002d0 d9 64 90 3b bf 15 67 ba 86 bb 87 bb 5a 88 01 bd
       0.004406553 -0.0008815191 -0.0041422276 -0.031624176
0002e0 bb 42 02 bd a5 a4 ad bc 5f 71 f0 bc 54 3b 90 3c
       -0.03180192 -0.021196673 -0.029350935 0.017606415
0002f0 e5 6f 80 bc ec 25 cd 3c b4 41 73 3d 30 72 47 3d
       -0.015678355 0.025042497 0.05938883 0.048692882
000300 da ac 58 3d df 09 3e 3d ae fa 3a 3d 47 ca 48 3d
       0.05289922 0.046396133 0.045649223 0.04902103
000310 0f 6a a2 3d 0e 71 47 3d 46 c7 19 3d f6 7f c2 3c
       0.07930385 0.0486918 0.037543558 0.023742657
000320 1b bf 02 3d f4 80 13 3d f4 aa ae 3c 7c a9 82 3c
       0.031920534 0.03601165 0.021321751 0.015949957
000330 60 22 8b 3d 75 65 57 3d 75 25 9f 3d 68 eb d9 3c
       0.06793666 0.05258699 0.07770816 0.026601508
000340 90 51 3b 3d b5 86 2b bb 82 32 c1 3c 03 a4 70 3c
       0.04573208 -0.002617282 0.023583654 0.014687541
000350 73 2d 3a 3c 42 8f 54 bc 1c 79 04 bd 0e f8 40 3b
       0.011363375 -0.012973608 -0.03234206 0.0029444727
000360 b7 02 95 3d 65 d3 25 3d c6 6a 47 3d d8 8e 70 3d
       0.072759084 0.040484805 0.04868581 0.058729976
000370 7d e4 61 3d 8e e0 ba 3d 61 5e 92 3d 60 1f a7 3d
       0.055149544 0.09124862 0.071469076 0.08160281
000380 84 99 cc 3d 07 93 93 3a 4e 01 09 bb a1 41 0c 3d
       0.09990218 0.0011259028 -0.0020905319 0.034242276
000390 1b d8 96 b9 53 41 08 3c 85 d6 ab ba 8a ed cc 3c
       -0.0002877124 0.008316356 -0.0013110196 0.025015611
0003a0 2a 88 88 3c 3f d9 44 3c c0 9b 09 bc e6 ef d0 bc
       0.01666649 0.012014686 -0.00839895 -0.025505017
0003b0 ef 44 14 bc fa e1 6d bd 38 13 6e bd 0d d8 a1 bc
       -0.009049638 -0.058076836 -0.058123797 -0.019756341
0003c0 cc 9f aa bc 96 84 5d bd 37 9a 88 bc 0b 0d a5 3c
       -0.02082815 -0.054081522 -0.016675098 0.020147821
0003d0 3b 87 08 3d 83 22 08 bc 08 01 ae 3b f5 29 07 3d
       0.03333209 -0.0083090095 0.0053101815 0.032998998
0003e0 c2 4b cc 3c 2a 0a f9 3c 56 8d c6 3c 50 c1 78 3d
       0.024938468 0.030400354 0.024237316 0.060731232
0003f0 1d 1b b3 3c 4a 1f f4 bc d7 63 49 3c b4 17 3b bc
       0.021863515 -0.029800076 0.01229187 -0.0114192255

cnn_backbone.12.bias f4 [128]
000000 01 cf 88 b3 46 cb 3d b5 82 66 0d 36 0a 8c e2 36
       -6.370647e-08 -7.070379e-07 2.1070305e-06 6.7516276e-06
000010 5e b3 de 34 ec c2 16 b4 0c d6 57 b2 93 5e 5a b6
       4.148123e-07 -1.4040751e-07 -1.2563316e-08 -3.253958e-06
000020 10 5e e1 33 ca 00 44 33 25 38 a4 b5 98 83 90 b5
       1.0494489e-07 4.5635524e-08 -1.2235292e-06 -1.0767135e-06
000030 e8 d0 e1 35 26 be ab b4 bb 55 2d b4 fc 73 f1 b4
       1.6824606e-06 -3.1989583e-07 -1.6143069e-07 -4.4974138e-07
000040 45 b2 9f 35 4d 1c df 34 ec a9 08 35 85 3b b3 b6
       1.1898306e-06 4.1557578e-07 5.0911217e-07 -5.3415447e-06
000050 b3 a3 28 36 27 d6 0b b5 c4 56 1a b5 42 da b0 b6
       2.5129236e-06 -5.209317e-07 -5.749573e-07 -5.2706173e-06
000060 0e 09 5c 35 de f7 09 35 be 27 60 34 3c 24 72 35
       8.1969563e-07 5.139717e-07 2.0876084e-07 9.0204753e-07
000070 37 e4 26 36 3e 79 0f b4 3a 8b 88 36 9c fa ef 34
       2.4868766e-06 -1.336202e-07 4.069324e-06 4.469956e-07
000080 fd 68 9a b4 5d 3a 5d 35 af a9 31 b6 c6 7c 05 b6
       -2.8761124e-07 8.2413845e-07 -2.6473824e-06 -1.9891172e-06
000090 6b f1 93 35 5a fe 39 b6 a2 c4 04 34 ad 9c c9 33
       1.1022615e-06 -2.77152e-06 1.2364993e-07 9.388291e-08
0000a0 47 6d 63 34 06 14 5d b6 48 66 0c b6 64 cd 10 36
       2.1180777e-07 -3.2943221e-06 -2.0921161e-06 2.1577225e-06
0000b0 97 1e 04 34 a9 4d 1e 35 97 84 34 b5 14 a3 f6 b4
       1.2304587e-07 5.8972597e-07 -6.724817e-07 -4.5939726e-07
0000c0 c0 ad 28 b6 4e e1 d2 b4 37 70 77 35 28 fe 55 b5
       -2.5135087e-06 -3.927948e-07 9.2177964e-07 -7.971853e-07
0000d0 37 f8 36 34 df 55 e8 b6 96 9a bd 35 e5 4b d6 b5
       1.7040371e-07 -6.9241355e-06 1.4126588e-06 -1.5966331e-06
0000e0 3e e2 a4 35 2b ce 85 b4 19 13 39 b5 76 3d ea b3
       1.2284797e-06 -2.4923187e-07 -6.894566e-07 -1.0907654e-07
0000f0 fe 4d e2 36 41 38 fb b4 db 89 db 35 3a 5e 5c 36
       6.7444043e-06 -4.6793323e-07 1.6356893e-06 3.2837402e-06
000100 88 9b 35 b6 8c d5 7e 35 16 a4 79 34 d9 bb 3f b6
       -2.7061633e-06 9.4933125e-07 2.3249626e-07 -2.857056e-06
000110 62 90 3d b5 c4 39 02 34 4b 18 1c b5 bd 7e 1f 35
       -7.061809e-07 1.2128208e-07 -5.814988e-07 5.9416544e-07
000120 d7 c0 e3 b2 f5 01 4d b6 3a d2 f0 b5 2e 2c 48 b7
       -2.6513971e-08 -3.054852e-06 -1.7942577e-06 -1.1931215e-05
000130 50 e2 43 b3 be ee 3a 34 1b a2 32 35 e8 de 98 36
       -4.5607806e-08 1.7409454e-07 6.654606e-07 4.5559027e-06
000140 96 c1 9a 34 e8 cc 10 35 60 a4 94 b7 af b1 11 35
       2.8825588e-07 5.394236e-07 -1.7719518e-05 5.4275273e-07
000150 5a 90 93 36 15 b4 98 35 de 6b 2c 35 03 74 54 35
       4.397746e-06 1.1377293e-06 6.423196e-07 7.9144974e-07
000160 98 fd e1 b3 17 cc c2 35 63 c0 f0 35 5e 7a c9 b5
       -1.05235074e-07 1.4513524e-06 1.7937385e-06 -1.501128e-06
000170 89 7c 1b 35 d1 a1 d4 34 65 09 f7 34 47 0e 86 b6
       5.792322e-07 3.9605814e-07 4.601417e-07 -3.9951733e-06
000180 31 f3 14 36 14 6f 25 35 99 95 79 37 6d cd 0f b5
       2.2195275e-06 6.162893e-07 1.48763875e-05 -5.3570585e-07
000190 f9 ee c5 33 fe 74 09 b4 10 49 c8 b5 b1 77 86 32
       9.216996e-08 -1.2801681e-07 -1.4922425e-06 1.5654082e-08
0001a0 a7 58 68 b4 7e d8 ae b5 14 1b ce 34 0f 83 2b b5
       -2.1638935e-07 -1.3027018e-06 3.8390192e-07 -6.389318e-07
0001b0 94 d0 6b b6 3b 71 3d 34 cf 06 94 34 23 f7 20 b6
       -3.5139137e-06 1.764319e-07 2.7572102e-07 -2.398571e-06
0001c0 91 20 ae 35 a1 2f c9 b5 e3 18 26 36 bd b4 33 32
       1.2973488e-06 -1.4989529e-06 2.4750414e-06 1.0460266e-08
0001d0 a1 a7 3c 35 e9 93 10 35 85 a7 07 34 dc 93 9e 34
       7.027939e-07 5.385942e-07 1.2633798e-07 2.9537375e-07
0001e0 60 ea d0 34 2e 27 1c 35 7b 80 f2 b3 e1 fa e9 b5
       3.891355e-07 5.817154e-07 -1.12923736e-07 -1.7432868e-06
0001f0 65 f0 7a 35 f8 e9 73 35 9c bc bf 34 9d 21 f1 33
       9.348208e-07 9.0865024e-07 3.5713754e-07 1.1228551e-07
