models/wavenet/all_lang_aware/best_model.pth (torch, 469026 bytes, 142 tensors)

base_feature_extractor.0.0.weight f4 [64, 1, 3]
000000 74 5b 90 bd 09 b3 c8 3e a3 20 f1 bd e1 49 72 3e
       -0.07048693 0.39199093 -0.11773803 0.23660995
000010 5e d3 1b be c9 9c a3 bd 26 52 9e 3e 7f be 23 be
       -0.15217349 -0.07988889 0.3092205 -0.15990637
000020 41 c0 b0 be 95 fa 63 3f d9 8a 95 3e 11 39 ae 3d
       -0.34521678 0.8905423 0.29207495 0.08506978
000030 8f 5a d1 3e a8 84 2a be 09 27 fc be 16 15 24 be
       0.40889403 -0.16652167 -0.4924853 -0.16023669
000040 c7 7a 2e be cf 5c a6 3e ba b1 54 bc 18 08 2d 3e
       -0.17039023 0.32492682 -0.012981826 0.16897619
000050 b0 97 82 3f e7 30 22 3d 09 b9 6e 3e a0 fa 82 bd
       1.0202541 0.03959742 0.23312773 -0.06395459
000060 68 d7 06 3e 0f af ec be a9 25 fa 3e 5f 32 97 3e
       0.13168108 -0.4622731 0.48856857 0.29530618
000070 6a cd cd bd be d5 d9 be 1b d1 7f 3e 52 eb 32 bc
       -0.10048945 -0.42545885 0.24982111 -0.010920363
000080 38 97 d7 be 48 0b a0 be 48 e0 1b be aa 78 8d 3e
       -0.42107558 -0.31258607 -0.15222275 0.27631122
000090 76 bf 59 be 50 09 f9 3e fa 6e 0f be c4 df 5b 3e
       -0.21264443 0.48639917 -0.14007178 0.21472079
0000a0 23 41 1b bd be b0 e3 3c 0a 2f 07 3e 0d 5b 6c bd
       -0.037903916 0.027794238 0.13201538 -0.05770402
0000b0 92 e0 5b 3e a4 81 df bc 4d 1a 37 be fe bd 30 bd
       0.21472386 -0.027283497 -0.17881127 -0.04314994
0000c0 f8 7f b9 be 8a ad 81 3e a6 20 db 3d e3 be 8b 3e
       -0.36230445 0.25327712 0.106995866 0.27294073
0000d0 d1 10 7b be 59 1f bf bc fb 3f 5b be ad 1a b3 bd
       -0.24518134 -0.023330377 -0.21411125 -0.087453224
0000e0 a4 a7 a4 3e 10 56 c4 3b 8c bb c4 be 57 c0 e3 3d
       0.3215915 0.0059917048 -0.38424337 0.1112067
0000f0 70 88 c1 be 0d 25 82 be e8 a7 bc 3e f6 1e 8f be
       -0.37799406 -0.25418893 0.36846852 -0.2795331
000100 0a a7 8a 3e cf 9d 91 be 91 f1 9e 3e 2a 01 30 bd
       0.27080566 -0.2844071 0.31043676 -0.04296986
000110 1e c3 ef be 49 20 ef be 38 1b 93 3e f2 32 de 3d
       -0.4682855 -0.4670432 0.28731704 0.10849561
000120 52 30 b3 3d 69 fe 9e be c6 a7 dd be a7 3f b9 3d
       0.08749451 -0.31053475 -0.43292063 0.09045344
000130 97 96 e4 3e db 01 c9 bd 2a 63 5f 3d 31 ee 16 3e
       0.4464614 -0.09814807 0.05453793 0.147393
000140 8c a0 29 3e 1f b0 94 3e b9 3f f1 bb d1 a2 07 bf
       0.1656515 0.2904062 -0.0073623327 -0.52982813
000150 47 9c 32 3e 66 08 8f 3c 9e 6f 36 3e bd de 0a 3f
       0.17442428 0.01746006 0.17816016 0.5424612
000160 1d f8 cd be 9d 84 d6 be 78 1f ce be 78 9e 14 bd
       -0.40228358 -0.4189805 -0.40258384 -0.03628394
000170 60 ba 6d 3e 6f c6 8e be 58 57 a0 be fa 2c c1 3e
       0.23215628 -0.27885768 -0.31316638 0.37729627
000180 db ee 11 3e 58 91 6d 3e c5 6d a7 be 21 93 2f 3d
       0.14251272 0.23199975 -0.32700935 0.042864922
000190 a3 2a 49 3e 96 cc 25 3e 98 fe d2 bc 24 bb 6c 3e
       0.19645171 0.16191325 -0.025756165 0.23118263
0001a0 2a 17 15 bd f4 87 30 be 77 bd d8 3d e0 a3 37 be
       -0.036399044 -0.17239362 0.105830126 -0.17933607
0001b0 9f ea 7a be 59 30 be be 98 7d c0 3e da e3 31 bf
       -0.24503563 -0.3714626 0.3759582 -0.694883
0001c0 f2 6b 22 be 75 99 89 3e fe 58 8b 3e c5 3a 47 be
       -0.1586149 0.2687489 0.27216333 -0.19456013
0001d0 48 e4 85 3e ff dc 74 3d 29 43 66 3e 2b 67 5e be
       0.26150727 0.05978107 0.22486557 -0.21719043
0001e0 5d 54 88 3e d2 c4 a7 be 09 f9 82 3d 3e 3d 40 be
       0.26626864 -0.3276735 0.06395156 -0.18773362
0001f0 bb a3 10 be 48 b2 3a be 59 43 2f bf 58 b2 e4 3d
       -0.14124958 -0.18232071 -0.6846214 0.11166829
000200 e6 0b 78 3e 6d 25 71 3e 2f 88 3f 3e 5b 85 22 bf
       0.24223289 0.23549433 0.18704294 -0.63484734
000210 7a bc 79 3e 81 01 28 3e 64 53 5d be 28 8e 20 3d
       0.24388304 0.16406824 -0.21613842 0.03919807
000220 71 44 91 be 9b 52 17 3c 1f d4 50 3e 07 37 2d be
       -0.2837253 0.009236003 0.20393418 -0.16915523
000230 38 d0 45 bf 93 1e 42 3e be 2f e4 be 38 9d 39 3e
       -0.7727084 0.18956976 -0.44567674 0.1812638
000240 5a fa 36 3e e7 b0 58 3e 17 b1 82 3d fe c2 b0 be
       0.17868939 0.21161233 0.063814335 -0.34523767
000250 3c ee 7a be 0c 88 e8 3e a8 80 8c 3e ef 85 aa 3d
       -0.24504942 0.45416296 0.27441907 0.08326327
000260 c0 81 12 bf 4e ae 49 3f c7 63 b7 3e 60 4a fe 3c
       -0.5722923 0.7878159 0.35818312 0.031041324
000270 19 8e 8e bc 56 a4 48 be 7d a6 98 3e 40 c1 f5 bb
       -0.017401742 -0.19593939 0.2981452 -0.007499844
000280 9a 86 58 3e b9 af 72 be 45 7d 75 bc 45 9e 5d be
       0.21145096 -0.23699845 -0.01498348 -0.21642406
000290 ca 84 08 bd 52 40 e5 be 84 5b 0f be d8 25 d7 3e
       -0.033329763 -0.44775635 -0.13999754 0.4202106
0002a0 77 42 bc be fa b2 3d 3e 6c 3a 5e 3e 28 59 90 be
       -0.3676946 0.18525305 0.21701974 -0.2819302
0002b0 25 2e 95 3e 92 f9 c6 3d 9b e1 65 3e b3 ab e0 bc
       0.29136768 0.097155705 0.22449343 -0.027425623
0002c0 18 6e 60 3f 38 21 bb 3e fc 6e db be d2 3e bb 3d
       0.8766799 0.3654878 -0.42858112 0.091428414
0002d0 59 53 06 be e1 7b b8 3e f3 c6 c1 3d 12 eb 3f ba
       -0.13117732 0.36032012 0.09461775 -0.00073211
0002e0 65 6c d3 3e e7 9f 0a bf ef 7f 33 3d f2 03 8b 3e
       0.41293636 -0.5415024 0.04382318 0.27151448
0002f0 08 e3 2a bf 26 0c 88 3e 67 f5 37 be 67 97 89 3e
       -0.6675267 0.2657177 -0.17964707 0.26873323

base_feature_extractor.0.0.bias f4 [64]
000000 11 4a be b9 21 6a 9b 39 f1 1d 03 3b 56 3e 30 b9
       -0.00036294808 0.00029642976 0.002000686 -0.0001680789
000010 2f fe 2a bc 2e ad 46 3b 61 17 9c b8 51 f5 9c 3a
       -0.010436579 0.0030315625 -7.443014e-05 0.0011974965
000020 a0 a2 00 3b b9 20 41 3c 4c 35 d7 bb 38 4c f6 3b
       0.0019628182 0.011787587 -0.006567633 0.00751641
000030 53 d4 e5 ba 9b 2f 97 bb cb 1d 1d 3b e5 4b f0 ba
       -0.0017534591 -0.0046138293 0.0023974057 -0.0018333165
000040 9a 79 c4 3b 8e ac 8c bb eb 37 27 3a dc d7 01 3a
       0.0059959413 -0.004293031 0.0006378877 0.0004953125
000050 01 4a a1 3b fc c4 1d bb 2e cb 57 bc 4f 08 48 3c
       0.004922152 -0.002407371 -0.013171 0.012209012
000060 87 e0 2b bb 85 4c eb b8 4a 28 0f 3c 55 c0 8b bb
       -0.0026226358 -0.00011219926 0.008737633 -0.004264871
000070 74 d8 cb bb 65 63 c8 3b 96 24 a2 bb 6d 85 13 bc
       -0.0062208716 0.0061153644 -0.004948209 -0.009003979
000080 92 16 e5 b8 84 aa 82 3a 11 0b c7 ba a6 81 14 bb
       -0.00010923775 0.000996903 -0.0015185793 -0.0022660284
000090 b2 77 d4 3b 81 39 07 bc e1 c3 14 3c 78 1f 58 3b
       0.0064839954 -0.008253456 0.009079904 0.0032977741
0000a0 60 e5 22 3b 08 9e ad 39 7f 76 a0 bb 98 3d 59 bc
       0.0024855956 0.00033114874 -0.0048969383 -0.013259314
0000b0 7c b0 05 b9 9b 0a 9a 3a 0f c2 5d ba 55 ee 4d ba
       -0.00012749614 0.0011752428 -0.0008459398 -0.00078556436
0000c0 9c 63 1e 3c c1 66 b6 bb 3b 43 e2 3b df ba d9 b9
       0.009667303 -0.0055664484 0.006904987 -0.00041528695
0000d0 f2 be 84 3b 8b 09 aa 3b 87 1d 71 3a 24 6b c4 bb
       0.004051083 0.005189126 0.00091978203 -0.0059942175
0000e0 84 52 17 39 d5 c7 02 bc 08 96 3d 38 88 5b 7c bc
       0.00014431222 -0.007982214 4.520084e-05 -0.015402682
0000f0 6b aa 08 3c 10 08 e9 bb 74 95 60 3a 06 7b 96 3b
       0.008341412 -0.007111557 0.0008567192 0.0045923023

base_feature_extractor.0.1.weight f4 [64]
000000 1c 53 3d 3f 6a 4a 4b 3f ff d1 52 3f c6 9c 71 3f
       0.7395494 0.7941042 0.8235168 0.9437984
000010 ab 55 81 3f cf aa 10 3f ed 3c 6e 3f 46 39 55 3f
       1.0104269 0.56510633 0.93061715 0.8329052
000020 2e 12 5e 3f 87 b5 8d 3f 4f 41 6d 3f 8d 31 46 3f
       0.8674649 1.1071023 0.9267778 0.7741936
000030 45 42 47 3f 76 bc 5e 3f 8c 3b 55 3f 03 a7 83 3f
       0.77835494 0.8700632 0.83293986 1.0285343
000040 e0 d8 80 3f b1 42 6c 3f 7a b7 2b 3f 98 4f 61 3f
       1.0066185 0.92289263 0.6707684 0.88012075
000050 4d d0 88 3f ba f3 8f 3f 14 c7 90 3f a2 72 8a 3f
       1.0688568 1.1246254 1.1310754 1.0816233
000060 20 ea 62 3f cd 98 54 3f f8 a7 42 3f df 67 89 3f
       0.88638496 0.83045655 0.7603755 1.0734824
000070 ec f6 78 3f 44 31 82 3f ce e7 56 3f 78 97 8a 3f
       0.9725177 1.0171285 0.83947456 1.0827475
000080 e7 96 2b 3e d9 d6 4e 3f 9e b7 35 3f 43 4c 85 3f
       0.16756783 0.8079658 0.709833 1.0413898
000090 8c 34 92 3f 0f a2 64 3f 34 09 77 3f 5d 4c 4a 3f
       1.1422286 0.8930978 0.9649842 0.7902277
0000a0 11 f5 7b 3f 52 4a 72 3f 55 a6 85 3f 37 d7 92 3f
       0.98420817 0.94644654 1.0441386 1.1471928
0000b0 40 49 50 3f ea 94 44 3f 59 e6 65 3f 2b f4 9a 3f
       0.8136177 0.76789725 0.8980461 1.2105764
0000c0 f5 de 5c 3f 5c 95 84 3f 42 f9 74 3f 4d bf 75 3f
       0.86277705 1.0358081 0.9569284 0.95995027
0000d0 0a 76 1c 3f 40 5f 79 3f 31 75 58 3f fc c2 4a 3f
       0.61117613 0.97410965 0.8455382 0.7920377
0000e0 b0 1e 8a 3f 07 83 65 3f 39 79 7c 3f b6 73 72 3f
       1.0790615 0.89653057 0.9862247 0.9470781
0000f0 f0 07 5f 3f 2d bd 90 3f aa 02 68 3f 04 07 7b 3f
       0.87121487 1.1307732 0.90629065 0.9805758

base_feature_extractor.0.1.bias f4 [64]
000000 1d 26 36 bf 87 cf 36 bf b4 91 eb 3d 9d f3 e5 be
       -0.71151906 -0.7141041 0.115024 -0.44912425
000010 a6 68 a9 3d 82 11 4b 3e a3 86 eb be a7 fd b4 3e
       0.08271913 0.19830897 -0.46001157 0.3534977
000020 96 a6 24 3f f6 48 a3 3d 3f cd c9 3d 13 09 0d 3e
       0.6431669 0.079729006 0.09853601 0.13772993
000030 b2 37 18 3f ff 9a f3 3e 97 44 41 3e c5 4f 4d bf
       0.59459984 0.4757919 0.18873821 -0.80199844
000040 37 77 24 bd 2a 8c ae 3e 1a ac fb 3e 74 d7 71 bf
       -0.040152755 0.34091312 0.4915474 -0.9446938
000050 15 72 a3 3d 0f 2b 25 be 4e 5d 9a 3d c8 bf 1c 3d
       0.07980744 -0.16129707 0.07537328 0.038268834
000060 70 a8 d4 3e cb a7 3a bf d9 3d 4d 3e 63 c3 a1 3d
       0.41534758 -0.7291228 0.20043124 0.07898595
000070 ff 27 32 3e 6b 0a ae 3d 1a e2 d5 3d 22 da 92 3d
       0.1739807 0.08498081 0.10443516 0.07170512
000080 71 d8 43 3e 97 9e 66 3e 5c 55 01 3f 05 d4 19 bf
       0.19125535 0.22521435 0.50520873 -0.6008914
000090 b2 03 b6 3d d8 94 d2 3e ae ee 01 3e e8 41 17 3f
       0.088874236 0.41129184 0.12688705 0.5908494
0000a0 50 50 9f 3e 52 3d 6d be ef 2d bb 3d 04 bb 96 3d
       0.3111596 -0.23167923 0.091396205 0.07359889
0000b0 49 5d 4c bf cc c8 52 3e 73 ce ce 3e 7b ee 22 3e
       -0.7982984 0.2058441 0.40391883 0.15911286
0000c0 39 df 39 3e 28 25 6d 3d f0 24 9b 3d 9d 18 ef be
       0.18151559 0.057896763 0.07575405 -0.46698466
0000d0 31 bf f8 3e 29 6b e0 3e 63 ba 3c 3e 29 39 08 3f
       0.48583367 0.43831757 0.18430476 0.5321222
0000e0 99 ba 81 bd 1b 94 32 3f ca 39 f3 be f7 a1 d9 3e
       -0.06334419 0.6975724 -0.47505027 0.42506382
0000f0 6d d7 9d 3e b4 f3 35 3e 21 bd 07 3f 82 cc 0a 3e
       0.3082842 0.17768747 0.5302296 0.13554576

base_feature_extractor.0.1.running_mean f4 [64]
000000 86 5e 73 b9 b4 56 90 3a 08 37 08 39 9b 9a f5 b9
       -0.00023209499 0.0011012168 0.00012990471 -0.00046845232
000010 14 bc ab bb 68 3b 58 3b 79 a0 bb b9 a1 6b 66 3b
       -0.0052409265 0.0032994393 -0.0003578698 0.0035159367
000020 03 cc c1 bb 3e 77 36 3c c0 a6 74 bb 87 98 a4 3b
       -0.0059142127 0.011136828 -0.0037330836 0.0050230655
000030 17 02 15 3b 05 a6 d2 bb bb 25 83 39 09 89 8e b9
       0.0022736841 -0.0064284825 0.00025014378 -0.0002718645
000040 b8 a3 f6 3b 50 5d 90 bb 6b 45 a8 b9 15 7c c7 39
       0.007526841 -0.004405655 -0.00032095177 0.00038048686
000050 9f f4 a2 3b b6 82 64 bb 93 79 e2 bb ed c5 19 3c
       0.0049730088 -0.003486795 -0.0069114654 0.009385568
000060 85 d0 26 bb e4 5c 00 37 81 8d 1e 3c 21 22 a0 bb
       -0.0025453877 7.651022e-06 0.009677292 -0.004886881
000070 a6 1d 0e bc d1 cb dd 3b 45 85 03 bc b9 88 23 bc
       -0.008674061 0.0067686816 -0.008027379 -0.009981328
000080 6c 1a e5 39 5d ab 5d 3b 88 8f 59 bb 4f 5f a9 ba
       0.0004369797 0.0033824064 -0.0033197124 -0.0012922081
000090 15 d9 0c bb 27 42 4f bb 07 70 5d 3c 98 ce 90 3a
       -0.0021491696 -0.0031625123 0.013515479 0.0011047898
0000a0 5f 70 e5 bb 78 3a 62 3a dc 33 6b bb 5a 4e de bb
       -0.007001921 0.00086299283 -0.0035889065 -0.0067842426
0000b0 86 b7 60 b9 4b 26 e4 39 6d 13 2d bb 9e ed da 37
       -0.00021430672 0.0004351608 -0.0026409284 2.6098274e-05
0000c0 5b ec 2a 3c cc 55 f0 bb f9 f1 5b 3b 68 77 ed b9
       0.010432328 -0.0073344465 0.0033560975 -0.00045293127
0000d0 f2 96 96 3b e7 a5 05 3b 28 01 a0 ba 65 58 5b bb
       0.004595631 0.0020393075 -0.0012207376 -0.0033469435
0000e0 78 4f 9d b9 ee 85 2f b6 31 70 9d b9 2a 0f 91 bc
       -0.00030004582 -2.615499e-06 -0.00030028963 -0.017707426
0000f0 6f ba 2d 3b 37 43 f1 bb c2 b5 0a 3a 18 e0 2b 3c
       0.0026508828 -0.007362749 0.0005291366 0.01049044

base_feature_extractor.0.1.running_var f4 [64]
000000 91 de eb 38 43 f2 d0 37 53 4d 3a 39 a2 45 7a 3b
       0.000112471294 2.4908344e-05 0.00017767148 0.0038188477
000010 01 90 a5 39 af c5 56 38 fa b5 5b 3b ab 1b e9 38
       0.00031578544 5.1205683e-05 0.0033525215 0.00011115459
000020 1e 1a ba 38 57 47 71 39 2e 41 2c 39 34 ef 1f 39
       8.874036e-05 0.00023010127 0.0001642748 0.00015252532
000030 03 d8 8c 38 b9 1f d7 38 e0 e6 45 39 7c 8c 19 39
       6.7159555e-05 0.00010257908 0.00018873392 0.00014643552
000040 4b ea 55 38 97 0d ba 37 37 39 81 38 55 9f 41 39
       5.100136e-05 2.2179256e-05 6.1618564e-05 0.0001846527
000050 c0 d6 94 39 25 83 44 39 1d 77 64 39 15 0d ab 38
       0.0002838876 0.00018740872 0.00021788148 8.156352e-05
000060 4e 67 8b 3a be f4 f8 39 0c 78 a4 39 0c 93 90 39
       0.0010635646 0.00047484593 0.0003136996 0.0002757538
000070 85 9d a2 39 98 ec cd 39 79 bc 38 39 0f 23 5b 39
       0.0003101641 0.00039276923 0.00017617819 0.00020898528
000080 fe 88 78 38 c1 40 c5 39 2f 5b 9d 38 26 6f 08 39
       5.925539e-05 0.00037623013 7.503328e-05 0.00013011377
000090 42 5c 72 39 bb 39 7f 3a cc 12 88 39 13 66 12 38
       0.00023113287 0.00097360805 0.00025953946 3.4904177e-05
0000a0 54 d0 7a 37 ee 23 1b 3a 75 be da 39 d7 8e 85 39
       1.4949666e-05 0.00059181347 0.00041722102 0.0002547416
0000b0 dd 76 09 39 b7 d9 16 39 3b fa bc 3a 5b 6a f8 37
       0.00013109618 0.0001438622 0.0014417836 2.961343e-05
0000c0 f4 78 fa 39 63 52 40 39 8c 85 82 39 8b 86 58 3b
       0.00047773833 0.00018341238 0.00024895032 0.0033039178
0000d0 a8 d3 24 38 a2 cb 72 37 78 49 34 39 94 44 63 39
       3.9297767e-05 1.4471736e-05 0.00017193507 0.00021673954
0000e0 09 92 a7 38 62 c1 90 38 95 72 2f 3b 4a ec df 37
       7.990382e-05 6.9024754e-05 0.0026771177 2.6693702e-05
0000f0 4a 22 8d 39 31 9d cb 38 15 13 c2 39 37 45 95 39
       0.00026919163 9.7090735e-05 0.0003701678 0.00028471064

base_feature_extractor.1.0.weight f4 [64, 64, 3]
000000 ab df d8 bb 45 ca b2 bd c2 11 97 bd 5c d3 17 3e
       -0.00661846 -0.08729986 -0.07376434 0.14826721
000010 2d ee 59 3d 69 a8 8f bd ff 3f 16 3d 21 46 95 bd
       0.053205658 -0.070145436 0.036682125 -0.07288767
000020 a4 fb ca bd 06 df 66 be 71 6a a0 be 81 9f bf be
       -0.09911278 -0.22546014 -0.31331208 -0.3742638
000030 2a 90 76 bc 86 8e 2a be ac 66 75 be 84 7a ad bd
       -0.01504902 -0.16655931 -0.23964947 -0.084706336
000040 f7 7a 0b 3c 17 a6 d1 3d dc 2e a1 be 01 a6 c8 be
       0.008513204 0.10236757 -0.31481063 -0.3918915
000050 a0 62 97 be ab 48 9e 3d d3 e4 a0 3d b2 08 68 3d
       -0.29567432 0.07728704 0.07856145 0.056648917
000060 56 96 3b 3d 00 11 d4 3c f3 5b 0a 3e 7a 77 35 be
       0.04579767 0.025887012 0.13511638 -0.17721358
000070 22 94 63 be 0d 35 a6 be 56 77 24 3d 48 88 1f bd
       -0.22224477 -0.3246235 0.04015287 -0.038948327
000080 72 ba 44 be 71 8c 56 be 22 96 0c be 0c 48 be 3d
       -0.19211748 -0.20952012 -0.13729146 0.092910856
000090 b4 c2 71 bc f8 f3 2a 3e ba 13 3a 3d 13 44 cb 3d
       -0.0147558935 0.16694629 0.04542897 0.099250935
0000a0 f3 2f dc 3c 34 f1 ea 3b 5a db aa 3d fb cd d0 3c
       0.026878333 0.007169867 0.08342619 0.025488844
0000b0 27 23 c7 3d 60 7d 81 3e cf 60 a6 3e a5 c5 bd 3e
       0.09723502 0.25290966 0.32495734 0.37064853
0000c0 25 f4 84 be 8e 6c bd bd c1 e9 5f bd e8 80 14 3e
       -0.25967517 -0.09249221 -0.054666284 0.14502299
0000d0 d4 9e 54 bd e0 51 3e 3c 08 2b b1 3c 65 31 8b 3d
       -0.051909283 0.0116162 0.021626964 0.06796531
0000e0 e5 74 20 3e 72 06 35 3c f2 81 ff 3d 4f 38 19 3e
       0.15669592 0.0110489 0.12475957 0.14962886
0000f0 36 4e b4 be 11 35 28 be 78 75 7c bc e3 ea b1 3e
       -0.3521592 -0.16426493 -0.015408866 0.34749517
000100 8f f0 dc 3e 6a f4 e3 3e 7e c5 e5 bd ff 40 46 be
       0.43152282 0.4452241 -0.11219309 -0.19360732
000110 db 32 af be 96 39 97 be 86 46 d3 bd d4 2d b4 bd
       -0.34218487 -0.29536122 -0.10316186 -0.087978035
000120 f5 f9 ca bd 37 a7 8d bd 01 f8 a9 bd f4 62 ca bd
       -0.09910957 -0.06916659 -0.08299256 -0.09882155
000130 86 97 20 be c4 98 29 be a3 1d 5f 3d cb f6 5d 3d
       -0.15682802 -0.16562182 0.054471623 0.05419044
000140 56 d2 a7 3d 71 a8 1c be 98 f8 5e be 19 c1 96 be
       0.08194415 -0.1529863 -0.21774518 -0.29444197
000150 fe 1c ef 3d df b3 db 3d 99 98 09 3e 5d da be 3c
       0.11675452 0.10727667 0.13437118 0.023297483
000160 f6 15 4c be 75 b2 69 be 9e 1f b5 be ac 6f 00 be
       -0.19930252 -0.22821982 -0.35375684 -0.125426
000170 a9 a8 85 3c 2e 45 b7 be 4c d7 58 be 71 55 01 3d
       0.016315775 -0.35794967 -0.21175879 0.031575624
000180 9b 54 36 3d 20 e2 5c 3d b3 74 f5 bc 17 0e a6 3c
       0.04451428 0.053926587 -0.029962873 0.02027039
000190 d8 7d bb 3d 48 c4 ba 3d d1 29 d9 3c 27 d3 7a 3d
       0.09154862 0.09119469 0.026509197 0.061236527
0001a0 5b 3f 09 bc 89 a9 98 3e 9b 60 c3 3e f4 00 c1 3e
       -0.0083769215 0.29816845 0.38159642 0.3769604
0001b0 37 bc b5 be a3 76 8c be 71 6d ed bc 6c 2f 3d be
       -0.3549516 -0.27434263 -0.02898285 -0.18475121
0001c0 e1 bf b8 bc 27 59 40 bc 4b ab 44 3e af 68 1e 3e
       -0.022552432 -0.011740006 0.19205968 0.15469621
0001d0 a0 3c 39 3e 4c f1 b3 3d 3c 64 ae 3d d6 7e 1b bd
       0.18089533 0.08786258 0.08515212 -0.037962757
0001e0 93 32 b4 3d 00 9a f2 bd da 8d 01 bd 71 ef 4f 3e
       0.08798709 -0.118457794 -0.03162942 0.20306183
0001f0 b9 5d 80 3e b4 31 9b 3e c2 ac bf be 2a 1d 9d bd
       0.25071505 0.30311358 -0.3743649 -0.07671578
000200 77 7e 55 bc e4 69 fe bd dc a0 b8 bd 07 84 ab be
       -0.01303064 -0.12422541 -0.090150565 -0.33499166
000210 f3 3c e0 3c 26 db da bc 22 0d 04 be f6 1c 28 3d
       0.027372813 -0.026715826 -0.12895635 0.041043244
000220 a3 48 47 bd f0 8d ae bc 8e b5 c4 bc d2 8c 26 bd
       -0.048653256 -0.021307915 -0.024012353 -0.04066164
000230 1a e1 47 bd ae 89 b4 bc c3 71 50 be 8c 7c 95 bc
       -0.048798658 -0.022038307 -0.20355897 -0.018247865
000240 8b 54 3e 3e b6 de 13 3e 72 a7 85 3d 2d bd 93 be
       0.18586938 0.14440426 0.06526078 -0.28855267
000250 29 01 6c be 7e c8 97 bd 29 02 11 bd d6 a1 c2 bd
       -0.23047318 -0.07411288 -0.03540245 -0.09503524
000260 94 79 94 be 39 66 4c be 15 30 a4 be 7f f3 c5 be
       -0.28999007 -0.1996087 -0.32067934 -0.38662335
000270 b9 a6 5a 3c ef 60 f9 bc 8e 39 4f 3d e2 1f 99 bc
       0.013345414 -0.03044173 0.050591998 -0.01869196
000280 f7 17 18 3e 7c 61 26 be 4f e1 74 ba 5a 73 cd bc
       0.14852892 -0.16248125 -0.0009341435 -0.025079418
000290 9e 8b 79 3b 8b 3b e0 bd 0f 17 c8 3c 05 f2 f0 3d
       0.0038077603 -0.10948857 0.024425058 0.117649116
0002a0 b4 67 b5 be 86 25 47 be 31 d8 6d bd 2f 3f 8a 3c
       -0.35430682 -0.19447908 -0.058067504 0.016875831
0002b0 4f f0 3f 3e 81 57 30 3e 48 d9 8e be fc 2e ac be
       0.18744014 0.1722088 -0.27900147 -0.33629596
0002c0 8a 9b a0 be bf 21 64 3e a5 40 9b bd 9f 04 44 3d
       -0.31368667 0.22278498 -0.07580689 0.04785597
0002d0 bb 5d f1 3b 1b 23 fa 3c 9e 1a fe 3d a6 55 7b bd
       0.00736591 0.030534318 0.124074206 -0.061360978
0002e0 a0 bf ab 3d 22 86 8e be 34 f6 44 bc 18 ff d7 3d
       0.08386159 -0.2783671 -0.01202159 0.10546702
0002f0 c8 4c ab bd b1 eb cd 3d b1 f1 4c 3d 68 d8 04 3e
       -0.08364254 0.1005472 0.050035182 0.12973177
000300 55 8f 33 3d e7 d7 c1 3d b2 88 0d 3e 53 19 35 3d
       0.043837864 0.09465008 0.13821676 0.044213604
000310 e2 db 90 3b 43 18 d5 bd 29 15 aa 39 22 dc cb bd
       0.0044207433 -0.10405018 0.00032440692 -0.099540964
000320 5c 05 40 be 89 1e 9b bd a4 fd b7 bd 85 23 ac bd
       -0.18752044 -0.075741835 -0.08983925 -0.08405212
000330 c3 7c bf 3b 7d 19 1f be b9 d9 76 be d1 16 fa bd
       0.00584373 -0.15537067 -0.24106492 -0.12211383
000340 eb 9b ba bd 31 30 0d 3e 22 bd da bb 6b 52 82 bc
       -0.0911177 0.13787915 -0.0066753784 -0.01590844
000350 87 7a a8 bc f3 82 40 3e 40 74 3c 3e 3f e0 1b 3e
       -0.020566238 0.18799953 0.18403721 0.15222262
000360 e5 e1 02 3e 72 6a de 3c 47 66 74 3e 4c c5 f6 bd
       0.12781484 0.027150366 0.2386714 -0.1204935
000370 3a 5e 25 be 21 6a a0 be 41 31 24 3d 5b 88 92 bd
       -0.16149226 -0.3133097 0.040086035 -0.07154914
000380 2e 53 7f be e3 94 25 be 76 ae 1f be 41 cd b1 3d
       -0.24934074 -0.16170077 -0.15593895 0.08681727
000390 23 7e d3 3d 19 a1 82 3e 47 89 12 3e 61 1b 47 3e
       0.10326793 0.25513533 0.1431018 0.19444038
0003a0 6d ad b2 3d da 9e 35 3e 3d bd 2b 3e e8 e0 63 3e
       0.087244846 0.17736378 0.16771407 0.22253764
0003b0 46 7c 60 3e 88 7f c7 3d 43 9d 13 3e c5 a9 21 3e
       0.21922407 0.097411215 0.1441546 0.15787418
0003c0 e8 21 73 bd 64 5f 68 bc 8e cf dc 3d bf 32 3d 3e
       -0.059358507 -0.014182899 0.107817754 0.1847639
0003d0 1c e5 a9 bd 84 85 f2 bc 7f d9 8c be 58 7b 17 be
       -0.08295652 -0.02960468 -0.27509686 -0.14793146
0003e0 15 1d 8f 3d 2c a9 00 3d 30 1d 0a 3d dd d1 4b 3c
       0.06987969 0.031411335 0.03371924 0.012440172
0003f0 1e 0c 60 be 3c ee 5f be c9 e6 93 bb 86 a2 aa 3d
       -0.21879622 -0.21868223 -0.0045135957 0.0833178

base_feature_extractor.1.0.bias f4 [64]
000000 02 75 5d 37 ed 68 90 b7 a2 0d 44 37 a9 13 dd 37
       1.31998695e-05 -1.7214998e-05 1.16856845e-05 2.6354408e-05
000010 a8 3b 1a 37 fa 12 98 37 e7 fd 76 38 b3 ea 77 b7
       9.193005e-06 1.8128649e-05 5.8887435e-05 -1.4776992e-05
000020 02 7f 3a b7 67 e5 8f b8 2f 45 51 38 fa ba 96 b8
       -1.1116035e-05 -6.861501e-05 4.9893915e-05 -7.1873845e-05
000030 d6 8a 1e 36 7f e1 ac b7 ed a7 9b b7 2e 49 2a 37
       2.3624648e-06 -2.0609003e-05 -1.8555636e-05 1.0149828e-05
000040 de 1e 0b 38 5e cc 05 37 f0 66 16 38 c6 eb 0b b9
       3.316893e-05 7.975001e-06 3.5858655e-05 -0.00013343905
000050 9f cc 80 36 8b 8f ee b7 87 1b 55 b6 f6 b6 dd b8
       3.8385183e-06 -2.8438653e-05 -3.1755496e-06 -0.0001057218
000060 75 2e 96 36 41 67 ca 37 bd 2f cc 35 fd 1d d7 38
       4.4757567e-06 2.4128358e-05 1.5213078e-06 0.00010257585
000070 f4 9d 97 37 42 30 73 b7 b8 ef 1e b5 f7 56 2e 38
       1.8074155e-05 -1.4495165e-05 -5.9208423e-07 4.1565825e-05
000080 60 e3 56 37 db cf a9 b8 f1 f5 98 37 6f ff ea b7
       1.2808334e-05 -8.097264e-05 1.8234337e-05 -2.801392e-05
000090 68 07 23 37 85 71 e4 38 cc 39 a1 34 84 7d fe 37
       9.7172815e-06 0.00010893032 3.003064e-07 3.0337607e-05
0000a0 42 d2 be b6 df 5e 15 37 3c 02 99 37 3b f5 57 37
       -5.6869185e-06 8.903181e-06 1.8240062e-05 1.2872096e-05
0000b0 b4 1a d5 37 30 26 f2 38 26 7b 5f b5 b0 5b a2 37
       2.5404013e-05 0.00011546572 -8.325318e-07 1.93546e-05
0000c0 15 4d 11 b9 2b e7 06 b9 d5 d4 43 37 6a 59 19 38
       -0.00013856993 -0.00012865353 1.167246e-05 3.6561316e-05
0000d0 1a a8 c8 b7 7c 27 81 b7 c7 05 a9 38 0a 3e e0 b7
       -2.3920136e-05 -1.5396385e-05 8.059624e-05 -2.673177e-05
0000e0 5e a3 5e 34 84 5c 89 37 59 33 48 38 dd 32 c4 37
       2.0734794e-07 1.6374754e-05 4.7731537e-05 2.3388706e-05
0000f0 7c 38 32 b7 33 e4 08 37 96 1e 87 b5 7b 08 f1 b7
       -1.0622778e-05 8.1593635e-06 -1.0067185e-06 -2.8733388e-05

base_feature_extractor.1.1.weight f4 [64]
000000 bb 56 6c 3f 27 6c 60 3f 22 f4 82 3f 48 f1 8a 3f
       0.9231984 0.8766503 1.0230753 1.0854883
000010 b9 3b 8c 3f 20 62 a1 3f 04 38 a3 3f 7b 47 7a 3f
       1.0955726 1.260807 1.275147 0.9776532
000020 cd 3b 9c 3f c5 80 98 3f d1 1d 8d 3f 28 c6 8b 3f
       1.220575 1.1914297 1.1024724 1.0919847
000030 0a e8 5a 3f ca a7 7f 3f e1 d6 8c 3f 7e 6d 6c 3f
       0.85510314 0.998654 1.1003076 0.9235457
000040 db ee 93 3f ea 2c 80 3f d1 b2 75 3f 62 6b a7 3f
       1.1557268 1.0013707 0.9597598 1.3079646
000050 62 44 5c 3f 50 26 8d 3f 1a d5 92 3f 7d f2 69 3f
       0.86041844 1.1027317 1.1471283 0.9138563
000060 91 93 a2 3f ef e8 8e 3f dc 09 08 3f 5a 44 8a 3f
       1.2701284 1.1164836 0.53140044 1.0802109
000070 b7 ce 7f 3f 70 04 6b 3f 23 3d 2e 3f d3 b9 6f 3f
       0.99924797 0.91803646 0.6806204 0.9364292
000080 5a db 98 3f 24 63 65 3f 48 39 7e 3f 52 24 5f 3f
       1.1941941 0.896044 0.99306154 0.87164795
000090 ef 02 b4 3f 8a 05 a4 3f 7b 0f 5a 3f a3 77 8d 3f
       1.4063395 1.281419 0.8517987 1.1052135
0000a0 2b f1 6a 3f 67 28 60 3f 87 67 7d 3f c2 76 89 3f
       0.91774243 0.8756165 0.98986095 1.0739367
0000b0 cb b0 93 3f 1e 5c 9a 3f c9 52 3c 3f 0d e6 83 3f
       1.1538328 1.2059362 0.7356382 1.0304581
0000c0 1a de 9e 3f 8f b8 92 3f 12 89 8f 3f 98 85 7f 3f
       1.241153 1.1462573 1.1213706 0.9981322
0000d0 e0 35 61 3f 87 69 83 3f fa 5e 7a 3f 4e 9d 81 3f
       0.8797283 1.0266579 0.9780117 1.012613
0000e0 3e 6e f2 3e d8 47 68 3f 3a 96 8e 3f bd 66 8e 3f
       0.47349733 0.90734625 1.1139596 1.1125103
0000f0 d5 c1 78 3f 3e e3 87 3f e3 f9 2c 3f b3 e8 6e 3f
       0.97170764 1.0616224 0.67568797 0.9332382

base_feature_extractor.1.1.bias f4 [64]
000000 8c c1 4c bd b6 46 ec 3a dd b3 7f 3d af 7f 9e 3d
       -0.04998927 0.0018026445 0.06242739 0.077391975
000010 b7 92 c9 3d f6 99 8c be c6 ae 80 be 64 cd 2c bc
       0.09842437 -0.27461213 -0.25133342 -0.010547016
000020 9d 8c de be 07 9a b9 be f5 09 8f 3d 8f c1 1b 3c
       -0.43466654 -0.36250326 0.06984321 0.009506597
000030 8f 59 35 be 2e 84 72 bc 32 4a e5 be 5a 93 c3 3b
       -0.17709945 -0.014802022 -0.4478317 0.0059684934
000040 39 34 a8 be 9a 85 ec bc 1f 2b 99 be de 3a 82 be
       -0.32852343 -0.0288723 -0.2991571 -0.25435537
000050 06 59 ea be 54 b2 9d be 33 49 e6 3d 3b ae 1e be
       -0.45771044 -0.30800116 0.112444304 -0.15496151
000060 13 7f c6 be 35 07 f1 be f7 13 ac be 42 6d 0c bd
       -0.38768825 -0.4707581 -0.33608982 -0.034283884
000070 70 81 c2 3c 6e 0f b2 bc be 62 bd be 34 ea 98 ba
       0.023743361 -0.021735873 -0.36989397 -0.0011666478
000080 10 06 aa be df 4a c9 bd fa cb a8 be d8 df 90 bd
       -0.3320775 -0.09828734 -0.32968122 -0.07073945
000090 94 1c f8 be 23 6a bb be 86 eb 5b be ff f9 b7 3d
       -0.48459303 -0.36604413 -0.21476564 0.0898323
0000a0 b3 3e c5 bd 9e 0f 02 bc e9 a3 89 bd d8 c6 2c bb
       -0.096310996 -0.007938294 -0.067207165 -0.0026363637
0000b0 1f 77 aa be 65 98 2a 3e 94 45 2f be 70 43 25 bd
       -0.33294007 0.16659696 -0.17116386 -0.040347517
0000c0 8b a0 5c 3e 71 7b 8b 3d 5a df c8 3d 31 cc cd 3d
       0.21545617 0.06810654 0.09808226 0.10048712
0000d0 db 2d 8d bd 1b 7a 17 3d 67 2f 11 bd aa ec b5 bd
       -0.06893512 0.036981683 -0.035445597 -0.08883031
0000e0 49 e9 8f be b3 71 74 be 77 68 43 3e 19 d4 dd be
       -0.2810767 -0.23871498 0.19082819 -0.4332588
0000f0 d8 61 f2 3c 5c 00 8b 3d e8 d8 37 be 85 a5 41 bc
       0.029587671 0.06787178 -0.17953837 -0.011819248

base_feature_extractor.1.1.running_mean f4 [64]
000000 ef ee 4b bf 61 b0 e2 3d 16 88 eb be 04 c8 a0 be
       -0.7966146 0.11068798 -0.46002263 -0.314026
000010 38 d1 01 bf 03 81 21 c0 c4 0a 20 c0 5d d8 a6 bf
       -0.5070987 -2.5234993 -2.500657 -1.3034779
000020 a2 4b b2 bf 1d 85 2c c0 91 0d eb c0 19 5d 19 bf
       -1.3929331 -2.6956246 -7.345406 -0.5990768
000030 5d a5 6f c0 17 c2 b2 bf 23 f9 8c 40 ad c6 29 bf
       -3.744468 -1.3965482 4.405412 -0.6631878
000040 a6 0a 03 c0 7b 9c 5a bf f3 40 1b c0 6e 9d 1f c0
       -2.047525 -0.8539502 -2.4258392 -2.4939837
000050 a5 f3 6c 40 a7 e6 11 c0 b2 bb a5 3f cf 6e 75 bf
       3.702371 -2.279703 1.2947905 -0.95872205
000060 2f f5 f8 bf dc 43 a8 40 26 71 2a 40 e5 44 e8 c0
       -1.9449824 5.2582836 2.663156 -7.25841
000070 18 86 27 3f d6 9f 19 be f3 4f 9e 40 63 20 86 bf
       0.65438986 -0.15002379 4.9472594 -1.0478634
000080 00 83 49 c0 ba b8 98 bf ab 9b 2b c0 23 6d d9 bf
       -3.1486206 -1.1931374 -2.6813762 -1.6986431
000090 db 15 8c bf d6 30 45 c0 06 f7 08 c0 c3 58 00 bf
       -1.094417 -3.0811057 -2.140077 -0.5013544
0000a0 84 bd cf bf 0a aa 91 be 8b 34 a5 bf c1 36 96 bf
       -1.622971 -0.28450042 -1.290666 -1.173546
0000b0 bd c3 38 c0 be da a6 3f 05 d0 0c 40 be 71 b1 bf
       -2.886947 1.3035505 2.2001965 -1.3862836
0000c0 93 14 f5 3f e4 6d 87 3f 39 24 32 bf 08 5b 82 3f
       1.9146904 1.0580411 -0.6958652 1.018403
0000d0 1c ca fb be 89 c2 5e 3f 12 18 9e bf 1f e0 79 c0
       -0.49177635 0.8701559 -1.2351096 -3.9043043
0000e0 cd 5c 18 bf fb 93 1a c0 70 84 c7 3f 78 27 ce bf
       -0.595166 -2.415282 1.5587292 -1.6105795
0000f0 84 c4 3b bf ee 8b 0a bf 43 8a 5b c0 bf e6 9e bf
       -0.73346734 -0.54119766 -3.4303138 -1.2414168

base_feature_extractor.1.1.running_var f4 [64]
000000 38 f0 4e 41 a7 4d d0 41 da 7d 90 41 75 23 78 41
       12.933647 26.037916 18.061451 15.5086565
000010 f7 44 6a 41 79 ab ed 41 02 b5 b3 41 28 2b 44 41
       14.641837 29.708727 22.463383 12.260536
000020 40 c6 9d 41 0b d0 8f 41 9a 54 70 42 ff ea 56 41
       19.721802 17.976583 60.08262 13.432372
000030 f8 5a 61 41 6e 7f ce 41 dc ec c9 41 dc ae a1 41
       14.084709 25.812222 25.240654 20.21038
000040 52 b3 98 41 33 37 2c 41 af 33 aa 41 f4 90 b0 41
       19.087559 10.763476 21.275236 22.070778
000050 ec 92 89 41 33 06 7b 41 4c 6e a4 41 a9 e1 25 41
       17.19674 15.6890135 20.553856 10.367593
000060 52 24 ae 41 88 a8 02 42 d4 f7 89 41 63 b1 66 42
       21.767735 32.66458 17.24601 57.67323
000070 17 ea 6d 41 7f 12 93 41 3e cf 33 42 f3 56 8a 41
       14.869651 18.384031 44.952385 17.292456
000080 31 38 a4 41 e0 d0 45 41 e0 76 ac 41 a3 a7 65 41
       20.527437 12.363495 21.558044 14.353427
000090 92 06 c8 41 d1 f2 9d 41 4c 64 22 41 9a 01 85 41
       25.003208 19.743563 10.149487 16.625782
0000a0 6f ab a9 41 3c 5b b5 41 f6 c9 13 41 20 37 98 41
       21.208708 22.669548 9.236807 19.026917
0000b0 cb c9 b7 41 f7 ad cc 41 c7 2f f1 41 6b de 96 41
       22.973532 25.584944 30.148329 18.858603
0000c0 4f ec e3 41 01 26 53 41 d6 42 99 41 a4 20 c6 41
       28.490385 13.196778 19.157635 24.765938
0000d0 7c 29 26 41 fc 5b 57 41 01 53 1d 41 68 f7 e1 41
       10.385128 13.459957 9.832765 28.245804
0000e0 75 61 c6 3e ba 4f 2c 41 09 37 0f 42 ee 23 a3 41
       0.3874623 10.7694645 35.803745 20.392544
0000f0 e2 f5 81 41 ea a7 8c 41 89 e4 61 41 ec d5 20 41
       16.24506 17.58199 14.118295 10.052227

language_head.2.weight f4 [2, 64]
000000 9a d5 be 3d 4e c9 39 3e db 42 2d be ac 08 8c be
       0.09318085 0.18143198 -0.16920035 -0.27350366
000010 5a e9 65 be b9 aa a9 be a6 f3 ad be 42 f8 e4 3d
       -0.22452298 -0.33138064 -0.33974952 0.11180164
000020 f9 40 11 bf 63 09 b5 be 7b 64 28 be 58 7a 6f 3e
       -0.56739765 -0.35358724 -0.1644458 0.23386514
000030 3b ce 9e bc 2d 02 ea bd b1 74 91 3e 1d 7e 88 3e
       -0.019385448 -0.11426196 0.2840934 0.26658717
000040 7f ec 97 be 28 14 4d 3e 6a dd 2d be a5 4d a9 be
       -0.2967262 0.2002722 -0.16978994 -0.3306705
000050 cb b7 fb 3d e3 79 81 be 0d b9 4d 3e 05 d4 1d 3e
       0.12290915 -0.25288305 0.20090123 0.1541291
000060 80 24 07 bf 00 e8 b1 3e c0 fd e2 3d 63 64 33 be
       -0.5279007 0.34747314 0.11083555 -0.17518763
000070 fb 85 6a 3e 1c 8e 36 3e 75 67 44 3d de 8a aa 3d
       0.22902672 0.17827648 0.047950227 0.08327268
000080 c1 6f 48 be a2 cb 20 3e 35 d1 81 be be 61 6c 3d
       -0.1957388 0.1570268 -0.25354925 0.0577104
000090 66 55 1d bf 3c 2a ae be 33 94 ef bd fc 99 75 be
       -0.6145843 -0.34016597 -0.11698189 -0.23984522
0000a0 82 b2 e2 bd 75 85 a4 3d 1c 5a ee 3d a4 25 0d be
       -0.11069204 0.080332674 0.11638281 -0.1378389
0000b0 b5 13 d9 be 54 72 71 3e 59 b9 65 bc f4 e5 38 be
       -0.42397848 0.23578769 -0.014021241 -0.1805647
0000c0 d5 08 4d 3e 4f db 86 3e 21 cf 84 be 17 d0 21 3e
       0.200229 0.26339194 -0.25939277 0.15802036
0000d0 5e 3e 16 3e 3a 15 4f 3e bf c1 37 3e b6 fc 2a be
       0.14672229 0.20222941 0.17945002 -0.16697964
0000e0 58 51 ea bc 7b 9c ee bd 1d f7 72 3e 53 9e e8 be
       -0.02860324 -0.1165094 0.23727079 -0.45433292
0000f0 c4 d6 31 be 50 09 88 be b5 86 e1 bd 0b 8f f7 3d
       -0.17367083 -0.26569605 -0.110120215 0.1208783
000100 70 81 1c be e9 ae 9e bd ea dd 70 3e aa aa 73 3e
       -0.15283751 -0.07748205 0.23522153 0.23795572
000110 27 f2 91 3e 73 dd c6 3e b9 d9 21 3e b1 65 4f be
       0.2850506 0.38840827 0.15805711 -0.20253636
000120 21 f5 bf 3e 9e c6 ce 3e 9d d9 49 3e c7 16 72 be
       0.37491706 0.40385908 0.19711919 -0.23641501
000130 ad 9c 1c 3e 52 f1 1e 3e aa 83 a6 be 7f 54 80 bd
       0.15294142 0.15521744 -0.32522327 -0.06266116
000140 72 04 b0 3e 9d c2 34 be 88 57 ac 3e e1 66 85 3e
       0.34378392 -0.17652364 0.3366053 0.26055053
000150 82 5d 9e be 18 68 9b 3e cb 39 87 be 59 9f 77 bd
       -0.30930716 0.30352855 -0.2641128 -0.0604547
000160 c9 5d e5 3e 0b 41 b7 be fe 1b 74 bc 9e 31 02 3e
       0.44798115 -0.3579181 -0.014899252 0.1271424
000170 32 0c 27 be 78 28 ec bd 97 a3 87 bd 26 41 34 be
       -0.16313246 -0.11531156 -0.06622999 -0.17602977
000180 3d ed a7 3e c2 03 a5 bd 17 50 8a 3e 63 9a 39 be
       0.32798186 -0.08057357 0.2701423 -0.181253
000190 b0 66 28 3f af 41 91 3e 80 84 00 3e 2c ca 87 3e
       0.6578169 0.28370425 0.12550545 0.26521432
0001a0 ba af 00 3e 6c 3e 33 be 95 8e 57 be ce 2c 82 3e
       0.12567034 -0.17504281 -0.21050484 0.25424808
0001b0 78 38 49 3e e9 ae 95 be 42 2d fd bd 8e fa 0d 3e
       0.19650447 -0.29235008 -0.12362148 0.1386511
0001c0 37 ed 97 be 25 91 86 be 80 b1 53 3e c9 e1 53 be
       -0.29673168 -0.2628261 0.2067318 -0.20691599
0001d0 53 58 03 bd f0 89 28 be 5f 27 2f be 41 e8 14 3e
       -0.032066654 -0.16458869 -0.17104863 0.14541723
0001e0 69 62 7c bc 4a 01 21 3e 07 2b 12 be 65 3b 97 3e
       -0.015404322 0.15723148 -0.14274226 0.29537502
0001f0 0b cd 02 3e 4b c9 40 3e ba fe 9c bd ca 82 37 be
       0.1277353 0.18826787 -0.07665773 -0.17920986

language_head.2.bias f4 [2]
000000 a6 f5 67 bd cf 6a fa bc
       -0.056630753 -0.030568508

disease_feature_extractor.0.0.0.weight f4 [64, 64, 3]
000000 e0 03 0b be 09 05 04 be 36 09 43 be 62 fc 37 be
       -0.13575697 -0.12892546 -0.19046482 -0.1796737
000010 38 7c 29 be 36 bc 6d be 74 e3 d9 3d e4 5b b5 3d
       -0.16551292 -0.23216328 0.10639086 0.08855417
000020 bb af 2d 3d 41 06 bb 3d 55 06 d6 3d 8e 5b 0b 3e
       0.042403918 0.09132052 0.104504265 0.13609144
000030 50 7c 19 3e 31 ec 20 3e 66 a7 00 3e 03 de e2 3d
       0.14988828 0.157151 0.12563857 0.110775016
000040 27 e7 d6 3d 96 98 05 3e 3c 4c 4e 3e bf 18 1c 3e
       0.104933076 0.13046488 0.20146269 0.15243815
000050 67 e9 3c 3e 43 62 03 be 2a 2e 2e be 4f f7 5b be
       0.18448411 -0.12830453 -0.17009798 -0.2148106
000060 ca 68 03 3d 82 f4 43 3b 2f 2d bf bc d3 c6 c4 3d
       0.032082357 0.0029900377 -0.023336975 0.09608235
000070 23 29 04 3e fe f1 f2 3d 12 a3 40 3e 8e 41 12 3e
       0.12906317 0.118625626 0.18812206 0.1428282
000080 cd b2 1c 3e 32 47 8b be 73 0e 7a be 28 90 43 be
       0.15302582 -0.27202755 -0.24419574 -0.1909796
000090 a6 11 28 bd d6 c8 3e bd 77 b9 08 bc 00 d4 c3 3d
       -0.041032456 -0.04657825 -0.0083449995 0.0956192
0000a0 f0 99 ce 3d 5d a8 67 3d ff c8 e4 bd 84 76 1a be
       0.10087955 0.056557048 -0.111711495 -0.15084273
0000b0 75 e3 dd bd 1e 34 16 be 96 f6 36 be 2a 10 19 be
       -0.108343996 -0.14668319 -0.17867503 -0.14947572
0000c0 c8 07 90 bd cc d3 0f be 63 9b 22 be 80 80 21 be
       -0.07032734 -0.14045638 -0.15879588 -0.15771675
0000d0 ff 17 5f be 86 57 62 be e0 e9 68 bd 66 c7 86 bd
       -0.21786498 -0.221037 -0.056863666 -0.06581001
0000e0 88 d1 07 bd a9 72 22 3e 72 4f 28 3e 1a 5a 27 3e
       -0.03315881 0.15864052 0.16436556 0.16342965
0000f0 55 ea cd bc 3c 0c 8c bd d0 87 8e bd f9 e5 e7 3d
       -0.025136152 -0.06838271 -0.06959498 0.11323161
000100 f8 48 83 3d 35 f0 9b 3d 3a 95 fc bd 9c d6 12 be
       0.06410402 0.07614175 -0.1233315 -0.1433968
000110 33 00 17 be aa 2b 2c 3a ed 89 a6 bc 43 1b 7f bd
       -0.1474617 0.0006567786 -0.02032944 -0.06228186
000120 8d 7b ef 3c b4 1f df 3c 2d 81 24 bb 0f 79 39 be
       0.029233718 0.027236797 -0.0025101409 -0.18112586
000130 b2 15 ea bd 40 17 4d be 67 6d 3d 39 49 39 2d 3c
       -0.11429919 -0.200284 0.000180652 0.01057274
000140 8b e8 3d bc 8c a1 20 3e 40 57 eb 3d 95 d3 61 3d
       -0.011591087 0.15686625 0.11491251 0.05513342
000150 85 85 b5 bd 96 bc bb bd 4b bc 13 be 2c f7 3b be
       -0.088633575 -0.09166829 -0.14427297 -0.18356007
000160 e8 4e 50 be b8 93 50 be 1d 2e 67 bc fb 5f 75 bd
       -0.203426 -0.2036885 -0.014110115 -0.059905987
000170 8f 8b 49 bd 43 f4 2a be 9a 03 21 be 23 85 49 be
       -0.04920536 -0.16694741 -0.1572403 -0.19679694
000180 30 ad fb 3d c9 b4 fd 3d d2 9b a8 3d 0b ee 80 bd
       0.12288892 0.12387998 0.08232845 -0.06295403
000190 7b 92 e3 bd f1 e8 e8 bd 7d 10 84 bd 8c 4d 7c bd
       -0.11111923 -0.11372555 -0.064484574 -0.061597392
0001a0 97 d0 06 bd d3 4e 37 be 03 09 6d be 3d 1e 5e be
       -0.03291377 -0.17901163 -0.23147969 -0.21691222
0001b0 04 3b 34 bd fa b3 c9 bd ea dc d5 bd c5 94 6d 3e
       -0.044001594 -0.09848781 -0.10442527 0.23201282
0001c0 4a 64 92 3e eb 02 85 3e 99 67 1a 3d 6d be c2 3c
       0.2859214 0.2597879 0.037696455 0.023772443
0001d0 11 97 b3 3c ea 9d 0a 3e 32 cd e2 3d dd 48 c6 3d
       0.02192262 0.13536802 0.11074294 0.09681866
0001e0 66 fe 9f 3d f0 aa 22 3d 2b af f6 3d 2f ae ef bd
       0.078121945 0.0397138 0.120451294 -0.11703145
0001f0 0c d7 59 bd 43 35 f3 bd 9f 84 c4 bd 76 21 d2 bd
       -0.0531836 -0.11875393 -0.09595608 -0.102602884
000200 8d f8 d9 bd 11 f0 23 3e 5d b6 10 3e b8 e6 b4 3d
       -0.106431104 0.16009547 0.14132066 0.088330686
000210 99 a7 38 3e b6 ee 3f 3e 35 7a 0a 3e 55 f4 81 be
       0.18032683 0.18743405 0.13523181 -0.25381723
000220 88 f2 46 be fa f2 5b be 94 1e b0 bd 57 91 ef bd
       -0.19428456 -0.21479407 -0.08599582 -0.11697643
000230 ad 0b 49 bd a8 5a 8a 3e 47 23 7e 3e b1 a2 43 3e
       -0.0490834 0.2702229 0.24818145 0.1910503
000240 76 c0 6d be c9 b7 52 be 2e fd 64 be b0 83 06 be
       -0.2321795 -0.20577921 -0.22362205 -0.13136172
000250 a4 8c 38 be 2a a4 d5 bd 62 97 c9 3d d2 30 d2 3d
       -0.180224 -0.104317024 0.09843327 0.10263218
000260 49 ea 1e 3e c1 6c 45 be a5 96 2a be cd a7 19 be
       0.1551906 -0.19279768 -0.16659029 -0.15005417
000270 74 5f 85 bc 72 69 9a bd 5d 7b 77 bd 79 69 27 be
       -0.016280867 -0.07539643 -0.060420383 -0.16348828
000280 31 6c 15 be fb ca 2e be c9 5a b8 bd 30 6d be bd
       -0.14592053 -0.17069618 -0.09001691 -0.092981696
000290 89 e4 24 be c1 aa 7e bd c1 d2 b8 bc c7 2b 1f bc
       -0.16102804 -0.062174562 -0.022561433 -0.009715027
0002a0 c5 b4 fd bd 7d 9d a3 bd d7 f3 18 be 16 25 0f 3d
       -0.12387995 -0.07989023 -0.14936768 0.034947477
0002b0 20 9b 55 3d fc c7 fd b8 ea 0b 50 be 5f 30 3d be
       0.05214989 -0.0001210123 -0.20317045 -0.18475483
0002c0 91 16 5f be f8 b2 ad bd b3 63 99 bd 05 74 02 be
       -0.21785952 -0.08481401 -0.07489719 -0.1273957
0002d0 df 65 27 3d e7 71 c5 3c c8 8a ca 3d 67 d6 e2 3c
       0.040868636 0.024102164 0.09889752 0.027690126
0002e0 d5 83 26 3d 60 9f 8f 3d 9d 8f 36 bd 8c aa 2f bd
       0.04065307 0.0701282 -0.044570554 -0.042887256
0002f0 9a 15 a0 bc f3 a1 ad bd 45 6e 00 be cf 72 31 be
       -0.01954155 -0.08478155 -0.12542064 -0.17328952
000300 a5 0e 53 bb db 88 37 bd ba 31 e2 bb ef 50 08 be
       -0.0032204774 -0.04480825 -0.0069029005 -0.13312124
000310 67 e7 bb bd 3f 3e b8 bd f2 67 54 be 6e 1a 66 be
       -0.09174996 -0.089962475 -0.20742777 -0.2247102
000320 18 03 42 be e1 38 e1 bd 6b 18 a6 bd 80 17 93 bd
       -0.18946493 -0.10997177 -0.08110126 -0.07182217
000330 19 02 34 bd 74 70 8f bb 9f 2d 5d bd 06 35 af be
       -0.043947313 -0.004377419 -0.053998586 -0.3422014
000340 bd 42 cf be 78 b4 bf be b3 db b1 be 8e 6d a1 be
       -0.40480605 -0.37442374 -0.3473793 -0.31528896
000350 ee 2f 8b be 22 b0 0f 3d 56 01 05 3d c9 e0 2e 3d
       -0.27185005 0.035080083 0.032471977 0.04269484
000360 ad 5a 5a bd 6a d4 d0 3c b8 91 1f bd a4 bb 25 be
       -0.05330913 0.025491912 -0.038957328 -0.1618486
000370 ea 46 fa bd ae aa 4a be 30 78 ee bd 3e 16 0e be
       -0.12220557 -0.19791672 -0.11644018 -0.13875672
000380 bf e2 32 bd 89 57 e6 bc 53 c1 9a bc 05 2b f8 3c
       -0.043673273 -0.028117912 -0.018891012 0.03029395
000390 4c a1 cf bd a1 f6 ad bd b3 1f 79 bc 6a 16 f4 bd
       -0.10138187 -0.08494306 -0.015205312 -0.11918338
0003a0 4e ad f1 bd 88 cc 3e bd 63 5a ec bd b4 36 07 be
       -0.11800633 -0.046581775 -0.115406774 -0.13204461
0003b0 2e 9b 31 be 6f e4 96 3d e9 59 a1 3d 15 7f aa 3d
       -0.17344353 0.07367789 0.07878477 0.0832502
0003c0 2b ad 9d bd b7 32 05 be d7 53 f7 bd ac 7d f0 bb
       -0.07699045 -0.13007627 -0.12076538 -0.0073392
0003d0 4f d0 29 bd 5f aa d5 bc 8a 6d 63 be e0 1c 4b be
       -0.041458424 -0.026082216 -0.22209755 -0.19835234
0003e0 78 e8 1f be cd 97 89 be f0 1f 9b be 1a ea 52 be
       -0.15616024 -0.26873627 -0.30297804 -0.20597115
0003f0 ae 0c c9 bd f4 c7 0f be 40 5d 4b be ef e6 6f bd
       -0.098168716 -0.1404112 -0.19859791 -0.058569845

disease_feature_extractor.0.0.0.bias f4 [64]
000000 c5 73 1e 37 22 f8 11 b7 59 cb 10 35 fa 6b 1e 38
       9.444489e-06 -8.700446e-06 5.394009e-07 3.7770697e-05
000010 67 73 a5 37 b5 c1 e7 36 5f 6f f4 36 23 3c e0 35
       1.9723271e-05 6.906887e-06 7.284732e-06 1.6706803e-06
000020 0b c7 ee b7 a3 09 3f 37 e1 20 85 37 66 d5 3e 33
       -2.8464498e-05 1.1386731e-05 1.5870146e-05 4.4431907e-08
000030 d2 f5 52 36 41 77 a8 37 cd 2b 2e b7 4d d5 58 35
       3.1435525e-06 2.0082693e-05 -1.0381406e-05 8.0776664e-07
000040 54 68 aa 36 e5 02 26 37 c0 6d 4b 35 08 10 1e 38
       5.07854e-06 9.895045e-06 7.57831e-07 3.7685066e-05
000050 12 fe ac 36 91 06 0d b7 7b ab 2a b6 90 cb 09 b7
       5.155577e-06 -8.405784e-06 -2.5431789e-06 -8.213232e-06
000060 63 5b 3c b7 95 44 b2 b7 41 11 e5 36 50 af 8e b6
       -1.1226951e-05 -2.125119e-05 6.8267404e-06 -4.252339e-06
000070 81 c8 8c b5 cd 70 15 b6 58 81 9d 36 85 d9 97 34
       -1.0489167e-06 -2.226839e-06 4.694022e-06 2.8284208e-07
000080 74 f7 81 36 d8 28 a2 35 93 db ad 35 0e 53 1d b7
       3.873307e-06 1.2081828e-06 1.2953409e-06 -9.377267e-06
000090 39 bf a9 b4 fe 15 78 b6 be 9c a8 36 72 97 5a 37
       -3.1617836e-07 -3.696768e-06 5.0250374e-06 1.3029074e-05
0000a0 51 e9 2e b4 07 87 06 b4 96 87 f9 b4 22 03 02 37
       -1.6289893e-07 -1.2528845e-07 -4.6478516e-07 7.749333e-06
0000b0 81 45 df b5 d8 47 ea b6 95 8f a6 b6 b8 9e 42 36
       -1.6635023e-06 -6.982107e-06 -4.9639007e-06 2.900064e-06
0000c0 08 60 c4 37 83 40 03 b8 40 ee ed 36 f5 16 35 34
       2.3409739e-05 -3.1292915e-05 7.0908864e-06 1.686529e-07
0000d0 2e e5 32 36 71 6d c6 b7 5b 25 30 35 aa 9b 82 b7
       2.6657467e-06 -2.3654402e-05 6.561947e-07 -1.5569694e-05
0000e0 80 b6 81 b6 a5 a4 fa 35 5e 20 89 b8 2a 9b 58 b6
       -3.8657454e-06 1.8674369e-06 -6.538698e-05 -3.2276826e-06
0000f0 59 db c4 37 c8 c7 16 b7 1f 7b 15 b7 f3 db 4c b2
       2.3467162e-05 -8.987212e-06 -8.909758e-06 -1.19243735e-08

disease_feature_extractor.0.0.1.weight f4 [64]
000000 55 38 54 3f b4 ff 5b 3f 76 e8 84 3f 7e 49 8d 3f
       0.82898456 0.85937047 1.0383441 1.1038053
000010 d4 f0 6a 3f e8 2f 96 3f 55 32 83 3f ad 3e 11 3f
       0.91773725 1.173337 1.0249735 0.5673626
000020 dc 71 80 3f 8d c0 5e 3f db dc 76 3f 9f fc 0e 3f
       1.0034747 0.8701256 0.9643075 0.5585422
000030 fc ae 27 3f 70 89 99 3f 4e a2 8c 3f a5 29 53 3f
       0.6550138 1.1995068 1.0987031 0.8248542
000040 bf 51 67 3f 34 3b 55 3f 0b 36 47 3f 6e 28 79 3f
       0.9035911 0.8329346 0.7781684 0.97327316
000050 bb 49 7d 3f 0b 29 3c 3f 57 2f 81 3f f0 bc 3d 3f
       0.9894063 0.73500127 1.0092572 0.7411642
000060 b2 50 75 3f f1 5b 89 3f 0b 82 19 3f ed dc 7e 3f
       0.95826256 1.0731183 0.59964055 0.99555856
000070 ae 45 75 3f 8f 9d 30 3f d3 de 84 3f e0 93 08 3f
       0.9580945 0.68990415 1.03805 0.5335064
000080 a4 34 63 3f 8d 24 76 3f df d1 90 3f c9 53 49 3f
       0.887522 0.9614952 1.1314048 0.7864347
000090 87 2e 23 3f 4a a0 8a 3f 76 6a 1e 3f b4 6f 7b 3f
       0.6374287 1.0830166 0.61881196 0.9821732
0000a0 af d5 60 3f ca 00 23 3f 08 42 31 3f 2c d3 90 3f
       0.87826055 0.6367308 0.6924138 1.1314445
0000b0 4e 95 8c 3f 67 d5 8e 3f db f0 81 3f a0 84 35 3f
       1.0983064 1.1158875 1.0151628 0.70905495
0000c0 0e 38 97 3f 7c 9e 96 3f f9 cf 7d 3f 6e ef 1a 3f
       1.1813982 1.1767116 0.99145466 0.6052159
0000d0 b7 5f 48 3f 20 26 88 3f ce 08 60 3f d5 02 5d 3f
       0.7827105 1.0636635 0.87513435 0.86332446
0000e0 bd e9 8b 3f bb 93 01 3f 59 49 9e 3f f7 3d 03 3f
       1.0930706 0.50616044 1.2366134 0.51266426
0000f0 c5 6e 82 3f 80 40 8c 3f 51 38 52 3f aa 44 1f 3f
       1.0190054 1.0957184 0.8211718 0.6221415

disease_feature_extractor.0.0.1.bias f4 [64]
000000 bd 12 d2 3e 73 1b 8d 3b ac 0f 8c 3e a1 51 2b 3e
       0.4102992 0.0043062507 0.27355707 0.16730358
000010 b0 62 24 3d cd e8 d0 bb 01 b7 23 3e ff 48 3b be
       0.04013318 -0.0063754083 0.15987779 -0.18289565
000020 d8 3c 55 3d 78 ce 04 bc 58 a5 da bb ef cf c7 be
       0.05205998 -0.008105867 -0.0066725425 -0.39025828
000030 5b 7d be bd ab d4 9c 3d 38 54 1a 3e b0 da f2 bd
       -0.093012534 0.07657751 0.1507119 -0.118581176
000040 70 84 d0 3d 3f 09 ed 3e ff 62 34 bd 35 b0 55 3e
       0.101815104 0.46296117 -0.044039723 0.20867999
000050 ac 56 89 3e 14 b2 93 3c 56 7c 05 3e 07 21 2a 3e
       0.26823938 0.01802925 0.13035712 0.16614161
000060 8d 84 bb bd 49 0d f2 3d 70 31 47 3e 87 86 ff 3d
       -0.091561414 0.1181894 0.19452453 0.12476831
000070 43 85 8e 3d 46 02 1e 3e 0f 26 78 3c 3d d6 25 be
       0.069590114 0.15430555 0.015145793 -0.16195007
000080 23 c9 0a 3e 2f 95 51 be f0 60 17 3e d6 52 0a 3e
       0.1355329 -0.20467065 0.14783072 0.13508162
000090 9b 85 8e 3e c2 17 0f 3e d3 1f 8f 3e 74 7e 97 3e
       0.27836308 0.13973907 0.27953967 0.29588664
0000a0 2b ca 62 3e c0 6d 8d be 44 bb 9c bd 03 fa 59 3e
       0.22147433 -0.27622795 -0.076529056 0.21286778
0000b0 c8 a1 2f 3e db 23 26 3e 1b 04 65 3d 8e 82 71 3e
       0.17151558 0.16224615 0.05591212 0.23584959
0000c0 2c d0 23 3e 41 18 84 3e e9 c4 6b 3d d7 9e 81 be
       0.1599738 0.25799754 0.057560835 -0.25316498
0000d0 7d 38 d7 3e 14 f6 26 3e 97 f9 06 3f 53 f8 21 3e
       0.42035285 0.16304809 0.52724594 0.15817384
0000e0 cb 82 2b 3d c3 56 cc bd cc 48 b4 3d d9 ad bd 3e
       0.04187278 -0.09977486 0.088029474 0.37046698
0000f0 d3 ec 80 3e 58 69 cc 3c ee 2a 53 be 92 0c 7b 3c
       0.25180683 0.024952576 -0.20621845 0.015322821

disease_feature_extractor.0.0.1.running_mean f4 [64]
000000 9c fa c7 c0 30 e1 80 c1 fa 77 79 c1 6b 92 aa c1
       -6.249342 -16.109955 -15.591791 -21.321493
000010 e8 1a 3f c1 0b 48 99 c1 ea 9c 92 c1 a0 24 22 3f
       -11.944069 -19.160177 -18.326618 0.63337135
000020 f3 25 b1 c1 0b cf 99 c1 13 b0 88 c1 96 e1 f6 c0
       -22.14353 -19.226095 -17.085974 -7.7150373
000030 49 a5 ae c0 61 82 8c c1 f3 d6 a8 c1 0c a9 c8 40
       -5.4576764 -17.563662 -21.104956 6.2706356
000040 75 3d 88 c1 2f ee 76 40 6f 74 58 41 0d 12 aa c1
       -17.030008 3.8582876 13.528426 -21.258814
000050 5c 6a 1c c1 70 05 89 c1 d5 ee bd c1 d4 da 91 c1
       -9.775967 -17.127655 -23.741617 -18.23185
000060 47 b7 65 c1 a4 ae b0 c1 27 7a 1e c1 a5 f5 91 c1
       -14.357245 -22.085274 -9.904822 -18.244944
000070 ff 49 55 c1 a2 ae 0d c1 b6 51 af c1 de 31 71 40
       -13.330565 -8.855135 -21.914898 3.7686687
000080 e2 d8 92 c1 ce b8 05 c1 83 32 b8 c1 8e 7a 1e c1
       -18.3559 -8.357618 -23.024664 -9.904921
000090 59 d8 ec c0 a1 1a ab c1 66 d0 20 c1 0e 8f 74 c1
       -7.4014096 -21.388002 -10.050879 -15.284925
0000a0 49 fa 47 c1 24 b1 eb c0 bc a7 94 c1 a0 25 6d c1
       -12.498605 -7.3653736 -18.581902 -14.821686
0000b0 04 f0 9b c1 2d 1c d6 c1 01 79 b4 41 00 d9 48 c1
       -19.492195 -26.763758 22.559084 -12.5529785
0000c0 bc e1 d7 c1 ef 0a f6 bf e9 e7 5d c1 8c 50 b6 c0
       -26.985222 -1.9222087 -13.869119 -5.6973324
0000d0 02 1a 34 c1 a8 7a b0 c1 63 93 31 c0 1b a5 2b c1
       -11.25635 -22.05989 -2.7746208 -10.727809
0000e0 00 b8 99 41 da 72 c3 40 53 d6 d0 c1 4e 23 1c c1
       19.214844 6.10777 -26.10465 -9.758619
0000f0 e6 7f 8d c1 b2 37 85 c1 f6 e2 21 c1 37 2a 12 c1
       -17.68745 -16.652195 -10.11791 -9.135306

disease_feature_extractor.0.0.1.running_var f4 [64]
000000 8f 36 e0 42 4c 8c 96 43 b8 2a 8e 43 4f 44 ce 43
       112.10656 301.09607 284.33374 412.53366
000010 ec e8 18 43 8a 78 a3 43 e2 4c 96 43 90 8d 83 42
       152.90985 326.9417 300.60065 65.77649
000020 20 8a d9 43 fc 6c 8a 43 8c 4c 92 43 a5 28 be 42
       435.0791 276.85144 292.59802 95.079384
000030 ae 0a 99 42 cf df 9b 43 2f cd fd 43 62 68 cf 42
       76.52086 311.7485 507.603 103.70387
000040 f7 f5 b1 43 f1 8a f0 42 a4 1d bd 42 39 49 c0 43
       355.9216 120.27137 94.55789 384.57205
000050 72 bd dd 42 75 34 88 43 8d 21 f9 43 c9 3b 88 43
       110.87001 272.40982 498.26212 272.46707
000060 07 39 4d 43 6a e3 ef 43 d9 c8 d5 42 75 61 7d 43
       205.22276 479.77667 106.89228 253.38069
000070 ba e9 17 43 59 ee c5 42 5c 93 ce 43 58 0f c3 42
       151.913 98.96552 413.15125 97.52997
000080 f7 37 88 43 7b 53 c6 42 89 be 0f 44 e2 84 bc 42
       272.43723 99.16305 574.9771 94.25954
000090 ab d1 fb 42 ae e4 b2 43 2a a6 d2 42 df a5 85 43
       125.90951 357.78656 105.32454 267.29587
0000a0 9f bb 4b 43 a2 37 aa 42 8f f9 85 43 af a3 88 43
       203.7329 85.10866 267.94968 273.27878
0000b0 0b 29 9b 43 17 29 21 44 eb 0b 81 43 f5 a6 29 43
       310.32065 644.642 258.0931 169.65218
0000c0 73 1d 1b 44 ba d4 fc 42 d2 e5 6a 43 b2 8d 81 42
       620.46014 126.41548 234.89774 64.77675
0000d0 8a 6c ee 42 90 e0 d3 43 a0 66 a7 42 3a 12 0b 43
       119.21199 423.7544 83.70044 139.0712
0000e0 66 8e 89 43 05 34 68 42 57 f4 1f 44 a9 39 d8 42
       275.1125 58.0508 639.8178 108.11262
0000f0 3e c8 97 43 cb 9f 89 43 8b 95 e9 42 cc ce a5 42
       303.5644 275.24838 116.792076 82.9039
